…
I1017 14:26:33.119760 64512 net.cpp:294] The NetState phase (0) differed from the phase (1) specified by a rule in layer mnist
I1017 14:26:33.119863 64512 net.cpp:51] Initializing net from parameters: 
name: "mnist_balanced_sampler"
state {
  phase: TRAIN
  level: 0
  stage: ""
}
layer {
  name: "mnist"
  type: "Python"
  top: "data"
  top: "label"
  include {
    phase: TRAIN
  }
  python_param {
    module: "balanced_sampling_layer.layer"
    layer: "BalancedSamplingLayer"
    param_str: "{\'name\': \'mnist\', \'samples_per_class\': 30, \'batch_size\': 100, \'train\': True}"
  }
}
layer {
  name: "csc"
  type: "CSC"
  bottom: "data"
  top: "csc"
  param {
    lr_mult: 1
    decay_mult: 1
  }
  param {
    lr_mult: 0
    decay_mult: 0
  }
  csc_param {
    lambda1: 0.1
    lambda2: 1
    boundary: PAD_BOTH
    kernel_h: 15
    kernel_w: 15
    num_output: 15
    admm_max_iter: 1000
    admm_max_rho: 1
    admm_eta: 1.1
    filler {
      type: "xavier"
    }
    verbose: false
  }
}
layer {
  name: "bn"
  type: "BatchNorm"
  bottom: "csc"
  top: "bn"
}
layer {
  name: "scale"
  type: "Scale"
  bottom: "bn"
  top: "bn"
  scale_param {
    bias_term: true
  }
}
layer {
  name: "relu"
  type: "ReLU"
  bottom: "bn"
  top: "bn"
}
layer {
  name: "pool"
  type: "Pooling"
  bottom: "bn"
  top: "pool"
  pooling_param {
    pool: MAX
    kernel_size: 7
    stride: 7
  }
}
layer {
  name: "ip"
  type: "InnerProduct"
  bottom: "pool"
  top: "ip"
  param {
    lr_mult: 1
    decay_mult: 1
  }
  param {
    lr_mult: 2
    decay_mult: 0
  }
  inner_product_param {
    num_output: 10
    weight_filler {
      type: "xavier"
    }
    bias_filler {
      type: "constant"
    }
  }
}
layer {
  name: "accuracy"
  type: "Accuracy"
  bottom: "ip"
  bottom: "label"
  top: "accuracy"
}
layer {
  name: "loss"
  type: "SoftmaxWithLoss"
  bottom: "ip"
  bottom: "label"
  top: "loss"
}
I1017 14:26:33.119964 64512 layer_factory.hpp:77] Creating layer mnist
I1017 14:26:33.657771 64512 net.cpp:84] Creating Layer mnist
I1017 14:26:33.657800 64512 net.cpp:380] mnist -> data
I1017 14:26:33.657824 64512 net.cpp:380] mnist -> label
I1017 14:26:35.337438 64512 net.cpp:122] Setting up mnist
I1017 14:26:35.337489 64512 net.cpp:129] Top shape: 100 1 28 28 (78400)
I1017 14:26:35.337494 64512 net.cpp:129] Top shape: 100 (100)
I1017 14:26:35.337497 64512 net.cpp:137] Memory required for data: 314000
I1017 14:26:35.337512 64512 layer_factory.hpp:77] Creating layer label_mnist_1_split
I1017 14:26:35.337534 64512 net.cpp:84] Creating Layer label_mnist_1_split
I1017 14:26:35.337545 64512 net.cpp:406] label_mnist_1_split <- label
I1017 14:26:35.337579 64512 net.cpp:380] label_mnist_1_split -> label_mnist_1_split_0
I1017 14:26:35.337590 64512 net.cpp:380] label_mnist_1_split -> label_mnist_1_split_1
I1017 14:26:35.337626 64512 net.cpp:122] Setting up label_mnist_1_split
I1017 14:26:35.337631 64512 net.cpp:129] Top shape: 100 (100)
I1017 14:26:35.337635 64512 net.cpp:129] Top shape: 100 (100)
I1017 14:26:35.337637 64512 net.cpp:137] Memory required for data: 314800
I1017 14:26:35.337642 64512 layer_factory.hpp:77] Creating layer csc
I1017 14:26:35.337654 64512 net.cpp:84] Creating Layer csc
I1017 14:26:35.337659 64512 net.cpp:406] csc <- data
I1017 14:26:35.337663 64512 net.cpp:380] csc -> csc
I1017 14:26:35.338841 64512 net.cpp:122] Setting up csc
I1017 14:26:35.338853 64512 net.cpp:129] Top shape: 100 15 28 28 (1176000)
I1017 14:26:35.338873 64512 net.cpp:137] Memory required for data: 5018800
I1017 14:26:35.338915 64512 layer_factory.hpp:77] Creating layer bn
I1017 14:26:35.338925 64512 net.cpp:84] Creating Layer bn
I1017 14:26:35.338945 64512 net.cpp:406] bn <- csc
I1017 14:26:35.338950 64512 net.cpp:380] bn -> bn
I1017 14:26:35.339802 64512 net.cpp:122] Setting up bn
I1017 14:26:35.339813 64512 net.cpp:129] Top shape: 100 15 28 28 (1176000)
I1017 14:26:35.339817 64512 net.cpp:137] Memory required for data: 9722800
I1017 14:26:35.339825 64512 layer_factory.hpp:77] Creating layer scale
I1017 14:26:35.339838 64512 net.cpp:84] Creating Layer scale
I1017 14:26:35.339840 64512 net.cpp:406] scale <- bn
I1017 14:26:35.339844 64512 net.cpp:367] scale -> bn (in-place)
I1017 14:26:35.339903 64512 layer_factory.hpp:77] Creating layer scale
I1017 14:26:35.340003 64512 net.cpp:122] Setting up scale
I1017 14:26:35.340009 64512 net.cpp:129] Top shape: 100 15 28 28 (1176000)
I1017 14:26:35.340011 64512 net.cpp:137] Memory required for data: 14426800
I1017 14:26:35.340018 64512 layer_factory.hpp:77] Creating layer relu
I1017 14:26:35.340045 64512 net.cpp:84] Creating Layer relu
I1017 14:26:35.340049 64512 net.cpp:406] relu <- bn
I1017 14:26:35.340054 64512 net.cpp:367] relu -> bn (in-place)
I1017 14:26:35.592550 64512 net.cpp:122] Setting up relu
I1017 14:26:35.592607 64512 net.cpp:129] Top shape: 100 15 28 28 (1176000)
I1017 14:26:35.592612 64512 net.cpp:137] Memory required for data: 19130800
I1017 14:26:35.592618 64512 layer_factory.hpp:77] Creating layer pool
I1017 14:26:35.592639 64512 net.cpp:84] Creating Layer pool
I1017 14:26:35.592643 64512 net.cpp:406] pool <- bn
I1017 14:26:35.592651 64512 net.cpp:380] pool -> pool
I1017 14:26:35.592728 64512 net.cpp:122] Setting up pool
I1017 14:26:35.592736 64512 net.cpp:129] Top shape: 100 15 4 4 (24000)
I1017 14:26:35.592739 64512 net.cpp:137] Memory required for data: 19226800
I1017 14:26:35.592759 64512 layer_factory.hpp:77] Creating layer ip
I1017 14:26:35.592772 64512 net.cpp:84] Creating Layer ip
I1017 14:26:35.592775 64512 net.cpp:406] ip <- pool
I1017 14:26:35.592780 64512 net.cpp:380] ip -> ip
I1017 14:26:35.592905 64512 net.cpp:122] Setting up ip
I1017 14:26:35.592911 64512 net.cpp:129] Top shape: 100 10 (1000)
I1017 14:26:35.592914 64512 net.cpp:137] Memory required for data: 19230800
I1017 14:26:35.592928 64512 layer_factory.hpp:77] Creating layer ip_ip_0_split
I1017 14:26:35.592936 64512 net.cpp:84] Creating Layer ip_ip_0_split
I1017 14:26:35.592941 64512 net.cpp:406] ip_ip_0_split <- ip
I1017 14:26:35.592945 64512 net.cpp:380] ip_ip_0_split -> ip_ip_0_split_0
I1017 14:26:35.592952 64512 net.cpp:380] ip_ip_0_split -> ip_ip_0_split_1
I1017 14:26:35.592983 64512 net.cpp:122] Setting up ip_ip_0_split
I1017 14:26:35.592989 64512 net.cpp:129] Top shape: 100 10 (1000)
I1017 14:26:35.592993 64512 net.cpp:129] Top shape: 100 10 (1000)
I1017 14:26:35.592998 64512 net.cpp:137] Memory required for data: 19238800
I1017 14:26:35.593000 64512 layer_factory.hpp:77] Creating layer accuracy
I1017 14:26:35.593008 64512 net.cpp:84] Creating Layer accuracy
I1017 14:26:35.593011 64512 net.cpp:406] accuracy <- ip_ip_0_split_0
I1017 14:26:35.593015 64512 net.cpp:406] accuracy <- label_mnist_1_split_0
I1017 14:26:35.593019 64512 net.cpp:380] accuracy -> accuracy
…
