…
I1021 21:34:05.849023 45316 net.cpp:294] The NetState phase (0) differed from the phase (1) specified by a rule in layer mnist
I1021 21:34:05.849124 45316 net.cpp:51] Initializing net from parameters: 
name: "mnist_balanced_sampler"
state {
  phase: TRAIN
  level: 0
  stage: ""
}
layer {
  name: "mnist"
  type: "Python"
  top: "data"
  top: "label"
  include {
    phase: TRAIN
  }
  python_param {
    module: "balanced_sampling_layer.layer"
    layer: "BalancedSamplingLayer"
    param_str: "{\'name\': \'mnist\', \'samples_per_class\': 30, \'batch_size\': 100, \'train\': True}"
  }
}
layer {
  name: "csc"
  type: "CSC"
  bottom: "data"
  top: "csc"
  param {
    lr_mult: 1
    decay_mult: 1
  }
  param {
    lr_mult: 0
    decay_mult: 0
  }
  csc_param {
    lambda1: 0.1
    lambda2: 1
    boundary: PAD_BOTH
    kernel_h: 15
    kernel_w: 15
    num_output: 15
    admm_max_iter: 1000
    admm_max_rho: 1
    admm_eta: 1.1
    filler {
      type: "xavier"
    }
    verbose: false
  }
}
layer {
  name: "bn"
  type: "BatchNorm"
  bottom: "csc"
  top: "bn"
}
layer {
  name: "scale"
  type: "Scale"
  bottom: "bn"
  top: "bn"
  scale_param {
    bias_term: true
  }
}
layer {
  name: "relu"
  type: "ReLU"
  bottom: "bn"
  top: "bn"
}
layer {
  name: "pool"
  type: "Pooling"
  bottom: "bn"
  top: "pool"
  pooling_param {
    pool: MAX
    kernel_size: 7
    stride: 7
  }
}
layer {
  name: "ip"
  type: "InnerProduct"
  bottom: "pool"
  top: "ip"
  param {
    lr_mult: 1
    decay_mult: 1
  }
  param {
    lr_mult: 2
    decay_mult: 0
  }
  inner_product_param {
    num_output: 10
    weight_filler {
      type: "xavier"
    }
    bias_filler {
      type: "constant"
    }
  }
}
layer {
  name: "accuracy"
  type: "Accuracy"
  bottom: "ip"
  bottom: "label"
  top: "accuracy"
}
layer {
  name: "loss"
  type: "SoftmaxWithLoss"
  bottom: "ip"
  bottom: "label"
  top: "loss"
}
I1021 21:34:05.849231 45316 layer_factory.hpp:77] Creating layer mnist
I1021 21:34:06.394757 45316 net.cpp:84] Creating Layer mnist
I1021 21:34:06.394790 45316 net.cpp:380] mnist -> data
I1021 21:34:06.394815 45316 net.cpp:380] mnist -> label
I1021 21:34:08.121745 45316 net.cpp:122] Setting up mnist
I1021 21:34:08.121798 45316 net.cpp:129] Top shape: 100 1 28 28 (78400)
I1021 21:34:08.121803 45316 net.cpp:129] Top shape: 100 (100)
I1021 21:34:08.121806 45316 net.cpp:137] Memory required for data: 314000
I1021 21:34:08.121820 45316 layer_factory.hpp:77] Creating layer label_mnist_1_split
I1021 21:34:08.121843 45316 net.cpp:84] Creating Layer label_mnist_1_split
I1021 21:34:08.121873 45316 net.cpp:406] label_mnist_1_split <- label
I1021 21:34:08.121906 45316 net.cpp:380] label_mnist_1_split -> label_mnist_1_split_0
I1021 21:34:08.121918 45316 net.cpp:380] label_mnist_1_split -> label_mnist_1_split_1
I1021 21:34:08.121953 45316 net.cpp:122] Setting up label_mnist_1_split
I1021 21:34:08.121958 45316 net.cpp:129] Top shape: 100 (100)
I1021 21:34:08.121963 45316 net.cpp:129] Top shape: 100 (100)
I1021 21:34:08.121965 45316 net.cpp:137] Memory required for data: 314800
I1021 21:34:08.121969 45316 layer_factory.hpp:77] Creating layer csc
I1021 21:34:08.121982 45316 net.cpp:84] Creating Layer csc
I1021 21:34:08.121986 45316 net.cpp:406] csc <- data
I1021 21:34:08.121990 45316 net.cpp:380] csc -> csc
I1021 21:34:08.123221 45316 net.cpp:122] Setting up csc
I1021 21:34:08.123234 45316 net.cpp:129] Top shape: 100 15 28 28 (1176000)
I1021 21:34:08.123236 45316 net.cpp:137] Memory required for data: 5018800
I1021 21:34:08.123301 45316 layer_factory.hpp:77] Creating layer bn
I1021 21:34:08.123311 45316 net.cpp:84] Creating Layer bn
I1021 21:34:08.123332 45316 net.cpp:406] bn <- csc
I1021 21:34:08.123337 45316 net.cpp:380] bn -> bn
I1021 21:34:08.124228 45316 net.cpp:122] Setting up bn
I1021 21:34:08.124240 45316 net.cpp:129] Top shape: 100 15 28 28 (1176000)
I1021 21:34:08.124243 45316 net.cpp:137] Memory required for data: 9722800
I1021 21:34:08.124254 45316 layer_factory.hpp:77] Creating layer scale
I1021 21:34:08.124264 45316 net.cpp:84] Creating Layer scale
I1021 21:34:08.124267 45316 net.cpp:406] scale <- bn
I1021 21:34:08.124271 45316 net.cpp:367] scale -> bn (in-place)
I1021 21:34:08.124332 45316 layer_factory.hpp:77] Creating layer scale
I1021 21:34:08.124439 45316 net.cpp:122] Setting up scale
I1021 21:34:08.124445 45316 net.cpp:129] Top shape: 100 15 28 28 (1176000)
I1021 21:34:08.124449 45316 net.cpp:137] Memory required for data: 14426800
I1021 21:34:08.124454 45316 layer_factory.hpp:77] Creating layer relu
I1021 21:34:08.124464 45316 net.cpp:84] Creating Layer relu
I1021 21:34:08.124485 45316 net.cpp:406] relu <- bn
I1021 21:34:08.124490 45316 net.cpp:367] relu -> bn (in-place)
I1021 21:34:08.388685 45316 net.cpp:122] Setting up relu
I1021 21:34:08.388723 45316 net.cpp:129] Top shape: 100 15 28 28 (1176000)
I1021 21:34:08.388727 45316 net.cpp:137] Memory required for data: 19130800
I1021 21:34:08.388734 45316 layer_factory.hpp:77] Creating layer pool
I1021 21:34:08.388752 45316 net.cpp:84] Creating Layer pool
I1021 21:34:08.388756 45316 net.cpp:406] pool <- bn
I1021 21:34:08.388764 45316 net.cpp:380] pool -> pool
I1021 21:34:08.388866 45316 net.cpp:122] Setting up pool
I1021 21:34:08.388873 45316 net.cpp:129] Top shape: 100 15 4 4 (24000)
I1021 21:34:08.388876 45316 net.cpp:137] Memory required for data: 19226800
I1021 21:34:08.388881 45316 layer_factory.hpp:77] Creating layer ip
I1021 21:34:08.388909 45316 net.cpp:84] Creating Layer ip
I1021 21:34:08.388912 45316 net.cpp:406] ip <- pool
I1021 21:34:08.388917 45316 net.cpp:380] ip -> ip
I1021 21:34:08.389040 45316 net.cpp:122] Setting up ip
I1021 21:34:08.389047 45316 net.cpp:129] Top shape: 100 10 (1000)
I1021 21:34:08.389050 45316 net.cpp:137] Memory required for data: 19230800
I1021 21:34:08.389063 45316 layer_factory.hpp:77] Creating layer ip_ip_0_split
I1021 21:34:08.389072 45316 net.cpp:84] Creating Layer ip_ip_0_split
I1021 21:34:08.389075 45316 net.cpp:406] ip_ip_0_split <- ip
I1021 21:34:08.389081 45316 net.cpp:380] ip_ip_0_split -> ip_ip_0_split_0
I1021 21:34:08.389086 45316 net.cpp:380] ip_ip_0_split -> ip_ip_0_split_1
I1021 21:34:08.389119 45316 net.cpp:122] Setting up ip_ip_0_split
I1021 21:34:08.389125 45316 net.cpp:129] Top shape: 100 10 (1000)
I1021 21:34:08.389129 45316 net.cpp:129] Top shape: 100 10 (1000)
I1021 21:34:08.389132 45316 net.cpp:137] Memory required for data: 19238800
I1021 21:34:08.389135 45316 layer_factory.hpp:77] Creating layer accuracy
I1021 21:34:08.389143 45316 net.cpp:84] Creating Layer accuracy
I1021 21:34:08.389148 45316 net.cpp:406] accuracy <- ip_ip_0_split_0
I1021 21:34:08.389152 45316 net.cpp:406] accuracy <- label_mnist_1_split_0
I1021 21:34:08.389156 45316 net.cpp:380] accuracy -> accuracy
…
