…
I1021 13:01:21.508540 34444 net.cpp:294] The NetState phase (0) differed from the phase (1) specified by a rule in layer mnist
I1021 13:01:21.508620 34444 net.cpp:51] Initializing net from parameters: 
name: "mnist_balanced_sampler"
state {
  phase: TRAIN
  level: 0
  stage: ""
}
layer {
  name: "mnist"
  type: "Python"
  top: "data"
  top: "label"
  include {
    phase: TRAIN
  }
  python_param {
    module: "balanced_sampling_layer.layer"
    layer: "BalancedSamplingLayer"
    param_str: "{\'name\': \'mnist\', \'samples_per_class\': 30, \'batch_size\': 100, \'train\': True}"
  }
}
layer {
  name: "csc"
  type: "CSC"
  bottom: "data"
  top: "csc"
  param {
    lr_mult: 1
    decay_mult: 1
  }
  param {
    lr_mult: 0
    decay_mult: 0
  }
  csc_param {
    lambda1: 0.1
    lambda2: 1
    boundary: PAD_BOTH
    kernel_h: 15
    kernel_w: 15
    num_output: 15
    admm_max_iter: 1000
    admm_max_rho: 1
    admm_eta: 1.1
    filler {
      type: "xavier"
    }
    verbose: false
  }
}
layer {
  name: "pool"
  type: "Pooling"
  bottom: "csc"
  top: "pool"
  pooling_param {
    pool: MAX
    kernel_size: 7
    stride: 7
  }
}
layer {
  name: "ip"
  type: "InnerProduct"
  bottom: "pool"
  top: "ip"
  param {
    lr_mult: 1
    decay_mult: 1
  }
  param {
    lr_mult: 2
    decay_mult: 0
  }
  inner_product_param {
    num_output: 10
    weight_filler {
      type: "xavier"
    }
    bias_filler {
      type: "constant"
    }
  }
}
layer {
  name: "accuracy"
  type: "Accuracy"
  bottom: "ip"
  bottom: "label"
  top: "accuracy"
}
layer {
  name: "loss"
  type: "SoftmaxWithLoss"
  bottom: "ip"
  bottom: "label"
  top: "loss"
}
I1021 13:01:21.508730 34444 layer_factory.hpp:77] Creating layer mnist
I1021 13:01:22.087285 34444 net.cpp:84] Creating Layer mnist
I1021 13:01:22.087342 34444 net.cpp:380] mnist -> data
I1021 13:01:22.087368 34444 net.cpp:380] mnist -> label
I1021 13:01:23.864507 34444 net.cpp:122] Setting up mnist
I1021 13:01:23.864596 34444 net.cpp:129] Top shape: 100 1 28 28 (78400)
I1021 13:01:23.864603 34444 net.cpp:129] Top shape: 100 (100)
I1021 13:01:23.864608 34444 net.cpp:137] Memory required for data: 314000
I1021 13:01:23.864629 34444 layer_factory.hpp:77] Creating layer label_mnist_1_split
I1021 13:01:23.864701 34444 net.cpp:84] Creating Layer label_mnist_1_split
I1021 13:01:23.864725 34444 net.cpp:406] label_mnist_1_split <- label
I1021 13:01:23.864744 34444 net.cpp:380] label_mnist_1_split -> label_mnist_1_split_0
I1021 13:01:23.864758 34444 net.cpp:380] label_mnist_1_split -> label_mnist_1_split_1
I1021 13:01:23.864794 34444 net.cpp:122] Setting up label_mnist_1_split
I1021 13:01:23.864801 34444 net.cpp:129] Top shape: 100 (100)
I1021 13:01:23.864805 34444 net.cpp:129] Top shape: 100 (100)
I1021 13:01:23.864809 34444 net.cpp:137] Memory required for data: 314800
I1021 13:01:23.864811 34444 layer_factory.hpp:77] Creating layer csc
I1021 13:01:23.864831 34444 net.cpp:84] Creating Layer csc
I1021 13:01:23.864836 34444 net.cpp:406] csc <- data
I1021 13:01:23.864841 34444 net.cpp:380] csc -> csc
I1021 13:01:23.866124 34444 net.cpp:122] Setting up csc
I1021 13:01:23.866137 34444 net.cpp:129] Top shape: 100 15 28 28 (1176000)
I1021 13:01:23.866140 34444 net.cpp:137] Memory required for data: 5018800
I1021 13:01:23.866158 34444 layer_factory.hpp:77] Creating layer pool
I1021 13:01:23.866173 34444 net.cpp:84] Creating Layer pool
I1021 13:01:23.866178 34444 net.cpp:406] pool <- csc
I1021 13:01:23.866181 34444 net.cpp:380] pool -> pool
I1021 13:01:23.866245 34444 net.cpp:122] Setting up pool
I1021 13:01:23.866253 34444 net.cpp:129] Top shape: 100 15 4 4 (24000)
I1021 13:01:23.866256 34444 net.cpp:137] Memory required for data: 5114800
I1021 13:01:23.866261 34444 layer_factory.hpp:77] Creating layer ip
I1021 13:01:23.866276 34444 net.cpp:84] Creating Layer ip
I1021 13:01:23.866281 34444 net.cpp:406] ip <- pool
I1021 13:01:23.866286 34444 net.cpp:380] ip -> ip
I1021 13:01:23.866386 34444 net.cpp:122] Setting up ip
I1021 13:01:23.866394 34444 net.cpp:129] Top shape: 100 10 (1000)
I1021 13:01:23.866397 34444 net.cpp:137] Memory required for data: 5118800
I1021 13:01:23.866405 34444 layer_factory.hpp:77] Creating layer ip_ip_0_split
I1021 13:01:23.866410 34444 net.cpp:84] Creating Layer ip_ip_0_split
I1021 13:01:23.866423 34444 net.cpp:406] ip_ip_0_split <- ip
I1021 13:01:23.866428 34444 net.cpp:380] ip_ip_0_split -> ip_ip_0_split_0
I1021 13:01:23.866433 34444 net.cpp:380] ip_ip_0_split -> ip_ip_0_split_1
I1021 13:01:23.866464 34444 net.cpp:122] Setting up ip_ip_0_split
I1021 13:01:23.866469 34444 net.cpp:129] Top shape: 100 10 (1000)
I1021 13:01:23.866474 34444 net.cpp:129] Top shape: 100 10 (1000)
I1021 13:01:23.866477 34444 net.cpp:137] Memory required for data: 5126800
I1021 13:01:23.866479 34444 layer_factory.hpp:77] Creating layer accuracy
I1021 13:01:23.866485 34444 net.cpp:84] Creating Layer accuracy
I1021 13:01:23.866489 34444 net.cpp:406] accuracy <- ip_ip_0_split_0
I1021 13:01:23.866492 34444 net.cpp:406] accuracy <- label_mnist_1_split_0
I1021 13:01:23.866497 34444 net.cpp:380] accuracy -> accuracy
…
