…
I1010 15:56:29.970582 52138 solver.cpp:87] Creating training net from net file: examples/mnist_csc/small_context.prototxt
I1010 15:56:29.970963 52138 net.cpp:294] The NetState phase (0) differed from the phase (1) specified by a rule in layer mnist
I1010 15:56:29.971076 52138 net.cpp:51] Initializing net from parameters: 
name: "mnist_csc_small_context"
state {
  phase: TRAIN
  level: 0
  stage: ""
}
layer {
  name: "mnist"
  type: "Data"
  top: "data"
  top: "label"
  include {
    phase: TRAIN
  }
  transform_param {
    scale: 0.00390625
  }
  data_param {
    source: "examples/mnist/mnist_train_lmdb"
    batch_size: 100
    backend: LMDB
  }
}
layer {
  name: "reshape"
  type: "Python"
  bottom: "data"
  top: "reshape"
  python_param {
    module: "patch_layer.layer"
    layer: "CSCPatchLayer"
    param_str: "{\'patch_size\': 14}"
  }
}
layer {
  name: "csc"
  type: "CSC"
  bottom: "reshape"
  top: "csc"
  param {
    lr_mult: 1
  }
  param {
    lr_mult: 0
  }
  csc_param {
    lambda1: 0.1
    lambda2: 1
    boundary: PAD_BOTH
    kernel_h: 5
    kernel_w: 5
    num_output: 1600
    admm_max_iter: 1000
    admm_max_rho: 1
    admm_eta: 1.1
    filler {
      type: "xavier"
    }
    verbose: false
  }
}
layer {
  name: "pool"
  type: "Pooling"
  bottom: "csc"
  top: "pool"
  pooling_param {
    pool: MAX
    global_pooling: true
  }
}
layer {
  name: "reshape_back"
  type: "Python"
  bottom: "pool"
  top: "reshape_back"
  propagate_down: false
  python_param {
    module: "patch_layer.layer"
    layer: "CSCGatherLayer"
    param_str: "{\'num_patches_h\': 2, \'num_patches_w\': 2}"
  }
}
layer {
  name: "bn"
  type: "BatchNorm"
  bottom: "reshape_back"
  top: "bn"
}
layer {
  name: "scale"
  type: "Scale"
  bottom: "bn"
  top: "bn"
  scale_param {
    bias_term: true
  }
}
layer {
  name: "relu"
  type: "ReLU"
  bottom: "bn"
  top: "bn"
}
layer {
  name: "ip"
  type: "InnerProduct"
  bottom: "bn"
  top: "ip"
  param {
    lr_mult: 1
    decay_mult: 1
  }
  param {
    lr_mult: 2
    decay_mult: 0
  }
  inner_product_param {
    num_output: 10
    weight_filler {
      type: "xavier"
    }
    bias_filler {
      type: "constant"
    }
  }
}
layer {
  name: "accuracy"
  type: "Accuracy"
  bottom: "ip"
  bottom: "label"
  top: "accuracy"
}
layer {
  name: "loss"
  type: "SoftmaxWithLoss"
  bottom: "ip"
  bottom: "label"
  top: "loss"
}
I1010 15:56:29.971179 52138 layer_factory.hpp:77] Creating layer mnist
I1010 15:56:29.971479 52138 db_lmdb.cpp:35] Opened lmdb examples/mnist/mnist_train_lmdb
I1010 15:56:29.971530 52138 net.cpp:84] Creating Layer mnist
I1010 15:56:29.971544 52138 net.cpp:380] mnist -> data
I1010 15:56:29.971575 52138 net.cpp:380] mnist -> label
I1010 15:56:29.972509 52138 data_layer.cpp:45] output data size: 100,1,28,28
I1010 15:56:29.975831 52138 net.cpp:122] Setting up mnist
I1010 15:56:29.975935 52138 net.cpp:129] Top shape: 100 1 28 28 (78400)
I1010 15:56:29.975941 52138 net.cpp:129] Top shape: 100 (100)
I1010 15:56:29.975944 52138 net.cpp:137] Memory required for data: 314000
I1010 15:56:29.975951 52138 layer_factory.hpp:77] Creating layer label_mnist_1_split
I1010 15:56:29.975963 52138 net.cpp:84] Creating Layer label_mnist_1_split
I1010 15:56:29.975968 52138 net.cpp:406] label_mnist_1_split <- label
I1010 15:56:29.975980 52138 net.cpp:380] label_mnist_1_split -> label_mnist_1_split_0
I1010 15:56:29.975987 52138 net.cpp:380] label_mnist_1_split -> label_mnist_1_split_1
I1010 15:56:29.976037 52138 net.cpp:122] Setting up label_mnist_1_split
I1010 15:56:29.976043 52138 net.cpp:129] Top shape: 100 (100)
I1010 15:56:29.976069 52138 net.cpp:129] Top shape: 100 (100)
I1010 15:56:29.976074 52138 net.cpp:137] Memory required for data: 314800
I1010 15:56:29.976076 52138 layer_factory.hpp:77] Creating layer reshape
I1010 15:56:30.376512 52138 net.cpp:84] Creating Layer reshape
I1010 15:56:30.376540 52138 net.cpp:406] reshape <- data
I1010 15:56:30.376549 52138 net.cpp:380] reshape -> reshape
I1010 15:56:30.376758 52138 net.cpp:122] Setting up reshape
I1010 15:56:30.376775 52138 net.cpp:129] Top shape: 400 1 14 14 (78400)
I1010 15:56:30.376780 52138 net.cpp:137] Memory required for data: 628400
I1010 15:56:30.376785 52138 layer_factory.hpp:77] Creating layer csc
I1010 15:56:30.376816 52138 net.cpp:84] Creating Layer csc
I1010 15:56:30.376819 52138 net.cpp:406] csc <- reshape
I1010 15:56:30.376824 52138 net.cpp:380] csc -> csc
I1010 15:56:30.378360 52138 net.cpp:122] Setting up csc
I1010 15:56:30.378371 52138 net.cpp:129] Top shape: 400 1600 14 14 (125440000)
I1010 15:56:30.378374 52138 net.cpp:137] Memory required for data: 502388400
I1010 15:56:30.378391 52138 layer_factory.hpp:77] Creating layer pool
I1010 15:56:30.378406 52138 net.cpp:84] Creating Layer pool
I1010 15:56:30.378408 52138 net.cpp:406] pool <- csc
I1010 15:56:30.378417 52138 net.cpp:380] pool -> pool
I1010 15:56:30.378460 52138 net.cpp:122] Setting up pool
I1010 15:56:30.378465 52138 net.cpp:129] Top shape: 400 1600 1 1 (640000)
I1010 15:56:30.378468 52138 net.cpp:137] Memory required for data: 504948400
I1010 15:56:30.378470 52138 layer_factory.hpp:77] Creating layer reshape_back
I1010 15:56:30.378517 52138 net.cpp:84] Creating Layer reshape_back
I1010 15:56:30.378523 52138 net.cpp:406] reshape_back <- pool
I1010 15:56:30.378528 52138 net.cpp:380] reshape_back -> reshape_back
I1010 15:56:30.380105 52138 net.cpp:122] Setting up reshape_back
I1010 15:56:30.380117 52138 net.cpp:129] Top shape: 100 1600 2 2 (640000)
I1010 15:56:30.380120 52138 net.cpp:137] Memory required for data: 507508400
I1010 15:56:30.380123 52138 layer_factory.hpp:77] Creating layer bn
I1010 15:56:30.380133 52138 net.cpp:84] Creating Layer bn
I1010 15:56:30.380136 52138 net.cpp:406] bn <- reshape_back
I1010 15:56:30.380141 52138 net.cpp:380] bn -> bn
I1010 15:56:30.381103 52138 net.cpp:122] Setting up bn
I1010 15:56:30.381134 52138 net.cpp:129] Top shape: 100 1600 2 2 (640000)
I1010 15:56:30.381136 52138 net.cpp:137] Memory required for data: 510068400
I1010 15:56:30.381162 52138 layer_factory.hpp:77] Creating layer scale
I1010 15:56:30.381172 52138 net.cpp:84] Creating Layer scale
I1010 15:56:30.381175 52138 net.cpp:406] scale <- bn
I1010 15:56:30.381181 52138 net.cpp:367] scale -> bn (in-place)
I1010 15:56:30.381224 52138 layer_factory.hpp:77] Creating layer scale
I1010 15:56:30.381320 52138 net.cpp:122] Setting up scale
I1010 15:56:30.381326 52138 net.cpp:129] Top shape: 100 1600 2 2 (640000)
I1010 15:56:30.381330 52138 net.cpp:137] Memory required for data: 512628400
I1010 15:56:30.381336 52138 layer_factory.hpp:77] Creating layer relu
I1010 15:56:30.381345 52138 net.cpp:84] Creating Layer relu
I1010 15:56:30.381350 52138 net.cpp:406] relu <- bn
I1010 15:56:30.381353 52138 net.cpp:367] relu -> bn (in-place)
I1010 15:56:30.635915 52138 net.cpp:122] Setting up relu
I1010 15:56:30.635946 52138 net.cpp:129] Top shape: 100 1600 2 2 (640000)
I1010 15:56:30.635951 52138 net.cpp:137] Memory required for data: 515188400
I1010 15:56:30.635957 52138 layer_factory.hpp:77] Creating layer ip
I1010 15:56:30.635974 52138 net.cpp:84] Creating Layer ip
I1010 15:56:30.635978 52138 net.cpp:406] ip <- bn
I1010 15:56:30.635987 52138 net.cpp:380] ip -> ip
I1010 15:56:30.636477 52138 net.cpp:122] Setting up ip
I1010 15:56:30.636485 52138 net.cpp:129] Top shape: 100 10 (1000)
I1010 15:56:30.636488 52138 net.cpp:137] Memory required for data: 515192400
I1010 15:56:30.636515 52138 layer_factory.hpp:77] Creating layer ip_ip_0_split
I1010 15:56:30.636523 52138 net.cpp:84] Creating Layer ip_ip_0_split
I1010 15:56:30.636525 52138 net.cpp:406] ip_ip_0_split <- ip
I1010 15:56:30.636529 52138 net.cpp:380] ip_ip_0_split -> ip_ip_0_split_0
I1010 15:56:30.636556 52138 net.cpp:380] ip_ip_0_split -> ip_ip_0_split_1
I1010 15:56:30.636587 52138 net.cpp:122] Setting up ip_ip_0_split
I1010 15:56:30.636592 52138 net.cpp:129] Top shape: 100 10 (1000)
I1010 15:56:30.636598 52138 net.cpp:129] Top shape: 100 10 (1000)
I1010 15:56:30.636601 52138 net.cpp:137] Memory required for data: 515200400
I1010 15:56:30.636603 52138 layer_factory.hpp:77] Creating layer accuracy
I1010 15:56:30.636612 52138 net.cpp:84] Creating Layer accuracy
I1010 15:56:30.636616 52138 net.cpp:406] accuracy <- ip_ip_0_split_0
I1010 15:56:30.636620 52138 net.cpp:406] accuracy <- label_mnist_1_split_0
I1010 15:56:30.636624 52138 net.cpp:380] accuracy -> accuracy
…
