…
I1011 15:08:17.851714 117559 solver.cpp:87] Creating training net from net file: examples/mnist_csc/small_context.prototxt
I1011 15:08:17.852067 117559 net.cpp:294] The NetState phase (0) differed from the phase (1) specified by a rule in layer mnist
I1011 15:08:17.852164 117559 net.cpp:51] Initializing net from parameters: 
name: "mnist_csc_small_context"
state {
  phase: TRAIN
  level: 0
  stage: ""
}
layer {
  name: "mnist"
  type: "Data"
  top: "data"
  top: "label"
  include {
    phase: TRAIN
  }
  transform_param {
    scale: 0.00390625
  }
  data_param {
    source: "examples/mnist/mnist_train_lmdb"
    batch_size: 100
    backend: LMDB
  }
}
layer {
  name: "reshape"
  type: "Python"
  bottom: "data"
  top: "reshape"
  propagate_down: false
  python_param {
    module: "patch_layer.layer"
    layer: "CSCPatchLayer"
    param_str: "{\'patch_size\': 7}"
  }
}
layer {
  name: "csc"
  type: "CSC"
  bottom: "reshape"
  top: "csc"
  param {
    lr_mult: 1
  }
  param {
    lr_mult: 0
  }
  csc_param {
    lambda1: 0.1
    lambda2: 1
    boundary: PAD_BOTH
    kernel_h: 5
    kernel_w: 5
    num_output: 100
    admm_max_iter: 1000
    admm_max_rho: 1
    admm_eta: 1.1
    filler {
      type: "xavier"
    }
    verbose: false
  }
}
layer {
  name: "pool"
  type: "Pooling"
  bottom: "csc"
  top: "pool"
  pooling_param {
    pool: MAX
    global_pooling: true
  }
}
layer {
  name: "reshape_back"
  type: "Python"
  bottom: "pool"
  top: "reshape_back"
  python_param {
    module: "patch_layer.layer"
    layer: "CSCGatherLayer"
    param_str: "{\'num_patches_h\': 4, \'num_patches_w\': 4}"
  }
}
layer {
  name: "bn"
  type: "BatchNorm"
  bottom: "reshape_back"
  top: "bn"
}
layer {
  name: "scale"
  type: "Scale"
  bottom: "bn"
  top: "bn"
  scale_param {
    bias_term: true
  }
}
layer {
  name: "relu"
  type: "ReLU"
  bottom: "bn"
  top: "bn"
}
layer {
  name: "ip"
  type: "InnerProduct"
  bottom: "bn"
  top: "ip"
  param {
    lr_mult: 1
    decay_mult: 1
  }
  param {
    lr_mult: 2
    decay_mult: 0
  }
  inner_product_param {
    num_output: 10
    weight_filler {
      type: "xavier"
    }
    bias_filler {
      type: "constant"
    }
  }
}
layer {
  name: "accuracy"
  type: "Accuracy"
  bottom: "ip"
  bottom: "label"
  top: "accuracy"
}
layer {
  name: "loss"
  type: "SoftmaxWithLoss"
  bottom: "ip"
  bottom: "label"
  top: "loss"
}
I1011 15:08:17.852262 117559 layer_factory.hpp:77] Creating layer mnist
I1011 15:08:17.852385 117559 db_lmdb.cpp:35] Opened lmdb examples/mnist/mnist_train_lmdb
I1011 15:08:17.852422 117559 net.cpp:84] Creating Layer mnist
I1011 15:08:17.852433 117559 net.cpp:380] mnist -> data
I1011 15:08:17.852490 117559 net.cpp:380] mnist -> label
I1011 15:08:17.853328 117559 data_layer.cpp:45] output data size: 100,1,28,28
I1011 15:08:17.856518 117559 net.cpp:122] Setting up mnist
I1011 15:08:17.856606 117559 net.cpp:129] Top shape: 100 1 28 28 (78400)
I1011 15:08:17.856612 117559 net.cpp:129] Top shape: 100 (100)
I1011 15:08:17.856616 117559 net.cpp:137] Memory required for data: 314000
I1011 15:08:17.856621 117559 layer_factory.hpp:77] Creating layer label_mnist_1_split
I1011 15:08:17.856636 117559 net.cpp:84] Creating Layer label_mnist_1_split
I1011 15:08:17.856639 117559 net.cpp:406] label_mnist_1_split <- label
I1011 15:08:17.856649 117559 net.cpp:380] label_mnist_1_split -> label_mnist_1_split_0
I1011 15:08:17.856658 117559 net.cpp:380] label_mnist_1_split -> label_mnist_1_split_1
I1011 15:08:17.856710 117559 net.cpp:122] Setting up label_mnist_1_split
I1011 15:08:17.856717 117559 net.cpp:129] Top shape: 100 (100)
I1011 15:08:17.856737 117559 net.cpp:129] Top shape: 100 (100)
I1011 15:08:17.856740 117559 net.cpp:137] Memory required for data: 314800
I1011 15:08:17.856745 117559 layer_factory.hpp:77] Creating layer reshape
I1011 15:08:18.244894 117559 net.cpp:84] Creating Layer reshape
I1011 15:08:18.244920 117559 net.cpp:406] reshape <- data
I1011 15:08:18.244930 117559 net.cpp:380] reshape -> reshape
I1011 15:08:18.245138 117559 net.cpp:122] Setting up reshape
I1011 15:08:18.245152 117559 net.cpp:129] Top shape: 1600 1 7 7 (78400)
I1011 15:08:18.245157 117559 net.cpp:137] Memory required for data: 628400
I1011 15:08:18.245162 117559 layer_factory.hpp:77] Creating layer csc
I1011 15:08:18.245193 117559 net.cpp:84] Creating Layer csc
I1011 15:08:18.245196 117559 net.cpp:406] csc <- reshape
I1011 15:08:18.245203 117559 net.cpp:380] csc -> csc
I1011 15:08:18.246243 117559 net.cpp:122] Setting up csc
I1011 15:08:18.246254 117559 net.cpp:129] Top shape: 1600 100 7 7 (7840000)
I1011 15:08:18.246258 117559 net.cpp:137] Memory required for data: 31988400
I1011 15:08:18.246273 117559 layer_factory.hpp:77] Creating layer pool
I1011 15:08:18.246284 117559 net.cpp:84] Creating Layer pool
I1011 15:08:18.246287 117559 net.cpp:406] pool <- csc
I1011 15:08:18.246292 117559 net.cpp:380] pool -> pool
I1011 15:08:18.246348 117559 net.cpp:122] Setting up pool
I1011 15:08:18.246354 117559 net.cpp:129] Top shape: 1600 100 1 1 (160000)
I1011 15:08:18.246356 117559 net.cpp:137] Memory required for data: 32628400
I1011 15:08:18.246361 117559 layer_factory.hpp:77] Creating layer reshape_back
I1011 15:08:18.246404 117559 net.cpp:84] Creating Layer reshape_back
I1011 15:08:18.246414 117559 net.cpp:406] reshape_back <- pool
I1011 15:08:18.246477 117559 net.cpp:380] reshape_back -> reshape_back
I1011 15:08:18.247288 117559 net.cpp:122] Setting up reshape_back
I1011 15:08:18.247301 117559 net.cpp:129] Top shape: 100 100 4 4 (160000)
I1011 15:08:18.247304 117559 net.cpp:137] Memory required for data: 33268400
I1011 15:08:18.247308 117559 layer_factory.hpp:77] Creating layer bn
I1011 15:08:18.247316 117559 net.cpp:84] Creating Layer bn
I1011 15:08:18.247319 117559 net.cpp:406] bn <- reshape_back
I1011 15:08:18.247324 117559 net.cpp:380] bn -> bn
I1011 15:08:18.247500 117559 net.cpp:122] Setting up bn
I1011 15:08:18.247509 117559 net.cpp:129] Top shape: 100 100 4 4 (160000)
I1011 15:08:18.247511 117559 net.cpp:137] Memory required for data: 33908400
I1011 15:08:18.247520 117559 layer_factory.hpp:77] Creating layer scale
I1011 15:08:18.247529 117559 net.cpp:84] Creating Layer scale
I1011 15:08:18.247534 117559 net.cpp:406] scale <- bn
I1011 15:08:18.247539 117559 net.cpp:367] scale -> bn (in-place)
I1011 15:08:18.247599 117559 layer_factory.hpp:77] Creating layer scale
I1011 15:08:18.247689 117559 net.cpp:122] Setting up scale
I1011 15:08:18.247694 117559 net.cpp:129] Top shape: 100 100 4 4 (160000)
I1011 15:08:18.247699 117559 net.cpp:137] Memory required for data: 34548400
I1011 15:08:18.247704 117559 layer_factory.hpp:77] Creating layer relu
I1011 15:08:18.247712 117559 net.cpp:84] Creating Layer relu
I1011 15:08:18.247716 117559 net.cpp:406] relu <- bn
I1011 15:08:18.247720 117559 net.cpp:367] relu -> bn (in-place)
I1011 15:08:18.500154 117559 net.cpp:122] Setting up relu
I1011 15:08:18.500188 117559 net.cpp:129] Top shape: 100 100 4 4 (160000)
I1011 15:08:18.500192 117559 net.cpp:137] Memory required for data: 35188400
I1011 15:08:18.500198 117559 layer_factory.hpp:77] Creating layer ip
I1011 15:08:18.500213 117559 net.cpp:84] Creating Layer ip
I1011 15:08:18.500217 117559 net.cpp:406] ip <- bn
I1011 15:08:18.500224 117559 net.cpp:380] ip -> ip
I1011 15:08:18.501159 117559 net.cpp:122] Setting up ip
I1011 15:08:18.501171 117559 net.cpp:129] Top shape: 100 10 (1000)
I1011 15:08:18.501191 117559 net.cpp:137] Memory required for data: 35192400
I1011 15:08:18.501202 117559 layer_factory.hpp:77] Creating layer ip_ip_0_split
I1011 15:08:18.501226 117559 net.cpp:84] Creating Layer ip_ip_0_split
I1011 15:08:18.501230 117559 net.cpp:406] ip_ip_0_split <- ip
I1011 15:08:18.501271 117559 net.cpp:380] ip_ip_0_split -> ip_ip_0_split_0
I1011 15:08:18.501277 117559 net.cpp:380] ip_ip_0_split -> ip_ip_0_split_1
I1011 15:08:18.501327 117559 net.cpp:122] Setting up ip_ip_0_split
I1011 15:08:18.501332 117559 net.cpp:129] Top shape: 100 10 (1000)
I1011 15:08:18.501335 117559 net.cpp:129] Top shape: 100 10 (1000)
I1011 15:08:18.501338 117559 net.cpp:137] Memory required for data: 35200400
I1011 15:08:18.501343 117559 layer_factory.hpp:77] Creating layer accuracy
I1011 15:08:18.501350 117559 net.cpp:84] Creating Layer accuracy
I1011 15:08:18.501354 117559 net.cpp:406] accuracy <- ip_ip_0_split_0
I1011 15:08:18.501358 117559 net.cpp:406] accuracy <- label_mnist_1_split_0
I1011 15:08:18.501363 117559 net.cpp:380] accuracy -> accuracy
…
