…
I1006 14:17:31.564239 182015 solver.cpp:87] Creating training net from net file: examples/mnist_csc/small_context_4.prototxt
I1006 14:17:31.564596 182015 net.cpp:294] The NetState phase (0) differed from the phase (1) specified by a rule in layer mnist
I1006 14:17:31.564699 182015 net.cpp:51] Initializing net from parameters: 
name: "mnist_csc_small_context_4"
state {
  phase: TRAIN
  level: 0
  stage: ""
}
layer {
  name: "mnist"
  type: "Data"
  top: "data"
  top: "label"
  include {
    phase: TRAIN
  }
  transform_param {
    scale: 0.00390625
  }
  data_param {
    source: "examples/mnist/mnist_train_lmdb"
    batch_size: 100
    backend: LMDB
  }
}
layer {
  name: "reshape"
  type: "Python"
  bottom: "data"
  top: "reshape"
  python_param {
    module: "patch_layer.layer"
    layer: "CSCPatchLayer"
    param_str: "{\'patch_size\': 7}"
  }
}
layer {
  name: "csc"
  type: "CSC"
  bottom: "reshape"
  top: "csc"
  param {
    lr_mult: 1
  }
  param {
    lr_mult: 0
  }
  csc_param {
    lambda1: 0.1
    lambda2: 1
    boundary: PAD_BOTH
    kernel_h: 5
    kernel_w: 5
    num_output: 400
    admm_max_iter: 10
    admm_max_rho: 1
    admm_eta: 1.1
    filler {
      type: "xavier"
    }
    verbose: false
  }
}
layer {
  name: "pool"
  type: "Pooling"
  bottom: "csc"
  top: "pool"
  pooling_param {
    pool: MAX
    global_pooling: true
  }
}
layer {
  name: "reshape_back"
  type: "Python"
  bottom: "pool"
  top: "reshape_back"
  python_param {
    module: "patch_layer.layer"
    layer: "CSCGatherLayer"
    param_str: "{\'num_patches_h\': 4, \'num_patches_w\': 4}"
  }
}
layer {
  name: "bn"
  type: "BatchNorm"
  bottom: "reshape_back"
  top: "bn"
}
layer {
  name: "scale"
  type: "Scale"
  bottom: "bn"
  top: "bn"
  scale_param {
    bias_term: true
  }
}
layer {
  name: "relu"
  type: "ReLU"
  bottom: "bn"
  top: "bn"
}
layer {
  name: "ip"
  type: "InnerProduct"
  bottom: "bn"
  top: "ip"
  param {
    lr_mult: 1
    decay_mult: 1
  }
  param {
    lr_mult: 2
    decay_mult: 0
  }
  inner_product_param {
    num_output: 10
    weight_filler {
      type: "xavier"
    }
    bias_filler {
      type: "constant"
    }
  }
}
layer {
  name: "accuracy"
  type: "Accuracy"
  bottom: "ip"
  bottom: "label"
  top: "accuracy"
}
layer {
  name: "loss"
  type: "SoftmaxWithLoss"
  bottom: "ip"
  bottom: "label"
  top: "loss"
}
I1006 14:17:31.564786 182015 layer_factory.hpp:77] Creating layer mnist
I1006 14:17:31.564894 182015 db_lmdb.cpp:35] Opened lmdb examples/mnist/mnist_train_lmdb
I1006 14:17:31.564934 182015 net.cpp:84] Creating Layer mnist
I1006 14:17:31.564944 182015 net.cpp:380] mnist -> data
I1006 14:17:31.564986 182015 net.cpp:380] mnist -> label
I1006 14:17:31.565778 182015 data_layer.cpp:45] output data size: 100,1,28,28
I1006 14:17:31.568830 182015 net.cpp:122] Setting up mnist
I1006 14:17:31.568863 182015 net.cpp:129] Top shape: 100 1 28 28 (78400)
I1006 14:17:31.568886 182015 net.cpp:129] Top shape: 100 (100)
I1006 14:17:31.568889 182015 net.cpp:137] Memory required for data: 314000
I1006 14:17:31.568897 182015 layer_factory.hpp:77] Creating layer label_mnist_1_split
I1006 14:17:31.568904 182015 net.cpp:84] Creating Layer label_mnist_1_split
I1006 14:17:31.568912 182015 net.cpp:406] label_mnist_1_split <- label
I1006 14:17:31.568922 182015 net.cpp:380] label_mnist_1_split -> label_mnist_1_split_0
I1006 14:17:31.568928 182015 net.cpp:380] label_mnist_1_split -> label_mnist_1_split_1
I1006 14:17:31.568991 182015 net.cpp:122] Setting up label_mnist_1_split
I1006 14:17:31.569000 182015 net.cpp:129] Top shape: 100 (100)
I1006 14:17:31.569020 182015 net.cpp:129] Top shape: 100 (100)
I1006 14:17:31.569025 182015 net.cpp:137] Memory required for data: 314800
I1006 14:17:31.569028 182015 layer_factory.hpp:77] Creating layer reshape
I1006 14:17:31.963749 182015 net.cpp:84] Creating Layer reshape
I1006 14:17:31.963778 182015 net.cpp:406] reshape <- data
I1006 14:17:31.963788 182015 net.cpp:380] reshape -> reshape
I1006 14:17:31.963999 182015 net.cpp:122] Setting up reshape
I1006 14:17:31.964015 182015 net.cpp:129] Top shape: 1600 1 7 7 (78400)
I1006 14:17:31.964020 182015 net.cpp:137] Memory required for data: 628400
I1006 14:17:31.964023 182015 layer_factory.hpp:77] Creating layer csc
I1006 14:17:31.964051 182015 net.cpp:84] Creating Layer csc
I1006 14:17:31.964056 182015 net.cpp:406] csc <- reshape
I1006 14:17:31.964061 182015 net.cpp:380] csc -> csc
I1006 14:17:31.965082 182015 net.cpp:122] Setting up csc
I1006 14:17:31.965095 182015 net.cpp:129] Top shape: 1600 400 7 7 (31360000)
I1006 14:17:31.965098 182015 net.cpp:137] Memory required for data: 126068400
I1006 14:17:31.965113 182015 layer_factory.hpp:77] Creating layer pool
I1006 14:17:31.965126 182015 net.cpp:84] Creating Layer pool
I1006 14:17:31.965128 182015 net.cpp:406] pool <- csc
I1006 14:17:31.965132 182015 net.cpp:380] pool -> pool
I1006 14:17:31.965188 182015 net.cpp:122] Setting up pool
I1006 14:17:31.965193 182015 net.cpp:129] Top shape: 1600 400 1 1 (640000)
I1006 14:17:31.965196 182015 net.cpp:137] Memory required for data: 128628400
I1006 14:17:31.965201 182015 layer_factory.hpp:77] Creating layer reshape_back
I1006 14:17:31.965245 182015 net.cpp:84] Creating Layer reshape_back
I1006 14:17:31.965250 182015 net.cpp:406] reshape_back <- pool
I1006 14:17:31.965255 182015 net.cpp:380] reshape_back -> reshape_back
I1006 14:17:31.966684 182015 net.cpp:122] Setting up reshape_back
I1006 14:17:31.966697 182015 net.cpp:129] Top shape: 100 400 4 4 (640000)
I1006 14:17:31.966701 182015 net.cpp:137] Memory required for data: 131188400
I1006 14:17:31.966703 182015 layer_factory.hpp:77] Creating layer bn
I1006 14:17:31.966712 182015 net.cpp:84] Creating Layer bn
I1006 14:17:31.966715 182015 net.cpp:406] bn <- reshape_back
I1006 14:17:31.966720 182015 net.cpp:380] bn -> bn
I1006 14:17:31.967617 182015 net.cpp:122] Setting up bn
I1006 14:17:31.967628 182015 net.cpp:129] Top shape: 100 400 4 4 (640000)
I1006 14:17:31.967631 182015 net.cpp:137] Memory required for data: 133748400
I1006 14:17:31.967643 182015 layer_factory.hpp:77] Creating layer scale
I1006 14:17:31.967651 182015 net.cpp:84] Creating Layer scale
I1006 14:17:31.967654 182015 net.cpp:406] scale <- bn
I1006 14:17:31.967659 182015 net.cpp:367] scale -> bn (in-place)
I1006 14:17:31.967700 182015 layer_factory.hpp:77] Creating layer scale
I1006 14:17:31.967790 182015 net.cpp:122] Setting up scale
I1006 14:17:31.967797 182015 net.cpp:129] Top shape: 100 400 4 4 (640000)
I1006 14:17:31.967802 182015 net.cpp:137] Memory required for data: 136308400
I1006 14:17:31.967808 182015 layer_factory.hpp:77] Creating layer relu
I1006 14:17:31.967814 182015 net.cpp:84] Creating Layer relu
I1006 14:17:31.967818 182015 net.cpp:406] relu <- bn
I1006 14:17:31.967821 182015 net.cpp:367] relu -> bn (in-place)
I1006 14:17:32.212026 182015 net.cpp:122] Setting up relu
I1006 14:17:32.212059 182015 net.cpp:129] Top shape: 100 400 4 4 (640000)
I1006 14:17:32.212064 182015 net.cpp:137] Memory required for data: 138868400
I1006 14:17:32.212070 182015 layer_factory.hpp:77] Creating layer ip
I1006 14:17:32.212085 182015 net.cpp:84] Creating Layer ip
I1006 14:17:32.212090 182015 net.cpp:406] ip <- bn
I1006 14:17:32.212097 182015 net.cpp:380] ip -> ip
I1006 14:17:32.213224 182015 net.cpp:122] Setting up ip
I1006 14:17:32.213237 182015 net.cpp:129] Top shape: 100 10 (1000)
I1006 14:17:32.213240 182015 net.cpp:137] Memory required for data: 138872400
I1006 14:17:32.213250 182015 layer_factory.hpp:77] Creating layer ip_ip_0_split
I1006 14:17:32.213256 182015 net.cpp:84] Creating Layer ip_ip_0_split
I1006 14:17:32.213260 182015 net.cpp:406] ip_ip_0_split <- ip
I1006 14:17:32.213299 182015 net.cpp:380] ip_ip_0_split -> ip_ip_0_split_0
I1006 14:17:32.213322 182015 net.cpp:380] ip_ip_0_split -> ip_ip_0_split_1
I1006 14:17:32.213353 182015 net.cpp:122] Setting up ip_ip_0_split
I1006 14:17:32.213361 182015 net.cpp:129] Top shape: 100 10 (1000)
I1006 14:17:32.213364 182015 net.cpp:129] Top shape: 100 10 (1000)
I1006 14:17:32.213366 182015 net.cpp:137] Memory required for data: 138880400
I1006 14:17:32.213371 182015 layer_factory.hpp:77] Creating layer accuracy
I1006 14:17:32.213378 182015 net.cpp:84] Creating Layer accuracy
I1006 14:17:32.213382 182015 net.cpp:406] accuracy <- ip_ip_0_split_0
I1006 14:17:32.213385 182015 net.cpp:406] accuracy <- label_mnist_1_split_0
I1006 14:17:32.213389 182015 net.cpp:380] accuracy -> accuracy
…
