…
I1005 16:53:20.723026 96163 solver.cpp:87] Creating training net from net file: examples/mnist_csc/small_context_3.prototxt
I1005 16:53:20.723387 96163 net.cpp:294] The NetState phase (0) differed from the phase (1) specified by a rule in layer mnist
I1005 16:53:20.723492 96163 net.cpp:51] Initializing net from parameters: 
name: "mnist_csc_small_context_3"
state {
  phase: TRAIN
  level: 0
  stage: ""
}
layer {
  name: "mnist"
  type: "Data"
  top: "data"
  top: "label"
  include {
    phase: TRAIN
  }
  transform_param {
    scale: 0.00390625
  }
  data_param {
    source: "examples/mnist/mnist_train_lmdb"
    batch_size: 100
    backend: LMDB
  }
}
layer {
  name: "reshape"
  type: "Python"
  bottom: "data"
  top: "reshape"
  python_param {
    module: "patch_layer.layer"
    layer: "CSCPatchLayer"
    param_str: "{\'patch_size\': 7}"
  }
}
layer {
  name: "csc"
  type: "CSC"
  bottom: "reshape"
  top: "csc"
  param {
    lr_mult: 1
  }
  param {
    lr_mult: 0
  }
  csc_param {
    lambda1: 0.1
    lambda2: 1
    boundary: PAD_BOTH
    kernel_h: 5
    kernel_w: 5
    num_output: 100
    admm_max_iter: 10
    admm_max_rho: 1
    admm_eta: 1.1
    filler {
      type: "xavier"
    }
    verbose: false
  }
}
layer {
  name: "pool"
  type: "Pooling"
  bottom: "csc"
  top: "pool"
  pooling_param {
    pool: MAX
    global_pooling: true
  }
}
layer {
  name: "reshape_back"
  type: "Python"
  bottom: "pool"
  top: "reshape_back"
  python_param {
    module: "patch_layer.layer"
    layer: "CSCGatherLayer"
    param_str: "{\'num_patches_h\': 4, \'num_patches_w\': 4}"
  }
}
layer {
  name: "bn"
  type: "BatchNorm"
  bottom: "reshape_back"
  top: "bn"
}
layer {
  name: "scale"
  type: "Scale"
  bottom: "bn"
  top: "bn"
  scale_param {
    bias_term: true
  }
}
layer {
  name: "relu"
  type: "ReLU"
  bottom: "bn"
  top: "bn"
}
layer {
  name: "ip"
  type: "InnerProduct"
  bottom: "bn"
  top: "ip"
  param {
    lr_mult: 1
    decay_mult: 1
  }
  param {
    lr_mult: 2
    decay_mult: 0
  }
  inner_product_param {
    num_output: 10
    weight_filler {
      type: "xavier"
    }
    bias_filler {
      type: "constant"
    }
  }
}
layer {
  name: "accuracy"
  type: "Accuracy"
  bottom: "ip"
  bottom: "label"
  top: "accuracy"
}
layer {
  name: "loss"
  type: "SoftmaxWithLoss"
  bottom: "ip"
  bottom: "label"
  top: "loss"
}
I1005 16:53:20.723604 96163 layer_factory.hpp:77] Creating layer mnist
I1005 16:53:20.723863 96163 db_lmdb.cpp:35] Opened lmdb examples/mnist/mnist_train_lmdb
I1005 16:53:20.723906 96163 net.cpp:84] Creating Layer mnist
I1005 16:53:20.723917 96163 net.cpp:380] mnist -> data
I1005 16:53:20.723951 96163 net.cpp:380] mnist -> label
I1005 16:53:20.724766 96163 data_layer.cpp:45] output data size: 100,1,28,28
I1005 16:53:20.728408 96163 net.cpp:122] Setting up mnist
I1005 16:53:20.728433 96163 net.cpp:129] Top shape: 100 1 28 28 (78400)
I1005 16:53:20.728440 96163 net.cpp:129] Top shape: 100 (100)
I1005 16:53:20.728442 96163 net.cpp:137] Memory required for data: 314000
I1005 16:53:20.728449 96163 layer_factory.hpp:77] Creating layer label_mnist_1_split
I1005 16:53:20.728469 96163 net.cpp:84] Creating Layer label_mnist_1_split
I1005 16:53:20.728476 96163 net.cpp:406] label_mnist_1_split <- label
I1005 16:53:20.728489 96163 net.cpp:380] label_mnist_1_split -> label_mnist_1_split_0
I1005 16:53:20.728497 96163 net.cpp:380] label_mnist_1_split -> label_mnist_1_split_1
I1005 16:53:20.728539 96163 net.cpp:122] Setting up label_mnist_1_split
I1005 16:53:20.728546 96163 net.cpp:129] Top shape: 100 (100)
I1005 16:53:20.728570 96163 net.cpp:129] Top shape: 100 (100)
I1005 16:53:20.728574 96163 net.cpp:137] Memory required for data: 314800
I1005 16:53:20.728577 96163 layer_factory.hpp:77] Creating layer reshape
I1005 16:53:21.162428 96163 net.cpp:84] Creating Layer reshape
I1005 16:53:21.162457 96163 net.cpp:406] reshape <- data
I1005 16:53:21.162468 96163 net.cpp:380] reshape -> reshape
I1005 16:53:21.162662 96163 net.cpp:122] Setting up reshape
I1005 16:53:21.162679 96163 net.cpp:129] Top shape: 1600 1 7 7 (78400)
I1005 16:53:21.162684 96163 net.cpp:137] Memory required for data: 628400
I1005 16:53:21.162689 96163 layer_factory.hpp:77] Creating layer csc
I1005 16:53:21.162703 96163 net.cpp:84] Creating Layer csc
I1005 16:53:21.162708 96163 net.cpp:406] csc <- reshape
I1005 16:53:21.162713 96163 net.cpp:380] csc -> csc
I1005 16:53:21.163918 96163 net.cpp:122] Setting up csc
I1005 16:53:21.163931 96163 net.cpp:129] Top shape: 1600 100 7 7 (7840000)
I1005 16:53:21.163934 96163 net.cpp:137] Memory required for data: 31988400
I1005 16:53:21.163951 96163 layer_factory.hpp:77] Creating layer pool
I1005 16:53:21.163966 96163 net.cpp:84] Creating Layer pool
I1005 16:53:21.163970 96163 net.cpp:406] pool <- csc
I1005 16:53:21.163975 96163 net.cpp:380] pool -> pool
I1005 16:53:21.164017 96163 net.cpp:122] Setting up pool
I1005 16:53:21.164024 96163 net.cpp:129] Top shape: 1600 100 1 1 (160000)
I1005 16:53:21.164027 96163 net.cpp:137] Memory required for data: 32628400
I1005 16:53:21.164031 96163 layer_factory.hpp:77] Creating layer reshape_back
I1005 16:53:21.164058 96163 net.cpp:84] Creating Layer reshape_back
I1005 16:53:21.164063 96163 net.cpp:406] reshape_back <- pool
I1005 16:53:21.164068 96163 net.cpp:380] reshape_back -> reshape_back
I1005 16:53:21.165048 96163 net.cpp:122] Setting up reshape_back
I1005 16:53:21.165062 96163 net.cpp:129] Top shape: 100 100 4 4 (160000)
I1005 16:53:21.165066 96163 net.cpp:137] Memory required for data: 33268400
I1005 16:53:21.165069 96163 layer_factory.hpp:77] Creating layer bn
I1005 16:53:21.165079 96163 net.cpp:84] Creating Layer bn
I1005 16:53:21.165083 96163 net.cpp:406] bn <- reshape_back
I1005 16:53:21.165088 96163 net.cpp:380] bn -> bn
I1005 16:53:21.165258 96163 net.cpp:122] Setting up bn
I1005 16:53:21.165266 96163 net.cpp:129] Top shape: 100 100 4 4 (160000)
I1005 16:53:21.165271 96163 net.cpp:137] Memory required for data: 33908400
I1005 16:53:21.165280 96163 layer_factory.hpp:77] Creating layer scale
I1005 16:53:21.165290 96163 net.cpp:84] Creating Layer scale
I1005 16:53:21.165294 96163 net.cpp:406] scale <- bn
I1005 16:53:21.165299 96163 net.cpp:367] scale -> bn (in-place)
I1005 16:53:21.165338 96163 layer_factory.hpp:77] Creating layer scale
I1005 16:53:21.165432 96163 net.cpp:122] Setting up scale
I1005 16:53:21.165439 96163 net.cpp:129] Top shape: 100 100 4 4 (160000)
I1005 16:53:21.165442 96163 net.cpp:137] Memory required for data: 34548400
I1005 16:53:21.165447 96163 layer_factory.hpp:77] Creating layer relu
I1005 16:53:21.165457 96163 net.cpp:84] Creating Layer relu
I1005 16:53:21.165460 96163 net.cpp:406] relu <- bn
I1005 16:53:21.165465 96163 net.cpp:367] relu -> bn (in-place)
I1005 16:53:21.430770 96163 net.cpp:122] Setting up relu
I1005 16:53:21.430807 96163 net.cpp:129] Top shape: 100 100 4 4 (160000)
I1005 16:53:21.430812 96163 net.cpp:137] Memory required for data: 35188400
I1005 16:53:21.430819 96163 layer_factory.hpp:77] Creating layer ip
I1005 16:53:21.430838 96163 net.cpp:84] Creating Layer ip
I1005 16:53:21.430843 96163 net.cpp:406] ip <- bn
I1005 16:53:21.430853 96163 net.cpp:380] ip -> ip
I1005 16:53:21.431782 96163 net.cpp:122] Setting up ip
I1005 16:53:21.431794 96163 net.cpp:129] Top shape: 100 10 (1000)
I1005 16:53:21.431798 96163 net.cpp:137] Memory required for data: 35192400
I1005 16:53:21.431812 96163 layer_factory.hpp:77] Creating layer ip_ip_0_split
I1005 16:53:21.431819 96163 net.cpp:84] Creating Layer ip_ip_0_split
I1005 16:53:21.431823 96163 net.cpp:406] ip_ip_0_split <- ip
I1005 16:53:21.431828 96163 net.cpp:380] ip_ip_0_split -> ip_ip_0_split_0
I1005 16:53:21.431859 96163 net.cpp:380] ip_ip_0_split -> ip_ip_0_split_1
I1005 16:53:21.431892 96163 net.cpp:122] Setting up ip_ip_0_split
I1005 16:53:21.431900 96163 net.cpp:129] Top shape: 100 10 (1000)
I1005 16:53:21.431903 96163 net.cpp:129] Top shape: 100 10 (1000)
I1005 16:53:21.431908 96163 net.cpp:137] Memory required for data: 35200400
I1005 16:53:21.431911 96163 layer_factory.hpp:77] Creating layer accuracy
I1005 16:53:21.431919 96163 net.cpp:84] Creating Layer accuracy
I1005 16:53:21.431922 96163 net.cpp:406] accuracy <- ip_ip_0_split_0
I1005 16:53:21.431926 96163 net.cpp:406] accuracy <- label_mnist_1_split_0
I1005 16:53:21.431931 96163 net.cpp:380] accuracy -> accuracy
…
