…
I1009 19:40:40.294610 149331 solver.cpp:87] Creating training net from net file: examples/mnist_csc/small_context_4.prototxt
I1009 19:40:40.294975 149331 net.cpp:294] The NetState phase (0) differed from the phase (1) specified by a rule in layer mnist
I1009 19:40:40.295068 149331 net.cpp:51] Initializing net from parameters: 
name: "mnist_csc_small_context_4"
state {
  phase: TRAIN
  level: 0
  stage: ""
}
layer {
  name: "mnist"
  type: "Data"
  top: "data"
  top: "label"
  include {
    phase: TRAIN
  }
  transform_param {
    scale: 0.00390625
  }
  data_param {
    source: "examples/mnist/mnist_train_lmdb"
    batch_size: 100
    backend: LMDB
  }
}
layer {
  name: "reshape"
  type: "Python"
  bottom: "data"
  top: "reshape"
  python_param {
    module: "patch_layer.layer"
    layer: "CSCPatchLayer"
    param_str: "{\'patch_size\': 7}"
  }
}
layer {
  name: "csc"
  type: "CSC"
  bottom: "reshape"
  top: "csc"
  param {
    lr_mult: 1
  }
  param {
    lr_mult: 0
  }
  csc_param {
    lambda1: 0.1
    lambda2: 1
    boundary: PAD_BOTH
    kernel_h: 5
    kernel_w: 5
    num_output: 100
    admm_max_iter: 10
    admm_max_rho: 1
    admm_eta: 1.1
    filler {
      type: "xavier"
    }
    verbose: false
  }
}
layer {
  name: "pool"
  type: "Pooling"
  bottom: "csc"
  top: "pool"
  pooling_param {
    pool: MAX
    global_pooling: true
  }
}
layer {
  name: "reshape_back"
  type: "Python"
  bottom: "pool"
  top: "reshape_back"
  python_param {
    module: "patch_layer.layer"
    layer: "CSCGatherLayer"
    param_str: "{\'num_patches_h\': 4, \'num_patches_w\': 4}"
  }
}
layer {
  name: "bn"
  type: "BatchNorm"
  bottom: "reshape_back"
  top: "bn"
}
layer {
  name: "scale"
  type: "Scale"
  bottom: "bn"
  top: "bn"
  scale_param {
    bias_term: true
  }
}
layer {
  name: "relu"
  type: "ReLU"
  bottom: "bn"
  top: "bn"
}
layer {
  name: "ip"
  type: "InnerProduct"
  bottom: "bn"
  top: "ip"
  param {
    lr_mult: 1
    decay_mult: 1
  }
  param {
    lr_mult: 2
    decay_mult: 0
  }
  inner_product_param {
    num_output: 10
    weight_filler {
      type: "xavier"
    }
    bias_filler {
      type: "constant"
    }
  }
}
layer {
  name: "accuracy"
  type: "Accuracy"
  bottom: "ip"
  bottom: "label"
  top: "accuracy"
}
layer {
  name: "loss"
  type: "SoftmaxWithLoss"
  bottom: "ip"
  bottom: "label"
  top: "loss"
}
I1009 19:40:40.295173 149331 layer_factory.hpp:77] Creating layer mnist
I1009 19:40:40.295439 149331 db_lmdb.cpp:35] Opened lmdb examples/mnist/mnist_train_lmdb
I1009 19:40:40.295480 149331 net.cpp:84] Creating Layer mnist
I1009 19:40:40.295491 149331 net.cpp:380] mnist -> data
I1009 19:40:40.295524 149331 net.cpp:380] mnist -> label
I1009 19:40:40.296761 149331 data_layer.cpp:45] output data size: 100,1,28,28
I1009 19:40:40.300698 149331 net.cpp:122] Setting up mnist
I1009 19:40:40.300735 149331 net.cpp:129] Top shape: 100 1 28 28 (78400)
I1009 19:40:40.300742 149331 net.cpp:129] Top shape: 100 (100)
I1009 19:40:40.300745 149331 net.cpp:137] Memory required for data: 314000
I1009 19:40:40.300767 149331 layer_factory.hpp:77] Creating layer label_mnist_1_split
I1009 19:40:40.300778 149331 net.cpp:84] Creating Layer label_mnist_1_split
I1009 19:40:40.300812 149331 net.cpp:406] label_mnist_1_split <- label
I1009 19:40:40.300825 149331 net.cpp:380] label_mnist_1_split -> label_mnist_1_split_0
I1009 19:40:40.300834 149331 net.cpp:380] label_mnist_1_split -> label_mnist_1_split_1
I1009 19:40:40.300952 149331 net.cpp:122] Setting up label_mnist_1_split
I1009 19:40:40.300961 149331 net.cpp:129] Top shape: 100 (100)
I1009 19:40:40.300982 149331 net.cpp:129] Top shape: 100 (100)
I1009 19:40:40.300987 149331 net.cpp:137] Memory required for data: 314800
I1009 19:40:40.300990 149331 layer_factory.hpp:77] Creating layer reshape
I1009 19:40:40.730890 149331 net.cpp:84] Creating Layer reshape
I1009 19:40:40.730917 149331 net.cpp:406] reshape <- data
I1009 19:40:40.730942 149331 net.cpp:380] reshape -> reshape
I1009 19:40:40.731144 149331 net.cpp:122] Setting up reshape
I1009 19:40:40.731160 149331 net.cpp:129] Top shape: 1600 1 7 7 (78400)
I1009 19:40:40.731165 149331 net.cpp:137] Memory required for data: 628400
I1009 19:40:40.731169 149331 layer_factory.hpp:77] Creating layer csc
I1009 19:40:40.731200 149331 net.cpp:84] Creating Layer csc
I1009 19:40:40.731204 149331 net.cpp:406] csc <- reshape
I1009 19:40:40.731210 149331 net.cpp:380] csc -> csc
I1009 19:40:40.732237 149331 net.cpp:122] Setting up csc
I1009 19:40:40.732250 149331 net.cpp:129] Top shape: 1600 100 7 7 (7840000)
I1009 19:40:40.732254 149331 net.cpp:137] Memory required for data: 31988400
I1009 19:40:40.732271 149331 layer_factory.hpp:77] Creating layer pool
I1009 19:40:40.732285 149331 net.cpp:84] Creating Layer pool
I1009 19:40:40.732290 149331 net.cpp:406] pool <- csc
I1009 19:40:40.732295 149331 net.cpp:380] pool -> pool
I1009 19:40:40.732349 149331 net.cpp:122] Setting up pool
I1009 19:40:40.732357 149331 net.cpp:129] Top shape: 1600 100 1 1 (160000)
I1009 19:40:40.732362 149331 net.cpp:137] Memory required for data: 32628400
I1009 19:40:40.732364 149331 layer_factory.hpp:77] Creating layer reshape_back
I1009 19:40:40.732390 149331 net.cpp:84] Creating Layer reshape_back
I1009 19:40:40.732396 149331 net.cpp:406] reshape_back <- pool
I1009 19:40:40.732401 149331 net.cpp:380] reshape_back -> reshape_back
I1009 19:40:40.733237 149331 net.cpp:122] Setting up reshape_back
I1009 19:40:40.733249 149331 net.cpp:129] Top shape: 100 100 4 4 (160000)
I1009 19:40:40.733254 149331 net.cpp:137] Memory required for data: 33268400
I1009 19:40:40.733258 149331 layer_factory.hpp:77] Creating layer bn
I1009 19:40:40.733268 149331 net.cpp:84] Creating Layer bn
I1009 19:40:40.733271 149331 net.cpp:406] bn <- reshape_back
I1009 19:40:40.733278 149331 net.cpp:380] bn -> bn
I1009 19:40:40.733438 149331 net.cpp:122] Setting up bn
I1009 19:40:40.733446 149331 net.cpp:129] Top shape: 100 100 4 4 (160000)
I1009 19:40:40.733449 149331 net.cpp:137] Memory required for data: 33908400
I1009 19:40:40.733459 149331 layer_factory.hpp:77] Creating layer scale
I1009 19:40:40.733469 149331 net.cpp:84] Creating Layer scale
I1009 19:40:40.733474 149331 net.cpp:406] scale <- bn
I1009 19:40:40.733479 149331 net.cpp:367] scale -> bn (in-place)
I1009 19:40:40.733516 149331 layer_factory.hpp:77] Creating layer scale
I1009 19:40:40.733606 149331 net.cpp:122] Setting up scale
I1009 19:40:40.733613 149331 net.cpp:129] Top shape: 100 100 4 4 (160000)
I1009 19:40:40.733618 149331 net.cpp:137] Memory required for data: 34548400
I1009 19:40:40.733623 149331 layer_factory.hpp:77] Creating layer relu
I1009 19:40:40.733633 149331 net.cpp:84] Creating Layer relu
I1009 19:40:40.733636 149331 net.cpp:406] relu <- bn
I1009 19:40:40.733640 149331 net.cpp:367] relu -> bn (in-place)
I1009 19:40:41.000172 149331 net.cpp:122] Setting up relu
I1009 19:40:41.000224 149331 net.cpp:129] Top shape: 100 100 4 4 (160000)
I1009 19:40:41.000229 149331 net.cpp:137] Memory required for data: 35188400
I1009 19:40:41.000236 149331 layer_factory.hpp:77] Creating layer ip
I1009 19:40:41.000252 149331 net.cpp:84] Creating Layer ip
I1009 19:40:41.000257 149331 net.cpp:406] ip <- bn
I1009 19:40:41.000267 149331 net.cpp:380] ip -> ip
I1009 19:40:41.001557 149331 net.cpp:122] Setting up ip
I1009 19:40:41.001571 149331 net.cpp:129] Top shape: 100 10 (1000)
I1009 19:40:41.001575 149331 net.cpp:137] Memory required for data: 35192400
I1009 19:40:41.001586 149331 layer_factory.hpp:77] Creating layer ip_ip_0_split
I1009 19:40:41.001595 149331 net.cpp:84] Creating Layer ip_ip_0_split
I1009 19:40:41.001600 149331 net.cpp:406] ip_ip_0_split <- ip
I1009 19:40:41.001634 149331 net.cpp:380] ip_ip_0_split -> ip_ip_0_split_0
I1009 19:40:41.001641 149331 net.cpp:380] ip_ip_0_split -> ip_ip_0_split_1
I1009 19:40:41.001677 149331 net.cpp:122] Setting up ip_ip_0_split
I1009 19:40:41.001683 149331 net.cpp:129] Top shape: 100 10 (1000)
I1009 19:40:41.001688 149331 net.cpp:129] Top shape: 100 10 (1000)
I1009 19:40:41.001691 149331 net.cpp:137] Memory required for data: 35200400
I1009 19:40:41.001694 149331 layer_factory.hpp:77] Creating layer accuracy
I1009 19:40:41.001704 149331 net.cpp:84] Creating Layer accuracy
I1009 19:40:41.001708 149331 net.cpp:406] accuracy <- ip_ip_0_split_0
I1009 19:40:41.001713 149331 net.cpp:406] accuracy <- label_mnist_1_split_0
I1009 19:40:41.001716 149331 net.cpp:380] accuracy -> accuracy
…
