…
I1007 12:41:29.791573 44560 solver.cpp:87] Creating training net from net file: examples/mnist_csc/small_context_2.prototxt
I1007 12:41:29.791923 44560 net.cpp:294] The NetState phase (0) differed from the phase (1) specified by a rule in layer mnist
I1007 12:41:29.792023 44560 net.cpp:51] Initializing net from parameters: 
name: "mnist_csc_small_context_2"
state {
  phase: TRAIN
  level: 0
  stage: ""
}
layer {
  name: "mnist"
  type: "Data"
  top: "data"
  top: "label"
  include {
    phase: TRAIN
  }
  transform_param {
    scale: 0.00390625
  }
  data_param {
    source: "examples/mnist/mnist_train_lmdb"
    batch_size: 100
    backend: LMDB
  }
}
layer {
  name: "reshape"
  type: "Python"
  bottom: "data"
  top: "reshape"
  propagate_down: false
  python_param {
    module: "patch_layer.layer"
    layer: "CSCPatchLayer"
    param_str: "{\'patch_size\': 7}"
  }
}
layer {
  name: "csc"
  type: "CSC"
  bottom: "reshape"
  top: "csc"
  param {
    lr_mult: 1
  }
  param {
    lr_mult: 0
  }
  csc_param {
    lambda1: 0.1
    lambda2: 1
    boundary: PAD_BOTH
    kernel_h: 5
    kernel_w: 5
    num_output: 100
    admm_max_iter: 1000
    admm_max_rho: 1
    admm_eta: 1.1
    filler {
      type: "xavier"
    }
    verbose: false
  }
}
layer {
  name: "pool"
  type: "Pooling"
  bottom: "csc"
  top: "pool"
  propagate_down: false
  pooling_param {
    pool: MAX
    global_pooling: true
  }
}
layer {
  name: "reshape_back"
  type: "Python"
  bottom: "pool"
  top: "reshape_back"
  python_param {
    module: "patch_layer.layer"
    layer: "CSCGatherLayer"
    param_str: "{\'num_patches_h\': 4, \'num_patches_w\': 4}"
  }
}
layer {
  name: "bn"
  type: "BatchNorm"
  bottom: "reshape_back"
  top: "bn"
}
layer {
  name: "scale"
  type: "Scale"
  bottom: "bn"
  top: "bn"
  scale_param {
    bias_term: true
  }
}
layer {
  name: "relu"
  type: "ReLU"
  bottom: "bn"
  top: "bn"
}
layer {
  name: "ip"
  type: "InnerProduct"
  bottom: "bn"
  top: "ip"
  param {
    lr_mult: 1
    decay_mult: 1
  }
  param {
    lr_mult: 2
    decay_mult: 0
  }
  inner_product_param {
    num_output: 10
    weight_filler {
      type: "xavier"
    }
    bias_filler {
      type: "constant"
    }
  }
}
layer {
  name: "accuracy"
  type: "Accuracy"
  bottom: "ip"
  bottom: "label"
  top: "accuracy"
}
layer {
  name: "loss"
  type: "SoftmaxWithLoss"
  bottom: "ip"
  bottom: "label"
  top: "loss"
}
I1007 12:41:29.792147 44560 layer_factory.hpp:77] Creating layer mnist
I1007 12:41:29.792372 44560 db_lmdb.cpp:35] Opened lmdb examples/mnist/mnist_train_lmdb
I1007 12:41:29.792448 44560 net.cpp:84] Creating Layer mnist
I1007 12:41:29.792461 44560 net.cpp:380] mnist -> data
I1007 12:41:29.792495 44560 net.cpp:380] mnist -> label
I1007 12:41:29.793165 44560 data_layer.cpp:45] output data size: 100,1,28,28
I1007 12:41:29.796231 44560 net.cpp:122] Setting up mnist
I1007 12:41:29.796264 44560 net.cpp:129] Top shape: 100 1 28 28 (78400)
I1007 12:41:29.796269 44560 net.cpp:129] Top shape: 100 (100)
I1007 12:41:29.796273 44560 net.cpp:137] Memory required for data: 314000
I1007 12:41:29.796279 44560 layer_factory.hpp:77] Creating layer label_mnist_1_split
I1007 12:41:29.796326 44560 net.cpp:84] Creating Layer label_mnist_1_split
I1007 12:41:29.796334 44560 net.cpp:406] label_mnist_1_split <- label
I1007 12:41:29.796344 44560 net.cpp:380] label_mnist_1_split -> label_mnist_1_split_0
I1007 12:41:29.796352 44560 net.cpp:380] label_mnist_1_split -> label_mnist_1_split_1
I1007 12:41:29.796396 44560 net.cpp:122] Setting up label_mnist_1_split
I1007 12:41:29.796425 44560 net.cpp:129] Top shape: 100 (100)
I1007 12:41:29.796430 44560 net.cpp:129] Top shape: 100 (100)
I1007 12:41:29.796432 44560 net.cpp:137] Memory required for data: 314800
I1007 12:41:29.796435 44560 layer_factory.hpp:77] Creating layer reshape
I1007 12:41:30.215962 44560 net.cpp:84] Creating Layer reshape
I1007 12:41:30.215992 44560 net.cpp:406] reshape <- data
I1007 12:41:30.216004 44560 net.cpp:380] reshape -> reshape
I1007 12:41:30.216230 44560 net.cpp:122] Setting up reshape
I1007 12:41:30.216248 44560 net.cpp:129] Top shape: 1600 1 7 7 (78400)
I1007 12:41:30.216255 44560 net.cpp:137] Memory required for data: 628400
I1007 12:41:30.216262 44560 layer_factory.hpp:77] Creating layer csc
I1007 12:41:30.216274 44560 net.cpp:84] Creating Layer csc
I1007 12:41:30.216279 44560 net.cpp:406] csc <- reshape
I1007 12:41:30.216284 44560 net.cpp:380] csc -> csc
I1007 12:41:30.217308 44560 net.cpp:122] Setting up csc
I1007 12:41:30.217321 44560 net.cpp:129] Top shape: 1600 100 7 7 (7840000)
I1007 12:41:30.217325 44560 net.cpp:137] Memory required for data: 31988400
I1007 12:41:30.217357 44560 layer_factory.hpp:77] Creating layer pool
I1007 12:41:30.217370 44560 net.cpp:84] Creating Layer pool
I1007 12:41:30.217375 44560 net.cpp:406] pool <- csc
I1007 12:41:30.217381 44560 net.cpp:380] pool -> pool
I1007 12:41:30.217427 44560 net.cpp:122] Setting up pool
I1007 12:41:30.217434 44560 net.cpp:129] Top shape: 1600 100 1 1 (160000)
I1007 12:41:30.217437 44560 net.cpp:137] Memory required for data: 32628400
I1007 12:41:30.217440 44560 layer_factory.hpp:77] Creating layer reshape_back
I1007 12:41:30.217466 44560 net.cpp:84] Creating Layer reshape_back
I1007 12:41:30.217473 44560 net.cpp:406] reshape_back <- pool
I1007 12:41:30.217478 44560 net.cpp:380] reshape_back -> reshape_back
I1007 12:41:30.218272 44560 net.cpp:122] Setting up reshape_back
I1007 12:41:30.218286 44560 net.cpp:129] Top shape: 100 100 4 4 (160000)
I1007 12:41:30.218289 44560 net.cpp:137] Memory required for data: 33268400
I1007 12:41:30.218292 44560 layer_factory.hpp:77] Creating layer bn
I1007 12:41:30.218302 44560 net.cpp:84] Creating Layer bn
I1007 12:41:30.218305 44560 net.cpp:406] bn <- reshape_back
I1007 12:41:30.218310 44560 net.cpp:380] bn -> bn
I1007 12:41:30.218472 44560 net.cpp:122] Setting up bn
I1007 12:41:30.218480 44560 net.cpp:129] Top shape: 100 100 4 4 (160000)
I1007 12:41:30.218483 44560 net.cpp:137] Memory required for data: 33908400
I1007 12:41:30.218493 44560 layer_factory.hpp:77] Creating layer scale
I1007 12:41:30.218504 44560 net.cpp:84] Creating Layer scale
I1007 12:41:30.218508 44560 net.cpp:406] scale <- bn
I1007 12:41:30.218513 44560 net.cpp:367] scale -> bn (in-place)
I1007 12:41:30.218550 44560 layer_factory.hpp:77] Creating layer scale
I1007 12:41:30.218636 44560 net.cpp:122] Setting up scale
I1007 12:41:30.218642 44560 net.cpp:129] Top shape: 100 100 4 4 (160000)
I1007 12:41:30.218646 44560 net.cpp:137] Memory required for data: 34548400
I1007 12:41:30.218652 44560 layer_factory.hpp:77] Creating layer relu
I1007 12:41:30.218659 44560 net.cpp:84] Creating Layer relu
I1007 12:41:30.218663 44560 net.cpp:406] relu <- bn
I1007 12:41:30.218667 44560 net.cpp:367] relu -> bn (in-place)
I1007 12:41:30.472743 44560 net.cpp:122] Setting up relu
I1007 12:41:30.472796 44560 net.cpp:129] Top shape: 100 100 4 4 (160000)
I1007 12:41:30.472801 44560 net.cpp:137] Memory required for data: 35188400
I1007 12:41:30.472807 44560 layer_factory.hpp:77] Creating layer ip
I1007 12:41:30.472823 44560 net.cpp:84] Creating Layer ip
I1007 12:41:30.472828 44560 net.cpp:406] ip <- bn
I1007 12:41:30.472836 44560 net.cpp:380] ip -> ip
I1007 12:41:30.473816 44560 net.cpp:122] Setting up ip
I1007 12:41:30.473829 44560 net.cpp:129] Top shape: 100 10 (1000)
I1007 12:41:30.473850 44560 net.cpp:137] Memory required for data: 35192400
I1007 12:41:30.473861 44560 layer_factory.hpp:77] Creating layer ip_ip_0_split
I1007 12:41:30.473868 44560 net.cpp:84] Creating Layer ip_ip_0_split
I1007 12:41:30.473871 44560 net.cpp:406] ip_ip_0_split <- ip
I1007 12:41:30.473876 44560 net.cpp:380] ip_ip_0_split -> ip_ip_0_split_0
I1007 12:41:30.473919 44560 net.cpp:380] ip_ip_0_split -> ip_ip_0_split_1
I1007 12:41:30.473950 44560 net.cpp:122] Setting up ip_ip_0_split
I1007 12:41:30.473956 44560 net.cpp:129] Top shape: 100 10 (1000)
I1007 12:41:30.473959 44560 net.cpp:129] Top shape: 100 10 (1000)
I1007 12:41:30.473963 44560 net.cpp:137] Memory required for data: 35200400
I1007 12:41:30.473965 44560 layer_factory.hpp:77] Creating layer accuracy
I1007 12:41:30.473973 44560 net.cpp:84] Creating Layer accuracy
I1007 12:41:30.473978 44560 net.cpp:406] accuracy <- ip_ip_0_split_0
I1007 12:41:30.473981 44560 net.cpp:406] accuracy <- label_mnist_1_split_0
I1007 12:41:30.473985 44560 net.cpp:380] accuracy -> accuracy
…
