…
I1009 14:21:30.828264 135735 solver.cpp:87] Creating training net from net file: examples/mnist_csc/small_context_3.prototxt
I1009 14:21:30.828622 135735 net.cpp:294] The NetState phase (0) differed from the phase (1) specified by a rule in layer mnist
I1009 14:21:30.828714 135735 net.cpp:51] Initializing net from parameters: 
name: "mnist_csc_small_context_3"
state {
  phase: TRAIN
  level: 0
  stage: ""
}
layer {
  name: "mnist"
  type: "Data"
  top: "data"
  top: "label"
  include {
    phase: TRAIN
  }
  transform_param {
    scale: 0.00390625
  }
  data_param {
    source: "examples/mnist/mnist_train_lmdb"
    batch_size: 100
    backend: LMDB
  }
}
layer {
  name: "reshape"
  type: "Python"
  bottom: "data"
  top: "reshape"
  propagate_down: false
  python_param {
    module: "patch_layer.layer"
    layer: "CSCPatchLayer"
    param_str: "{\'patch_size\': 7}"
  }
}
layer {
  name: "csc"
  type: "CSC"
  bottom: "reshape"
  top: "csc"
  param {
    lr_mult: 1
  }
  param {
    lr_mult: 0
  }
  csc_param {
    lambda1: 0.1
    lambda2: 1
    boundary: PAD_BOTH
    kernel_h: 5
    kernel_w: 5
    num_output: 400
    admm_max_iter: 1000
    admm_max_rho: 1
    admm_eta: 1.1
    filler {
      type: "xavier"
    }
    verbose: false
  }
}
layer {
  name: "pool"
  type: "Pooling"
  bottom: "csc"
  top: "pool"
  pooling_param {
    pool: MAX
    global_pooling: true
  }
}
layer {
  name: "reshape_back"
  type: "Python"
  bottom: "pool"
  top: "reshape_back"
  python_param {
    module: "patch_layer.layer"
    layer: "CSCGatherLayer"
    param_str: "{\'num_patches_h\': 4, \'num_patches_w\': 4}"
  }
}
layer {
  name: "bn"
  type: "BatchNorm"
  bottom: "reshape_back"
  top: "bn"
}
layer {
  name: "scale"
  type: "Scale"
  bottom: "bn"
  top: "bn"
  scale_param {
    bias_term: true
  }
}
layer {
  name: "relu"
  type: "ReLU"
  bottom: "bn"
  top: "bn"
}
layer {
  name: "ip"
  type: "InnerProduct"
  bottom: "bn"
  top: "ip"
  param {
    lr_mult: 1
    decay_mult: 1
  }
  param {
    lr_mult: 2
    decay_mult: 0
  }
  inner_product_param {
    num_output: 10
    weight_filler {
      type: "xavier"
    }
    bias_filler {
      type: "constant"
    }
  }
}
layer {
  name: "accuracy"
  type: "Accuracy"
  bottom: "ip"
  bottom: "label"
  top: "accuracy"
}
layer {
  name: "loss"
  type: "SoftmaxWithLoss"
  bottom: "ip"
  bottom: "label"
  top: "loss"
}
I1009 14:21:30.828802 135735 layer_factory.hpp:77] Creating layer mnist
I1009 14:21:30.828912 135735 db_lmdb.cpp:35] Opened lmdb examples/mnist/mnist_train_lmdb
I1009 14:21:30.828950 135735 net.cpp:84] Creating Layer mnist
I1009 14:21:30.828961 135735 net.cpp:380] mnist -> data
I1009 14:21:30.829005 135735 net.cpp:380] mnist -> label
I1009 14:21:30.829862 135735 data_layer.cpp:45] output data size: 100,1,28,28
I1009 14:21:30.833443 135735 net.cpp:122] Setting up mnist
I1009 14:21:30.833479 135735 net.cpp:129] Top shape: 100 1 28 28 (78400)
I1009 14:21:30.833485 135735 net.cpp:129] Top shape: 100 (100)
I1009 14:21:30.833488 135735 net.cpp:137] Memory required for data: 314000
I1009 14:21:30.833495 135735 layer_factory.hpp:77] Creating layer label_mnist_1_split
I1009 14:21:30.833533 135735 net.cpp:84] Creating Layer label_mnist_1_split
I1009 14:21:30.833539 135735 net.cpp:406] label_mnist_1_split <- label
I1009 14:21:30.833554 135735 net.cpp:380] label_mnist_1_split -> label_mnist_1_split_0
I1009 14:21:30.833562 135735 net.cpp:380] label_mnist_1_split -> label_mnist_1_split_1
I1009 14:21:30.833750 135735 net.cpp:122] Setting up label_mnist_1_split
I1009 14:21:30.833760 135735 net.cpp:129] Top shape: 100 (100)
I1009 14:21:30.833781 135735 net.cpp:129] Top shape: 100 (100)
I1009 14:21:30.833786 135735 net.cpp:137] Memory required for data: 314800
I1009 14:21:30.833789 135735 layer_factory.hpp:77] Creating layer reshape
I1009 14:21:31.243960 135735 net.cpp:84] Creating Layer reshape
I1009 14:21:31.243988 135735 net.cpp:406] reshape <- data
I1009 14:21:31.243996 135735 net.cpp:380] reshape -> reshape
I1009 14:21:31.244189 135735 net.cpp:122] Setting up reshape
I1009 14:21:31.244204 135735 net.cpp:129] Top shape: 1600 1 7 7 (78400)
I1009 14:21:31.244208 135735 net.cpp:137] Memory required for data: 628400
I1009 14:21:31.244212 135735 layer_factory.hpp:77] Creating layer csc
I1009 14:21:31.244225 135735 net.cpp:84] Creating Layer csc
I1009 14:21:31.244230 135735 net.cpp:406] csc <- reshape
I1009 14:21:31.244236 135735 net.cpp:380] csc -> csc
I1009 14:21:31.245318 135735 net.cpp:122] Setting up csc
I1009 14:21:31.245332 135735 net.cpp:129] Top shape: 1600 400 7 7 (31360000)
I1009 14:21:31.245335 135735 net.cpp:137] Memory required for data: 126068400
I1009 14:21:31.245352 135735 layer_factory.hpp:77] Creating layer pool
I1009 14:21:31.245365 135735 net.cpp:84] Creating Layer pool
I1009 14:21:31.245370 135735 net.cpp:406] pool <- csc
I1009 14:21:31.245376 135735 net.cpp:380] pool -> pool
I1009 14:21:31.245421 135735 net.cpp:122] Setting up pool
I1009 14:21:31.245429 135735 net.cpp:129] Top shape: 1600 400 1 1 (640000)
I1009 14:21:31.245434 135735 net.cpp:137] Memory required for data: 128628400
I1009 14:21:31.245436 135735 layer_factory.hpp:77] Creating layer reshape_back
I1009 14:21:31.245463 135735 net.cpp:84] Creating Layer reshape_back
I1009 14:21:31.245470 135735 net.cpp:406] reshape_back <- pool
I1009 14:21:31.245474 135735 net.cpp:380] reshape_back -> reshape_back
I1009 14:21:31.246932 135735 net.cpp:122] Setting up reshape_back
I1009 14:21:31.246947 135735 net.cpp:129] Top shape: 100 400 4 4 (640000)
I1009 14:21:31.246950 135735 net.cpp:137] Memory required for data: 131188400
I1009 14:21:31.246954 135735 layer_factory.hpp:77] Creating layer bn
I1009 14:21:31.246963 135735 net.cpp:84] Creating Layer bn
I1009 14:21:31.246968 135735 net.cpp:406] bn <- reshape_back
I1009 14:21:31.246973 135735 net.cpp:380] bn -> bn
I1009 14:21:31.247822 135735 net.cpp:122] Setting up bn
I1009 14:21:31.247835 135735 net.cpp:129] Top shape: 100 400 4 4 (640000)
I1009 14:21:31.247838 135735 net.cpp:137] Memory required for data: 133748400
I1009 14:21:31.247849 135735 layer_factory.hpp:77] Creating layer scale
I1009 14:21:31.247859 135735 net.cpp:84] Creating Layer scale
I1009 14:21:31.247862 135735 net.cpp:406] scale <- bn
I1009 14:21:31.247871 135735 net.cpp:367] scale -> bn (in-place)
I1009 14:21:31.247911 135735 layer_factory.hpp:77] Creating layer scale
I1009 14:21:31.248004 135735 net.cpp:122] Setting up scale
I1009 14:21:31.248013 135735 net.cpp:129] Top shape: 100 400 4 4 (640000)
I1009 14:21:31.248018 135735 net.cpp:137] Memory required for data: 136308400
I1009 14:21:31.248023 135735 layer_factory.hpp:77] Creating layer relu
I1009 14:21:31.248033 135735 net.cpp:84] Creating Layer relu
I1009 14:21:31.248037 135735 net.cpp:406] relu <- bn
I1009 14:21:31.248041 135735 net.cpp:367] relu -> bn (in-place)
I1009 14:21:31.512753 135735 net.cpp:122] Setting up relu
I1009 14:21:31.512804 135735 net.cpp:129] Top shape: 100 400 4 4 (640000)
I1009 14:21:31.512809 135735 net.cpp:137] Memory required for data: 138868400
I1009 14:21:31.512816 135735 layer_factory.hpp:77] Creating layer ip
I1009 14:21:31.512831 135735 net.cpp:84] Creating Layer ip
I1009 14:21:31.512836 135735 net.cpp:406] ip <- bn
I1009 14:21:31.512845 135735 net.cpp:380] ip -> ip
I1009 14:21:31.514010 135735 net.cpp:122] Setting up ip
I1009 14:21:31.514024 135735 net.cpp:129] Top shape: 100 10 (1000)
I1009 14:21:31.514045 135735 net.cpp:137] Memory required for data: 138872400
I1009 14:21:31.514056 135735 layer_factory.hpp:77] Creating layer ip_ip_0_split
I1009 14:21:31.514063 135735 net.cpp:84] Creating Layer ip_ip_0_split
I1009 14:21:31.514067 135735 net.cpp:406] ip_ip_0_split <- ip
I1009 14:21:31.514093 135735 net.cpp:380] ip_ip_0_split -> ip_ip_0_split_0
I1009 14:21:31.514104 135735 net.cpp:380] ip_ip_0_split -> ip_ip_0_split_1
I1009 14:21:31.514137 135735 net.cpp:122] Setting up ip_ip_0_split
I1009 14:21:31.514142 135735 net.cpp:129] Top shape: 100 10 (1000)
I1009 14:21:31.514147 135735 net.cpp:129] Top shape: 100 10 (1000)
I1009 14:21:31.514150 135735 net.cpp:137] Memory required for data: 138880400
I1009 14:21:31.514153 135735 layer_factory.hpp:77] Creating layer accuracy
I1009 14:21:31.514163 135735 net.cpp:84] Creating Layer accuracy
I1009 14:21:31.514168 135735 net.cpp:406] accuracy <- ip_ip_0_split_0
I1009 14:21:31.514171 135735 net.cpp:406] accuracy <- label_mnist_1_split_0
I1009 14:21:31.514176 135735 net.cpp:380] accuracy -> accuracy
…
