…
I1007 15:03:29.372053 54828 solver.cpp:87] Creating training net from net file: examples/mnist_csc/small_context_2.prototxt
I1007 15:03:29.372427 54828 net.cpp:294] The NetState phase (0) differed from the phase (1) specified by a rule in layer mnist
I1007 15:03:29.372540 54828 net.cpp:51] Initializing net from parameters: 
name: "mnist_csc_small_context_2"
state {
  phase: TRAIN
  level: 0
  stage: ""
}
layer {
  name: "mnist"
  type: "Data"
  top: "data"
  top: "label"
  include {
    phase: TRAIN
  }
  transform_param {
    scale: 0.00390625
  }
  data_param {
    source: "examples/mnist/mnist_train_lmdb"
    batch_size: 100
    backend: LMDB
  }
}
layer {
  name: "reshape"
  type: "Python"
  bottom: "data"
  top: "reshape"
  propagate_down: false
  python_param {
    module: "patch_layer.layer"
    layer: "CSCPatchLayer"
    param_str: "{\'patch_size\': 7}"
  }
}
layer {
  name: "csc"
  type: "CSC"
  bottom: "reshape"
  top: "csc"
  param {
    lr_mult: 1
  }
  param {
    lr_mult: 0
  }
  csc_param {
    lambda1: 0.1
    lambda2: 1
    boundary: PAD_BOTH
    kernel_h: 5
    kernel_w: 5
    num_output: 400
    admm_max_iter: 1000
    admm_max_rho: 1
    admm_eta: 1.1
    filler {
      type: "xavier"
    }
    verbose: false
  }
}
layer {
  name: "pool"
  type: "Pooling"
  bottom: "csc"
  top: "pool"
  propagate_down: false
  pooling_param {
    pool: MAX
    global_pooling: true
  }
}
layer {
  name: "reshape_back"
  type: "Python"
  bottom: "pool"
  top: "reshape_back"
  python_param {
    module: "patch_layer.layer"
    layer: "CSCGatherLayer"
    param_str: "{\'num_patches_h\': 4, \'num_patches_w\': 4}"
  }
}
layer {
  name: "bn"
  type: "BatchNorm"
  bottom: "reshape_back"
  top: "bn"
}
layer {
  name: "scale"
  type: "Scale"
  bottom: "bn"
  top: "bn"
  scale_param {
    bias_term: true
  }
}
layer {
  name: "relu"
  type: "ReLU"
  bottom: "bn"
  top: "bn"
}
layer {
  name: "ip"
  type: "InnerProduct"
  bottom: "bn"
  top: "ip"
  param {
    lr_mult: 1
    decay_mult: 1
  }
  param {
    lr_mult: 2
    decay_mult: 0
  }
  inner_product_param {
    num_output: 10
    weight_filler {
      type: "xavier"
    }
    bias_filler {
      type: "constant"
    }
  }
}
layer {
  name: "accuracy"
  type: "Accuracy"
  bottom: "ip"
  bottom: "label"
  top: "accuracy"
}
layer {
  name: "loss"
  type: "SoftmaxWithLoss"
  bottom: "ip"
  bottom: "label"
  top: "loss"
}
I1007 15:03:29.372644 54828 layer_factory.hpp:77] Creating layer mnist
I1007 15:03:29.372763 54828 db_lmdb.cpp:35] Opened lmdb examples/mnist/mnist_train_lmdb
I1007 15:03:29.372803 54828 net.cpp:84] Creating Layer mnist
I1007 15:03:29.372814 54828 net.cpp:380] mnist -> data
I1007 15:03:29.372856 54828 net.cpp:380] mnist -> label
I1007 15:03:29.373539 54828 data_layer.cpp:45] output data size: 100,1,28,28
I1007 15:03:29.376570 54828 net.cpp:122] Setting up mnist
I1007 15:03:29.376586 54828 net.cpp:129] Top shape: 100 1 28 28 (78400)
I1007 15:03:29.376610 54828 net.cpp:129] Top shape: 100 (100)
I1007 15:03:29.376611 54828 net.cpp:137] Memory required for data: 314000
I1007 15:03:29.376618 54828 layer_factory.hpp:77] Creating layer label_mnist_1_split
I1007 15:03:29.376662 54828 net.cpp:84] Creating Layer label_mnist_1_split
I1007 15:03:29.376667 54828 net.cpp:406] label_mnist_1_split <- label
I1007 15:03:29.376679 54828 net.cpp:380] label_mnist_1_split -> label_mnist_1_split_0
I1007 15:03:29.376690 54828 net.cpp:380] label_mnist_1_split -> label_mnist_1_split_1
I1007 15:03:29.376873 54828 net.cpp:122] Setting up label_mnist_1_split
I1007 15:03:29.376899 54828 net.cpp:129] Top shape: 100 (100)
I1007 15:03:29.376902 54828 net.cpp:129] Top shape: 100 (100)
I1007 15:03:29.376904 54828 net.cpp:137] Memory required for data: 314800
I1007 15:03:29.376907 54828 layer_factory.hpp:77] Creating layer reshape
I1007 15:03:29.779731 54828 net.cpp:84] Creating Layer reshape
I1007 15:03:29.779759 54828 net.cpp:406] reshape <- data
I1007 15:03:29.779785 54828 net.cpp:380] reshape -> reshape
I1007 15:03:29.779997 54828 net.cpp:122] Setting up reshape
I1007 15:03:29.780011 54828 net.cpp:129] Top shape: 1600 1 7 7 (78400)
I1007 15:03:29.780016 54828 net.cpp:137] Memory required for data: 628400
I1007 15:03:29.780021 54828 layer_factory.hpp:77] Creating layer csc
I1007 15:03:29.780033 54828 net.cpp:84] Creating Layer csc
I1007 15:03:29.780037 54828 net.cpp:406] csc <- reshape
I1007 15:03:29.780042 54828 net.cpp:380] csc -> csc
I1007 15:03:29.781121 54828 net.cpp:122] Setting up csc
I1007 15:03:29.781132 54828 net.cpp:129] Top shape: 1600 400 7 7 (31360000)
I1007 15:03:29.781136 54828 net.cpp:137] Memory required for data: 126068400
I1007 15:03:29.781168 54828 layer_factory.hpp:77] Creating layer pool
I1007 15:03:29.781182 54828 net.cpp:84] Creating Layer pool
I1007 15:03:29.781186 54828 net.cpp:406] pool <- csc
I1007 15:03:29.781208 54828 net.cpp:380] pool -> pool
I1007 15:03:29.781246 54828 net.cpp:122] Setting up pool
I1007 15:03:29.781253 54828 net.cpp:129] Top shape: 1600 400 1 1 (640000)
I1007 15:03:29.781256 54828 net.cpp:137] Memory required for data: 128628400
I1007 15:03:29.781260 54828 layer_factory.hpp:77] Creating layer reshape_back
I1007 15:03:29.781287 54828 net.cpp:84] Creating Layer reshape_back
I1007 15:03:29.781292 54828 net.cpp:406] reshape_back <- pool
I1007 15:03:29.781298 54828 net.cpp:380] reshape_back -> reshape_back
I1007 15:03:29.782799 54828 net.cpp:122] Setting up reshape_back
I1007 15:03:29.782812 54828 net.cpp:129] Top shape: 100 400 4 4 (640000)
I1007 15:03:29.782833 54828 net.cpp:137] Memory required for data: 131188400
I1007 15:03:29.782836 54828 layer_factory.hpp:77] Creating layer bn
I1007 15:03:29.782845 54828 net.cpp:84] Creating Layer bn
I1007 15:03:29.782848 54828 net.cpp:406] bn <- reshape_back
I1007 15:03:29.782853 54828 net.cpp:380] bn -> bn
I1007 15:03:29.783742 54828 net.cpp:122] Setting up bn
I1007 15:03:29.783754 54828 net.cpp:129] Top shape: 100 400 4 4 (640000)
I1007 15:03:29.783757 54828 net.cpp:137] Memory required for data: 133748400
I1007 15:03:29.783788 54828 layer_factory.hpp:77] Creating layer scale
I1007 15:03:29.783813 54828 net.cpp:84] Creating Layer scale
I1007 15:03:29.783816 54828 net.cpp:406] scale <- bn
I1007 15:03:29.783821 54828 net.cpp:367] scale -> bn (in-place)
I1007 15:03:29.783890 54828 layer_factory.hpp:77] Creating layer scale
I1007 15:03:29.783978 54828 net.cpp:122] Setting up scale
I1007 15:03:29.783985 54828 net.cpp:129] Top shape: 100 400 4 4 (640000)
I1007 15:03:29.783989 54828 net.cpp:137] Memory required for data: 136308400
I1007 15:03:29.783995 54828 layer_factory.hpp:77] Creating layer relu
I1007 15:03:29.784003 54828 net.cpp:84] Creating Layer relu
I1007 15:03:29.784006 54828 net.cpp:406] relu <- bn
I1007 15:03:29.784010 54828 net.cpp:367] relu -> bn (in-place)
I1007 15:03:30.032853 54828 net.cpp:122] Setting up relu
I1007 15:03:30.032904 54828 net.cpp:129] Top shape: 100 400 4 4 (640000)
I1007 15:03:30.032908 54828 net.cpp:137] Memory required for data: 138868400
I1007 15:03:30.032915 54828 layer_factory.hpp:77] Creating layer ip
I1007 15:03:30.032930 54828 net.cpp:84] Creating Layer ip
I1007 15:03:30.032935 54828 net.cpp:406] ip <- bn
I1007 15:03:30.032944 54828 net.cpp:380] ip -> ip
I1007 15:03:30.034104 54828 net.cpp:122] Setting up ip
I1007 15:03:30.034116 54828 net.cpp:129] Top shape: 100 10 (1000)
I1007 15:03:30.034121 54828 net.cpp:137] Memory required for data: 138872400
I1007 15:03:30.034148 54828 layer_factory.hpp:77] Creating layer ip_ip_0_split
I1007 15:03:30.034155 54828 net.cpp:84] Creating Layer ip_ip_0_split
I1007 15:03:30.034158 54828 net.cpp:406] ip_ip_0_split <- ip
I1007 15:03:30.034163 54828 net.cpp:380] ip_ip_0_split -> ip_ip_0_split_0
I1007 15:03:30.034205 54828 net.cpp:380] ip_ip_0_split -> ip_ip_0_split_1
I1007 15:03:30.034238 54828 net.cpp:122] Setting up ip_ip_0_split
I1007 15:03:30.034245 54828 net.cpp:129] Top shape: 100 10 (1000)
I1007 15:03:30.034248 54828 net.cpp:129] Top shape: 100 10 (1000)
I1007 15:03:30.034251 54828 net.cpp:137] Memory required for data: 138880400
I1007 15:03:30.034255 54828 layer_factory.hpp:77] Creating layer accuracy
I1007 15:03:30.034262 54828 net.cpp:84] Creating Layer accuracy
I1007 15:03:30.034266 54828 net.cpp:406] accuracy <- ip_ip_0_split_0
I1007 15:03:30.034271 54828 net.cpp:406] accuracy <- label_mnist_1_split_0
I1007 15:03:30.034274 54828 net.cpp:380] accuracy -> accuracy
…
