…
I1005 19:32:57.782367 106813 solver.cpp:87] Creating training net from net file: examples/mnist_csc/small_context_4.prototxt
I1005 19:32:57.782733 106813 net.cpp:294] The NetState phase (0) differed from the phase (1) specified by a rule in layer mnist
I1005 19:32:57.782829 106813 net.cpp:51] Initializing net from parameters: 
name: "mnist_csc_small_context_4"
state {
  phase: TRAIN
  level: 0
  stage: ""
}
layer {
  name: "mnist"
  type: "Data"
  top: "data"
  top: "label"
  include {
    phase: TRAIN
  }
  transform_param {
    scale: 0.00390625
  }
  data_param {
    source: "examples/mnist/mnist_train_lmdb"
    batch_size: 100
    backend: LMDB
  }
}
layer {
  name: "reshape"
  type: "Python"
  bottom: "data"
  top: "reshape"
  python_param {
    module: "patch_layer.layer"
    layer: "CSCPatchLayer"
    param_str: "{\'patch_size\': 7}"
  }
}
layer {
  name: "csc"
  type: "CSC"
  bottom: "reshape"
  top: "csc"
  param {
    lr_mult: 1
  }
  param {
    lr_mult: 0
  }
  csc_param {
    lambda1: 0.1
    lambda2: 1
    boundary: PAD_BOTH
    kernel_h: 5
    kernel_w: 5
    num_output: 400
    admm_max_iter: 10
    admm_max_rho: 1
    admm_eta: 1.1
    filler {
      type: "xavier"
    }
    verbose: false
  }
}
layer {
  name: "pool"
  type: "Pooling"
  bottom: "csc"
  top: "pool"
  pooling_param {
    pool: MAX
    global_pooling: true
  }
}
layer {
  name: "reshape_back"
  type: "Python"
  bottom: "pool"
  top: "reshape_back"
  python_param {
    module: "patch_layer.layer"
    layer: "CSCGatherLayer"
    param_str: "{\'num_patches_h\': 4, \'num_patches_w\': 4}"
  }
}
layer {
  name: "bn"
  type: "BatchNorm"
  bottom: "reshape_back"
  top: "bn"
}
layer {
  name: "scale"
  type: "Scale"
  bottom: "bn"
  top: "bn"
  scale_param {
    bias_term: true
  }
}
layer {
  name: "relu"
  type: "ReLU"
  bottom: "bn"
  top: "bn"
}
layer {
  name: "ip"
  type: "InnerProduct"
  bottom: "bn"
  top: "ip"
  param {
    lr_mult: 1
    decay_mult: 1
  }
  param {
    lr_mult: 2
    decay_mult: 0
  }
  inner_product_param {
    num_output: 10
    weight_filler {
      type: "xavier"
    }
    bias_filler {
      type: "constant"
    }
  }
}
layer {
  name: "accuracy"
  type: "Accuracy"
  bottom: "ip"
  bottom: "label"
  top: "accuracy"
}
layer {
  name: "loss"
  type: "SoftmaxWithLoss"
  bottom: "ip"
  bottom: "label"
  top: "loss"
}
I1005 19:32:57.782927 106813 layer_factory.hpp:77] Creating layer mnist
I1005 19:32:57.783049 106813 db_lmdb.cpp:35] Opened lmdb examples/mnist/mnist_train_lmdb
I1005 19:32:57.783092 106813 net.cpp:84] Creating Layer mnist
I1005 19:32:57.783104 106813 net.cpp:380] mnist -> data
I1005 19:32:57.783139 106813 net.cpp:380] mnist -> label
I1005 19:32:57.783947 106813 data_layer.cpp:45] output data size: 100,1,28,28
I1005 19:32:57.787091 106813 net.cpp:122] Setting up mnist
I1005 19:32:57.787109 106813 net.cpp:129] Top shape: 100 1 28 28 (78400)
I1005 19:32:57.787114 106813 net.cpp:129] Top shape: 100 (100)
I1005 19:32:57.787117 106813 net.cpp:137] Memory required for data: 314000
I1005 19:32:57.787123 106813 layer_factory.hpp:77] Creating layer label_mnist_1_split
I1005 19:32:57.787133 106813 net.cpp:84] Creating Layer label_mnist_1_split
I1005 19:32:57.787138 106813 net.cpp:406] label_mnist_1_split <- label
I1005 19:32:57.787150 106813 net.cpp:380] label_mnist_1_split -> label_mnist_1_split_0
I1005 19:32:57.787158 106813 net.cpp:380] label_mnist_1_split -> label_mnist_1_split_1
I1005 19:32:57.787223 106813 net.cpp:122] Setting up label_mnist_1_split
I1005 19:32:57.787230 106813 net.cpp:129] Top shape: 100 (100)
I1005 19:32:57.787251 106813 net.cpp:129] Top shape: 100 (100)
I1005 19:32:57.787256 106813 net.cpp:137] Memory required for data: 314800
I1005 19:32:57.787259 106813 layer_factory.hpp:77] Creating layer reshape
I1005 19:32:58.214689 106813 net.cpp:84] Creating Layer reshape
I1005 19:32:58.214716 106813 net.cpp:406] reshape <- data
I1005 19:32:58.214727 106813 net.cpp:380] reshape -> reshape
I1005 19:32:58.214941 106813 net.cpp:122] Setting up reshape
I1005 19:32:58.214957 106813 net.cpp:129] Top shape: 1600 1 7 7 (78400)
I1005 19:32:58.214965 106813 net.cpp:137] Memory required for data: 628400
I1005 19:32:58.214972 106813 layer_factory.hpp:77] Creating layer csc
I1005 19:32:58.214987 106813 net.cpp:84] Creating Layer csc
I1005 19:32:58.214989 106813 net.cpp:406] csc <- reshape
I1005 19:32:58.214996 106813 net.cpp:380] csc -> csc
I1005 19:32:58.216724 106813 net.cpp:122] Setting up csc
I1005 19:32:58.216737 106813 net.cpp:129] Top shape: 1600 400 7 7 (31360000)
I1005 19:32:58.216742 106813 net.cpp:137] Memory required for data: 126068400
I1005 19:32:58.216758 106813 layer_factory.hpp:77] Creating layer pool
I1005 19:32:58.216769 106813 net.cpp:84] Creating Layer pool
I1005 19:32:58.216773 106813 net.cpp:406] pool <- csc
I1005 19:32:58.216778 106813 net.cpp:380] pool -> pool
I1005 19:32:58.216820 106813 net.cpp:122] Setting up pool
I1005 19:32:58.216827 106813 net.cpp:129] Top shape: 1600 400 1 1 (640000)
I1005 19:32:58.216830 106813 net.cpp:137] Memory required for data: 128628400
I1005 19:32:58.216832 106813 layer_factory.hpp:77] Creating layer reshape_back
I1005 19:32:58.216859 106813 net.cpp:84] Creating Layer reshape_back
I1005 19:32:58.216863 106813 net.cpp:406] reshape_back <- pool
I1005 19:32:58.216868 106813 net.cpp:380] reshape_back -> reshape_back
I1005 19:32:58.218766 106813 net.cpp:122] Setting up reshape_back
I1005 19:32:58.218780 106813 net.cpp:129] Top shape: 100 400 4 4 (640000)
I1005 19:32:58.218783 106813 net.cpp:137] Memory required for data: 131188400
I1005 19:32:58.218787 106813 layer_factory.hpp:77] Creating layer bn
I1005 19:32:58.218796 106813 net.cpp:84] Creating Layer bn
I1005 19:32:58.218799 106813 net.cpp:406] bn <- reshape_back
I1005 19:32:58.218806 106813 net.cpp:380] bn -> bn
I1005 19:32:58.219996 106813 net.cpp:122] Setting up bn
I1005 19:32:58.220010 106813 net.cpp:129] Top shape: 100 400 4 4 (640000)
I1005 19:32:58.220031 106813 net.cpp:137] Memory required for data: 133748400
I1005 19:32:58.220041 106813 layer_factory.hpp:77] Creating layer scale
I1005 19:32:58.220052 106813 net.cpp:84] Creating Layer scale
I1005 19:32:58.220054 106813 net.cpp:406] scale <- bn
I1005 19:32:58.220060 106813 net.cpp:367] scale -> bn (in-place)
I1005 19:32:58.220103 106813 layer_factory.hpp:77] Creating layer scale
I1005 19:32:58.220194 106813 net.cpp:122] Setting up scale
I1005 19:32:58.220201 106813 net.cpp:129] Top shape: 100 400 4 4 (640000)
I1005 19:32:58.220206 106813 net.cpp:137] Memory required for data: 136308400
I1005 19:32:58.220211 106813 layer_factory.hpp:77] Creating layer relu
I1005 19:32:58.220219 106813 net.cpp:84] Creating Layer relu
I1005 19:32:58.220223 106813 net.cpp:406] relu <- bn
I1005 19:32:58.220227 106813 net.cpp:367] relu -> bn (in-place)
I1005 19:32:58.502203 106813 net.cpp:122] Setting up relu
I1005 19:32:58.502260 106813 net.cpp:129] Top shape: 100 400 4 4 (640000)
I1005 19:32:58.502265 106813 net.cpp:137] Memory required for data: 138868400
I1005 19:32:58.502272 106813 layer_factory.hpp:77] Creating layer ip
I1005 19:32:58.502291 106813 net.cpp:84] Creating Layer ip
I1005 19:32:58.502296 106813 net.cpp:406] ip <- bn
I1005 19:32:58.502306 106813 net.cpp:380] ip -> ip
I1005 19:32:58.503857 106813 net.cpp:122] Setting up ip
I1005 19:32:58.503871 106813 net.cpp:129] Top shape: 100 10 (1000)
I1005 19:32:58.503875 106813 net.cpp:137] Memory required for data: 138872400
I1005 19:32:58.503888 106813 layer_factory.hpp:77] Creating layer ip_ip_0_split
I1005 19:32:58.503896 106813 net.cpp:84] Creating Layer ip_ip_0_split
I1005 19:32:58.503899 106813 net.cpp:406] ip_ip_0_split <- ip
I1005 19:32:58.503929 106813 net.cpp:380] ip_ip_0_split -> ip_ip_0_split_0
I1005 19:32:58.503937 106813 net.cpp:380] ip_ip_0_split -> ip_ip_0_split_1
I1005 19:32:58.503969 106813 net.cpp:122] Setting up ip_ip_0_split
I1005 19:32:58.503976 106813 net.cpp:129] Top shape: 100 10 (1000)
I1005 19:32:58.503979 106813 net.cpp:129] Top shape: 100 10 (1000)
I1005 19:32:58.503983 106813 net.cpp:137] Memory required for data: 138880400
I1005 19:32:58.503985 106813 layer_factory.hpp:77] Creating layer accuracy
I1005 19:32:58.503996 106813 net.cpp:84] Creating Layer accuracy
I1005 19:32:58.504000 106813 net.cpp:406] accuracy <- ip_ip_0_split_0
I1005 19:32:58.504005 106813 net.cpp:406] accuracy <- label_mnist_1_split_0
I1005 19:32:58.504009 106813 net.cpp:380] accuracy -> accuracy
…
