…
I1010 11:48:16.986666 185245 solver.cpp:87] Creating training net from net file: examples/mnist_csc/small_context_nobn.prototxt
I1010 11:48:16.987004 185245 net.cpp:294] The NetState phase (0) differed from the phase (1) specified by a rule in layer mnist
I1010 11:48:16.987088 185245 net.cpp:51] Initializing net from parameters: 
name: "mnist_csc_small_context_nobn"
state {
  phase: TRAIN
  level: 0
  stage: ""
}
layer {
  name: "mnist"
  type: "Data"
  top: "data"
  top: "label"
  include {
    phase: TRAIN
  }
  transform_param {
    scale: 0.00390625
  }
  data_param {
    source: "examples/mnist/mnist_train_lmdb"
    batch_size: 100
    backend: LMDB
  }
}
layer {
  name: "reshape"
  type: "Python"
  bottom: "data"
  top: "reshape"
  propagate_down: false
  python_param {
    module: "patch_layer.layer"
    layer: "CSCPatchLayer"
    param_str: "{\'patch_size\': 7}"
  }
}
layer {
  name: "csc"
  type: "CSC"
  bottom: "reshape"
  top: "csc"
  param {
    lr_mult: 1
  }
  param {
    lr_mult: 0
  }
  csc_param {
    lambda1: 0.1
    lambda2: 1
    boundary: PAD_BOTH
    kernel_h: 5
    kernel_w: 5
    num_output: 100
    admm_max_iter: 1000
    admm_max_rho: 1
    admm_eta: 1.1
    filler {
      type: "xavier"
    }
    verbose: false
  }
}
layer {
  name: "pool"
  type: "Pooling"
  bottom: "csc"
  top: "pool"
  pooling_param {
    pool: MAX
    global_pooling: true
  }
}
layer {
  name: "reshape_back"
  type: "Python"
  bottom: "pool"
  top: "reshape_back"
  propagate_down: false
  python_param {
    module: "patch_layer.layer"
    layer: "CSCGatherLayer"
    param_str: "{\'num_patches_h\': 4, \'num_patches_w\': 4}"
  }
}
layer {
  name: "ip"
  type: "InnerProduct"
  bottom: "reshape_back"
  top: "ip"
  param {
    lr_mult: 1
    decay_mult: 1
  }
  param {
    lr_mult: 2
    decay_mult: 0
  }
  inner_product_param {
    num_output: 10
    weight_filler {
      type: "xavier"
    }
    bias_filler {
      type: "constant"
    }
  }
}
layer {
  name: "accuracy"
  type: "Accuracy"
  bottom: "ip"
  bottom: "label"
  top: "accuracy"
}
layer {
  name: "loss"
  type: "SoftmaxWithLoss"
  bottom: "ip"
  bottom: "label"
  top: "loss"
}
I1010 11:48:16.987195 185245 layer_factory.hpp:77] Creating layer mnist
I1010 11:48:16.987387 185245 db_lmdb.cpp:35] Opened lmdb examples/mnist/mnist_train_lmdb
I1010 11:48:16.987442 185245 net.cpp:84] Creating Layer mnist
I1010 11:48:16.987453 185245 net.cpp:380] mnist -> data
I1010 11:48:16.987481 185245 net.cpp:380] mnist -> label
I1010 11:48:16.988320 185245 data_layer.cpp:45] output data size: 100,1,28,28
I1010 11:48:16.991508 185245 net.cpp:122] Setting up mnist
I1010 11:48:16.991547 185245 net.cpp:129] Top shape: 100 1 28 28 (78400)
I1010 11:48:16.991554 185245 net.cpp:129] Top shape: 100 (100)
I1010 11:48:16.991555 185245 net.cpp:137] Memory required for data: 314000
I1010 11:48:16.991562 185245 layer_factory.hpp:77] Creating layer label_mnist_1_split
I1010 11:48:16.991571 185245 net.cpp:84] Creating Layer label_mnist_1_split
I1010 11:48:16.991577 185245 net.cpp:406] label_mnist_1_split <- label
I1010 11:48:16.991605 185245 net.cpp:380] label_mnist_1_split -> label_mnist_1_split_0
I1010 11:48:16.991614 185245 net.cpp:380] label_mnist_1_split -> label_mnist_1_split_1
I1010 11:48:16.991722 185245 net.cpp:122] Setting up label_mnist_1_split
I1010 11:48:16.991730 185245 net.cpp:129] Top shape: 100 (100)
I1010 11:48:16.991734 185245 net.cpp:129] Top shape: 100 (100)
I1010 11:48:16.991739 185245 net.cpp:137] Memory required for data: 314800
I1010 11:48:16.991741 185245 layer_factory.hpp:77] Creating layer reshape
I1010 11:48:17.389994 185245 net.cpp:84] Creating Layer reshape
I1010 11:48:17.390022 185245 net.cpp:406] reshape <- data
I1010 11:48:17.390031 185245 net.cpp:380] reshape -> reshape
I1010 11:48:17.390242 185245 net.cpp:122] Setting up reshape
I1010 11:48:17.390257 185245 net.cpp:129] Top shape: 1600 1 7 7 (78400)
I1010 11:48:17.390264 185245 net.cpp:137] Memory required for data: 628400
I1010 11:48:17.390267 185245 layer_factory.hpp:77] Creating layer csc
I1010 11:48:17.390297 185245 net.cpp:84] Creating Layer csc
I1010 11:48:17.390300 185245 net.cpp:406] csc <- reshape
I1010 11:48:17.390305 185245 net.cpp:380] csc -> csc
I1010 11:48:17.391379 185245 net.cpp:122] Setting up csc
I1010 11:48:17.391409 185245 net.cpp:129] Top shape: 1600 100 7 7 (7840000)
I1010 11:48:17.391434 185245 net.cpp:137] Memory required for data: 31988400
I1010 11:48:17.391451 185245 layer_factory.hpp:77] Creating layer pool
I1010 11:48:17.391484 185245 net.cpp:84] Creating Layer pool
I1010 11:48:17.391487 185245 net.cpp:406] pool <- csc
I1010 11:48:17.391492 185245 net.cpp:380] pool -> pool
I1010 11:48:17.391533 185245 net.cpp:122] Setting up pool
I1010 11:48:17.391541 185245 net.cpp:129] Top shape: 1600 100 1 1 (160000)
I1010 11:48:17.391544 185245 net.cpp:137] Memory required for data: 32628400
I1010 11:48:17.391547 185245 layer_factory.hpp:77] Creating layer reshape_back
I1010 11:48:17.391574 185245 net.cpp:84] Creating Layer reshape_back
I1010 11:48:17.391580 185245 net.cpp:406] reshape_back <- pool
I1010 11:48:17.391585 185245 net.cpp:380] reshape_back -> reshape_back
I1010 11:48:17.392451 185245 net.cpp:122] Setting up reshape_back
I1010 11:48:17.392463 185245 net.cpp:129] Top shape: 100 100 4 4 (160000)
I1010 11:48:17.392467 185245 net.cpp:137] Memory required for data: 33268400
I1010 11:48:17.392470 185245 layer_factory.hpp:77] Creating layer ip
I1010 11:48:17.392482 185245 net.cpp:84] Creating Layer ip
I1010 11:48:17.392485 185245 net.cpp:406] ip <- reshape_back
I1010 11:48:17.392490 185245 net.cpp:380] ip -> ip
I1010 11:48:17.393429 185245 net.cpp:122] Setting up ip
I1010 11:48:17.393441 185245 net.cpp:129] Top shape: 100 10 (1000)
I1010 11:48:17.393445 185245 net.cpp:137] Memory required for data: 33272400
I1010 11:48:17.393451 185245 layer_factory.hpp:77] Creating layer ip_ip_0_split
I1010 11:48:17.393458 185245 net.cpp:84] Creating Layer ip_ip_0_split
I1010 11:48:17.393461 185245 net.cpp:406] ip_ip_0_split <- ip
I1010 11:48:17.393466 185245 net.cpp:380] ip_ip_0_split -> ip_ip_0_split_0
I1010 11:48:17.393471 185245 net.cpp:380] ip_ip_0_split -> ip_ip_0_split_1
I1010 11:48:17.393514 185245 net.cpp:122] Setting up ip_ip_0_split
I1010 11:48:17.393520 185245 net.cpp:129] Top shape: 100 10 (1000)
I1010 11:48:17.393523 185245 net.cpp:129] Top shape: 100 10 (1000)
I1010 11:48:17.393527 185245 net.cpp:137] Memory required for data: 33280400
I1010 11:48:17.393530 185245 layer_factory.hpp:77] Creating layer accuracy
I1010 11:48:17.393555 185245 net.cpp:84] Creating Layer accuracy
I1010 11:48:17.393558 185245 net.cpp:406] accuracy <- ip_ip_0_split_0
I1010 11:48:17.393563 185245 net.cpp:406] accuracy <- label_mnist_1_split_0
I1010 11:48:17.393565 185245 net.cpp:380] accuracy -> accuracy
…
