…
I1011 10:15:42.069228 85845 solver.cpp:87] Creating training net from net file: examples/mnist_csc/small_context_nobn.prototxt
I1011 10:15:42.069845 85845 net.cpp:294] The NetState phase (0) differed from the phase (1) specified by a rule in layer mnist
I1011 10:15:42.070032 85845 net.cpp:51] Initializing net from parameters: 
name: "mnist_csc_small_context_nobn"
state {
  phase: TRAIN
  level: 0
  stage: ""
}
layer {
  name: "mnist"
  type: "Data"
  top: "data"
  top: "label"
  include {
    phase: TRAIN
  }
  transform_param {
    scale: 0.00390625
  }
  data_param {
    source: "examples/mnist/mnist_train_lmdb"
    batch_size: 100
    backend: LMDB
  }
}
layer {
  name: "reshape"
  type: "Python"
  bottom: "data"
  top: "reshape"
  propagate_down: false
  python_param {
    module: "patch_layer.layer"
    layer: "CSCPatchLayer"
    param_str: "{\'patch_size\': 7}"
  }
}
layer {
  name: "csc"
  type: "CSC"
  bottom: "reshape"
  top: "csc"
  param {
    lr_mult: 1
  }
  param {
    lr_mult: 0
  }
  csc_param {
    lambda1: 0.1
    lambda2: 1
    boundary: PAD_BOTH
    kernel_h: 5
    kernel_w: 5
    num_output: 100
    admm_max_iter: 1000
    admm_max_rho: 1
    admm_eta: 1.1
    filler {
      type: "xavier"
    }
    verbose: false
  }
}
layer {
  name: "pool"
  type: "Pooling"
  bottom: "csc"
  top: "pool"
  pooling_param {
    pool: MAX
    global_pooling: true
  }
}
layer {
  name: "reshape_back"
  type: "Python"
  bottom: "pool"
  top: "reshape_back"
  propagate_down: false
  python_param {
    module: "patch_layer.layer"
    layer: "CSCGatherLayer"
    param_str: "{\'num_patches_h\': 4, \'num_patches_w\': 4}"
  }
}
layer {
  name: "ip1"
  type: "InnerProduct"
  bottom: "reshape_back"
  top: "ip1"
  param {
    lr_mult: 1
    decay_mult: 1
  }
  param {
    lr_mult: 2
    decay_mult: 0
  }
  inner_product_param {
    num_output: 1024
    weight_filler {
      type: "xavier"
    }
    bias_filler {
      type: "constant"
    }
  }
}
layer {
  name: "relu1"
  type: "ReLU"
  bottom: "ip1"
  top: "ip1"
}
layer {
  name: "drop1"
  type: "Dropout"
  bottom: "ip1"
  top: "ip1"
  dropout_param {
    dropout_ratio: 0.5
  }
}
layer {
  name: "ip2"
  type: "InnerProduct"
  bottom: "ip1"
  top: "ip2"
  param {
    lr_mult: 1
    decay_mult: 1
  }
  param {
    lr_mult: 2
    decay_mult: 0
  }
  inner_product_param {
    num_output: 10
    weight_filler {
      type: "xavier"
    }
    bias_filler {
      type: "constant"
    }
  }
}
layer {
  name: "accuracy"
  type: "Accuracy"
  bottom: "ip2"
  bottom: "label"
  top: "accuracy"
}
layer {
  name: "loss"
  type: "SoftmaxWithLoss"
  bottom: "ip2"
  bottom: "label"
  top: "loss"
}
I1011 10:15:42.070199 85845 layer_factory.hpp:77] Creating layer mnist
I1011 10:15:42.070397 85845 db_lmdb.cpp:35] Opened lmdb examples/mnist/mnist_train_lmdb
I1011 10:15:42.070456 85845 net.cpp:84] Creating Layer mnist
I1011 10:15:42.070473 85845 net.cpp:380] mnist -> data
I1011 10:15:42.070507 85845 net.cpp:380] mnist -> label
I1011 10:15:42.071593 85845 data_layer.cpp:45] output data size: 100,1,28,28
I1011 10:15:42.075299 85845 net.cpp:122] Setting up mnist
I1011 10:15:42.075353 85845 net.cpp:129] Top shape: 100 1 28 28 (78400)
I1011 10:15:42.075366 85845 net.cpp:129] Top shape: 100 (100)
I1011 10:15:42.075371 85845 net.cpp:137] Memory required for data: 314000
I1011 10:15:42.075387 85845 layer_factory.hpp:77] Creating layer label_mnist_1_split
I1011 10:15:42.075417 85845 net.cpp:84] Creating Layer label_mnist_1_split
I1011 10:15:42.075428 85845 net.cpp:406] label_mnist_1_split <- label
I1011 10:15:42.075495 85845 net.cpp:380] label_mnist_1_split -> label_mnist_1_split_0
I1011 10:15:42.075515 85845 net.cpp:380] label_mnist_1_split -> label_mnist_1_split_1
I1011 10:15:42.075577 85845 net.cpp:122] Setting up label_mnist_1_split
I1011 10:15:42.075587 85845 net.cpp:129] Top shape: 100 (100)
I1011 10:15:42.075593 85845 net.cpp:129] Top shape: 100 (100)
I1011 10:15:42.075598 85845 net.cpp:137] Memory required for data: 314800
I1011 10:15:42.075603 85845 layer_factory.hpp:77] Creating layer reshape
I1011 10:15:43.087535 85845 net.cpp:84] Creating Layer reshape
I1011 10:15:43.087640 85845 net.cpp:406] reshape <- data
I1011 10:15:43.087663 85845 net.cpp:380] reshape -> reshape
I1011 10:15:43.088847 85845 net.cpp:122] Setting up reshape
I1011 10:15:43.088871 85845 net.cpp:129] Top shape: 1600 1 7 7 (78400)
I1011 10:15:43.088877 85845 net.cpp:137] Memory required for data: 628400
I1011 10:15:43.088886 85845 layer_factory.hpp:77] Creating layer csc
I1011 10:15:43.088930 85845 net.cpp:84] Creating Layer csc
I1011 10:15:43.088937 85845 net.cpp:406] csc <- reshape
I1011 10:15:43.088948 85845 net.cpp:380] csc -> csc
I1011 10:15:43.090803 85845 net.cpp:122] Setting up csc
I1011 10:15:43.090826 85845 net.cpp:129] Top shape: 1600 100 7 7 (7840000)
I1011 10:15:43.090832 85845 net.cpp:137] Memory required for data: 31988400
I1011 10:15:43.090872 85845 layer_factory.hpp:77] Creating layer pool
I1011 10:15:43.090901 85845 net.cpp:84] Creating Layer pool
I1011 10:15:43.090909 85845 net.cpp:406] pool <- csc
I1011 10:15:43.090917 85845 net.cpp:380] pool -> pool
I1011 10:15:43.090982 85845 net.cpp:122] Setting up pool
I1011 10:15:43.090992 85845 net.cpp:129] Top shape: 1600 100 1 1 (160000)
I1011 10:15:43.090997 85845 net.cpp:137] Memory required for data: 32628400
I1011 10:15:43.091002 85845 layer_factory.hpp:77] Creating layer reshape_back
I1011 10:15:43.091065 85845 net.cpp:84] Creating Layer reshape_back
I1011 10:15:43.091073 85845 net.cpp:406] reshape_back <- pool
I1011 10:15:43.091081 85845 net.cpp:380] reshape_back -> reshape_back
I1011 10:15:43.092211 85845 net.cpp:122] Setting up reshape_back
I1011 10:15:43.092229 85845 net.cpp:129] Top shape: 100 100 4 4 (160000)
I1011 10:15:43.092234 85845 net.cpp:137] Memory required for data: 33268400
I1011 10:15:43.092241 85845 layer_factory.hpp:77] Creating layer ip1
I1011 10:15:43.092272 85845 net.cpp:84] Creating Layer ip1
I1011 10:15:43.092278 85845 net.cpp:406] ip1 <- reshape_back
I1011 10:15:43.092288 85845 net.cpp:380] ip1 -> ip1
I1011 10:15:43.111656 85845 net.cpp:122] Setting up ip1
I1011 10:15:43.111712 85845 net.cpp:129] Top shape: 100 1024 (102400)
I1011 10:15:43.111719 85845 net.cpp:137] Memory required for data: 33678000
I1011 10:15:43.111743 85845 layer_factory.hpp:77] Creating layer relu1
I1011 10:15:43.111774 85845 net.cpp:84] Creating Layer relu1
I1011 10:15:43.111781 85845 net.cpp:406] relu1 <- ip1
I1011 10:15:43.111793 85845 net.cpp:367] relu1 -> ip1 (in-place)
I1011 10:15:43.763573 85845 net.cpp:122] Setting up relu1
I1011 10:15:43.763639 85845 net.cpp:129] Top shape: 100 1024 (102400)
I1011 10:15:43.763653 85845 net.cpp:137] Memory required for data: 34087600
I1011 10:15:43.763665 85845 layer_factory.hpp:77] Creating layer drop1
I1011 10:15:43.763702 85845 net.cpp:84] Creating Layer drop1
I1011 10:15:43.763715 85845 net.cpp:406] drop1 <- ip1
I1011 10:15:43.763732 85845 net.cpp:367] drop1 -> ip1 (in-place)
I1011 10:15:43.763820 85845 net.cpp:122] Setting up drop1
I1011 10:15:43.763833 85845 net.cpp:129] Top shape: 100 1024 (102400)
I1011 10:15:43.763836 85845 net.cpp:137] Memory required for data: 34497200
I1011 10:15:43.763841 85845 layer_factory.hpp:77] Creating layer ip2
I1011 10:15:43.763862 85845 net.cpp:84] Creating Layer ip2
I1011 10:15:43.763869 85845 net.cpp:406] ip2 <- ip1
I1011 10:15:43.763877 85845 net.cpp:380] ip2 -> ip2
I1011 10:15:43.766844 85845 net.cpp:122] Setting up ip2
I1011 10:15:43.766891 85845 net.cpp:129] Top shape: 100 10 (1000)
I1011 10:15:43.766903 85845 net.cpp:137] Memory required for data: 34501200
I1011 10:15:43.766928 85845 layer_factory.hpp:77] Creating layer ip2_ip2_0_split
I1011 10:15:43.766999 85845 net.cpp:84] Creating Layer ip2_ip2_0_split
I1011 10:15:43.767011 85845 net.cpp:406] ip2_ip2_0_split <- ip2
I1011 10:15:43.767026 85845 net.cpp:380] ip2_ip2_0_split -> ip2_ip2_0_split_0
I1011 10:15:43.767045 85845 net.cpp:380] ip2_ip2_0_split -> ip2_ip2_0_split_1
I1011 10:15:43.767109 85845 net.cpp:122] Setting up ip2_ip2_0_split
I1011 10:15:43.767122 85845 net.cpp:129] Top shape: 100 10 (1000)
I1011 10:15:43.767129 85845 net.cpp:129] Top shape: 100 10 (1000)
I1011 10:15:43.767137 85845 net.cpp:137] Memory required for data: 34509200
I1011 10:15:43.767143 85845 layer_factory.hpp:77] Creating layer accuracy
I1011 10:15:43.767164 85845 net.cpp:84] Creating Layer accuracy
I1011 10:15:43.767174 85845 net.cpp:406] accuracy <- ip2_ip2_0_split_0
I1011 10:15:43.767181 85845 net.cpp:406] accuracy <- label_mnist_1_split_0
I1011 10:15:43.767192 85845 net.cpp:380] accuracy -> accuracy
…
