…
I1011 13:29:20.620378 104711 solver.cpp:87] Creating training net from net file: examples/mnist_csc/small_context_nobn.prototxt
I1011 13:29:20.621003 104711 net.cpp:294] The NetState phase (0) differed from the phase (1) specified by a rule in layer mnist
I1011 13:29:20.621161 104711 net.cpp:51] Initializing net from parameters: 
name: "mnist_csc_small_context_nobn"
state {
  phase: TRAIN
  level: 0
  stage: ""
}
layer {
  name: "mnist"
  type: "Data"
  top: "data"
  top: "label"
  include {
    phase: TRAIN
  }
  transform_param {
    scale: 0.00390625
  }
  data_param {
    source: "examples/mnist/mnist_train_lmdb"
    batch_size: 100
    backend: LMDB
  }
}
layer {
  name: "reshape"
  type: "Python"
  bottom: "data"
  top: "reshape"
  propagate_down: false
  python_param {
    module: "patch_layer.layer"
    layer: "CSCPatchLayer"
    param_str: "{\'patch_size\': 7}"
  }
}
layer {
  name: "csc"
  type: "CSC"
  bottom: "reshape"
  top: "csc"
  param {
    lr_mult: 1
  }
  param {
    lr_mult: 0
  }
  csc_param {
    lambda1: 0.1
    lambda2: 1
    boundary: PAD_BOTH
    kernel_h: 5
    kernel_w: 5
    num_output: 100
    admm_max_iter: 1000
    admm_max_rho: 1
    admm_eta: 1.1
    filler {
      type: "xavier"
    }
    verbose: false
  }
}
layer {
  name: "pool"
  type: "Pooling"
  bottom: "csc"
  top: "pool"
  pooling_param {
    pool: MAX
    global_pooling: true
  }
}
layer {
  name: "reshape_back"
  type: "Python"
  bottom: "pool"
  top: "reshape_back"
  propagate_down: false
  python_param {
    module: "patch_layer.layer"
    layer: "CSCGatherLayer"
    param_str: "{\'num_patches_h\': 4, \'num_patches_w\': 4}"
  }
}
layer {
  name: "ip1"
  type: "InnerProduct"
  bottom: "reshape_back"
  top: "ip1"
  param {
    lr_mult: 1
    decay_mult: 1
  }
  param {
    lr_mult: 2
    decay_mult: 0
  }
  inner_product_param {
    num_output: 1024
    weight_filler {
      type: "xavier"
    }
    bias_filler {
      type: "constant"
    }
  }
}
layer {
  name: "relu1"
  type: "ReLU"
  bottom: "ip1"
  top: "ip1"
}
layer {
  name: "drop1"
  type: "Dropout"
  bottom: "ip1"
  top: "ip1"
  dropout_param {
    dropout_ratio: 0.5
  }
}
layer {
  name: "ip2"
  type: "InnerProduct"
  bottom: "ip1"
  top: "ip2"
  param {
    lr_mult: 1
    decay_mult: 1
  }
  param {
    lr_mult: 2
    decay_mult: 0
  }
  inner_product_param {
    num_output: 10
    weight_filler {
      type: "xavier"
    }
    bias_filler {
      type: "constant"
    }
  }
}
layer {
  name: "accuracy"
  type: "Accuracy"
  bottom: "ip2"
  bottom: "label"
  top: "accuracy"
}
layer {
  name: "loss"
  type: "SoftmaxWithLoss"
  bottom: "ip2"
  bottom: "label"
  top: "loss"
}
I1011 13:29:20.621309 104711 layer_factory.hpp:77] Creating layer mnist
I1011 13:29:20.621659 104711 db_lmdb.cpp:35] Opened lmdb examples/mnist/mnist_train_lmdb
I1011 13:29:20.621704 104711 net.cpp:84] Creating Layer mnist
I1011 13:29:20.621717 104711 net.cpp:380] mnist -> data
I1011 13:29:20.621760 104711 net.cpp:380] mnist -> label
I1011 13:29:20.622928 104711 data_layer.cpp:45] output data size: 100,1,28,28
I1011 13:29:20.627550 104711 net.cpp:122] Setting up mnist
I1011 13:29:20.627612 104711 net.cpp:129] Top shape: 100 1 28 28 (78400)
I1011 13:29:20.627622 104711 net.cpp:129] Top shape: 100 (100)
I1011 13:29:20.627627 104711 net.cpp:137] Memory required for data: 314000
I1011 13:29:20.627645 104711 layer_factory.hpp:77] Creating layer label_mnist_1_split
I1011 13:29:20.627671 104711 net.cpp:84] Creating Layer label_mnist_1_split
I1011 13:29:20.627678 104711 net.cpp:406] label_mnist_1_split <- label
I1011 13:29:20.627734 104711 net.cpp:380] label_mnist_1_split -> label_mnist_1_split_0
I1011 13:29:20.627750 104711 net.cpp:380] label_mnist_1_split -> label_mnist_1_split_1
I1011 13:29:20.627810 104711 net.cpp:122] Setting up label_mnist_1_split
I1011 13:29:20.627820 104711 net.cpp:129] Top shape: 100 (100)
I1011 13:29:20.627825 104711 net.cpp:129] Top shape: 100 (100)
I1011 13:29:20.627830 104711 net.cpp:137] Memory required for data: 314800
I1011 13:29:20.627833 104711 layer_factory.hpp:77] Creating layer reshape
I1011 13:29:21.115490 104711 net.cpp:84] Creating Layer reshape
I1011 13:29:21.115527 104711 net.cpp:406] reshape <- data
I1011 13:29:21.115537 104711 net.cpp:380] reshape -> reshape
I1011 13:29:21.115784 104711 net.cpp:122] Setting up reshape
I1011 13:29:21.115800 104711 net.cpp:129] Top shape: 1600 1 7 7 (78400)
I1011 13:29:21.115808 104711 net.cpp:137] Memory required for data: 628400
I1011 13:29:21.115813 104711 layer_factory.hpp:77] Creating layer csc
I1011 13:29:21.115828 104711 net.cpp:84] Creating Layer csc
I1011 13:29:21.115833 104711 net.cpp:406] csc <- reshape
I1011 13:29:21.115839 104711 net.cpp:380] csc -> csc
I1011 13:29:21.117003 104711 net.cpp:122] Setting up csc
I1011 13:29:21.117023 104711 net.cpp:129] Top shape: 1600 100 7 7 (7840000)
I1011 13:29:21.117027 104711 net.cpp:137] Memory required for data: 31988400
I1011 13:29:21.117050 104711 layer_factory.hpp:77] Creating layer pool
I1011 13:29:21.117067 104711 net.cpp:84] Creating Layer pool
I1011 13:29:21.117074 104711 net.cpp:406] pool <- csc
I1011 13:29:21.117079 104711 net.cpp:380] pool -> pool
I1011 13:29:21.117131 104711 net.cpp:122] Setting up pool
I1011 13:29:21.117139 104711 net.cpp:129] Top shape: 1600 100 1 1 (160000)
I1011 13:29:21.117143 104711 net.cpp:137] Memory required for data: 32628400
I1011 13:29:21.117148 104711 layer_factory.hpp:77] Creating layer reshape_back
I1011 13:29:21.117187 104711 net.cpp:84] Creating Layer reshape_back
I1011 13:29:21.117192 104711 net.cpp:406] reshape_back <- pool
I1011 13:29:21.117197 104711 net.cpp:380] reshape_back -> reshape_back
I1011 13:29:21.118130 104711 net.cpp:122] Setting up reshape_back
I1011 13:29:21.118145 104711 net.cpp:129] Top shape: 100 100 4 4 (160000)
I1011 13:29:21.118149 104711 net.cpp:137] Memory required for data: 33268400
I1011 13:29:21.118152 104711 layer_factory.hpp:77] Creating layer ip1
I1011 13:29:21.118167 104711 net.cpp:84] Creating Layer ip1
I1011 13:29:21.118172 104711 net.cpp:406] ip1 <- reshape_back
I1011 13:29:21.118177 104711 net.cpp:380] ip1 -> ip1
I1011 13:29:21.130362 104711 net.cpp:122] Setting up ip1
I1011 13:29:21.130404 104711 net.cpp:129] Top shape: 100 1024 (102400)
I1011 13:29:21.130409 104711 net.cpp:137] Memory required for data: 33678000
I1011 13:29:21.130429 104711 layer_factory.hpp:77] Creating layer relu1
I1011 13:29:21.130445 104711 net.cpp:84] Creating Layer relu1
I1011 13:29:21.130450 104711 net.cpp:406] relu1 <- ip1
I1011 13:29:21.130457 104711 net.cpp:367] relu1 -> ip1 (in-place)
I1011 13:29:21.420464 104711 net.cpp:122] Setting up relu1
I1011 13:29:21.420509 104711 net.cpp:129] Top shape: 100 1024 (102400)
I1011 13:29:21.420513 104711 net.cpp:137] Memory required for data: 34087600
I1011 13:29:21.420521 104711 layer_factory.hpp:77] Creating layer drop1
I1011 13:29:21.420549 104711 net.cpp:84] Creating Layer drop1
I1011 13:29:21.420557 104711 net.cpp:406] drop1 <- ip1
I1011 13:29:21.420564 104711 net.cpp:367] drop1 -> ip1 (in-place)
I1011 13:29:21.420640 104711 net.cpp:122] Setting up drop1
I1011 13:29:21.420647 104711 net.cpp:129] Top shape: 100 1024 (102400)
I1011 13:29:21.420650 104711 net.cpp:137] Memory required for data: 34497200
I1011 13:29:21.420653 104711 layer_factory.hpp:77] Creating layer ip2
I1011 13:29:21.420667 104711 net.cpp:84] Creating Layer ip2
I1011 13:29:21.420671 104711 net.cpp:406] ip2 <- ip1
I1011 13:29:21.420676 104711 net.cpp:380] ip2 -> ip2
I1011 13:29:21.421651 104711 net.cpp:122] Setting up ip2
I1011 13:29:21.421667 104711 net.cpp:129] Top shape: 100 10 (1000)
I1011 13:29:21.421671 104711 net.cpp:137] Memory required for data: 34501200
I1011 13:29:21.421715 104711 layer_factory.hpp:77] Creating layer ip2_ip2_0_split
I1011 13:29:21.421728 104711 net.cpp:84] Creating Layer ip2_ip2_0_split
I1011 13:29:21.421732 104711 net.cpp:406] ip2_ip2_0_split <- ip2
I1011 13:29:21.421738 104711 net.cpp:380] ip2_ip2_0_split -> ip2_ip2_0_split_0
I1011 13:29:21.421746 104711 net.cpp:380] ip2_ip2_0_split -> ip2_ip2_0_split_1
I1011 13:29:21.421780 104711 net.cpp:122] Setting up ip2_ip2_0_split
I1011 13:29:21.421787 104711 net.cpp:129] Top shape: 100 10 (1000)
I1011 13:29:21.421790 104711 net.cpp:129] Top shape: 100 10 (1000)
I1011 13:29:21.421794 104711 net.cpp:137] Memory required for data: 34509200
I1011 13:29:21.421797 104711 layer_factory.hpp:77] Creating layer accuracy
I1011 13:29:21.421808 104711 net.cpp:84] Creating Layer accuracy
I1011 13:29:21.421813 104711 net.cpp:406] accuracy <- ip2_ip2_0_split_0
I1011 13:29:21.421816 104711 net.cpp:406] accuracy <- label_mnist_1_split_0
I1011 13:29:21.421821 104711 net.cpp:380] accuracy -> accuracy
…
