…
I1011 11:26:31.968586 92870 solver.cpp:87] Creating training net from net file: examples/mnist_csc/small_context_nobn.prototxt
I1011 11:26:31.968986 92870 net.cpp:294] The NetState phase (0) differed from the phase (1) specified by a rule in layer mnist
I1011 11:26:31.969100 92870 net.cpp:51] Initializing net from parameters: 
name: "mnist_csc_small_context_nobn"
state {
  phase: TRAIN
  level: 0
  stage: ""
}
layer {
  name: "mnist"
  type: "Data"
  top: "data"
  top: "label"
  include {
    phase: TRAIN
  }
  transform_param {
    scale: 0.00390625
  }
  data_param {
    source: "examples/mnist/mnist_train_lmdb"
    batch_size: 100
    backend: LMDB
  }
}
layer {
  name: "reshape"
  type: "Python"
  bottom: "data"
  top: "reshape"
  propagate_down: false
  python_param {
    module: "patch_layer.layer"
    layer: "CSCPatchLayer"
    param_str: "{\'patch_size\': 7}"
  }
}
layer {
  name: "csc"
  type: "CSC"
  bottom: "reshape"
  top: "csc"
  param {
    lr_mult: 1
  }
  param {
    lr_mult: 0
  }
  csc_param {
    lambda1: 0.1
    lambda2: 1
    boundary: PAD_BOTH
    kernel_h: 5
    kernel_w: 5
    num_output: 100
    admm_max_iter: 1000
    admm_max_rho: 1
    admm_eta: 1.1
    filler {
      type: "xavier"
    }
    verbose: false
  }
}
layer {
  name: "pool"
  type: "Pooling"
  bottom: "csc"
  top: "pool"
  pooling_param {
    pool: MAX
    global_pooling: true
  }
}
layer {
  name: "reshape_back"
  type: "Python"
  bottom: "pool"
  top: "reshape_back"
  propagate_down: false
  python_param {
    module: "patch_layer.layer"
    layer: "CSCGatherLayer"
    param_str: "{\'num_patches_h\': 4, \'num_patches_w\': 4}"
  }
}
layer {
  name: "ip1"
  type: "InnerProduct"
  bottom: "reshape_back"
  top: "ip1"
  param {
    lr_mult: 1
    decay_mult: 1
  }
  param {
    lr_mult: 2
    decay_mult: 0
  }
  inner_product_param {
    num_output: 1024
    weight_filler {
      type: "xavier"
    }
    bias_filler {
      type: "constant"
    }
  }
}
layer {
  name: "relu1"
  type: "ReLU"
  bottom: "ip1"
  top: "ip1"
}
layer {
  name: "drop1"
  type: "Dropout"
  bottom: "ip1"
  top: "ip1"
  dropout_param {
    dropout_ratio: 0.5
  }
}
layer {
  name: "ip2"
  type: "InnerProduct"
  bottom: "ip1"
  top: "ip2"
  param {
    lr_mult: 1
    decay_mult: 1
  }
  param {
    lr_mult: 2
    decay_mult: 0
  }
  inner_product_param {
    num_output: 10
    weight_filler {
      type: "xavier"
    }
    bias_filler {
      type: "constant"
    }
  }
}
layer {
  name: "accuracy"
  type: "Accuracy"
  bottom: "ip2"
  bottom: "label"
  top: "accuracy"
}
layer {
  name: "loss"
  type: "SoftmaxWithLoss"
  bottom: "ip2"
  bottom: "label"
  top: "loss"
}
I1011 11:26:31.969223 92870 layer_factory.hpp:77] Creating layer mnist
I1011 11:26:31.969537 92870 db_lmdb.cpp:35] Opened lmdb examples/mnist/mnist_train_lmdb
I1011 11:26:31.969573 92870 net.cpp:84] Creating Layer mnist
I1011 11:26:31.969586 92870 net.cpp:380] mnist -> data
I1011 11:26:31.969625 92870 net.cpp:380] mnist -> label
I1011 11:26:31.970633 92870 data_layer.cpp:45] output data size: 100,1,28,28
I1011 11:26:31.974165 92870 net.cpp:122] Setting up mnist
I1011 11:26:31.974213 92870 net.cpp:129] Top shape: 100 1 28 28 (78400)
I1011 11:26:31.974220 92870 net.cpp:129] Top shape: 100 (100)
I1011 11:26:31.974223 92870 net.cpp:137] Memory required for data: 314000
I1011 11:26:31.974236 92870 layer_factory.hpp:77] Creating layer label_mnist_1_split
I1011 11:26:31.974256 92870 net.cpp:84] Creating Layer label_mnist_1_split
I1011 11:26:31.974263 92870 net.cpp:406] label_mnist_1_split <- label
I1011 11:26:31.974308 92870 net.cpp:380] label_mnist_1_split -> label_mnist_1_split_0
I1011 11:26:31.974323 92870 net.cpp:380] label_mnist_1_split -> label_mnist_1_split_1
I1011 11:26:31.974373 92870 net.cpp:122] Setting up label_mnist_1_split
I1011 11:26:31.974380 92870 net.cpp:129] Top shape: 100 (100)
I1011 11:26:31.974385 92870 net.cpp:129] Top shape: 100 (100)
I1011 11:26:31.974388 92870 net.cpp:137] Memory required for data: 314800
I1011 11:26:31.974391 92870 layer_factory.hpp:77] Creating layer reshape
I1011 11:26:32.560501 92870 net.cpp:84] Creating Layer reshape
I1011 11:26:32.560551 92870 net.cpp:406] reshape <- data
I1011 11:26:32.560566 92870 net.cpp:380] reshape -> reshape
I1011 11:26:32.560865 92870 net.cpp:122] Setting up reshape
I1011 11:26:32.560887 92870 net.cpp:129] Top shape: 1600 1 7 7 (78400)
I1011 11:26:32.560895 92870 net.cpp:137] Memory required for data: 628400
I1011 11:26:32.560904 92870 layer_factory.hpp:77] Creating layer csc
I1011 11:26:32.560925 92870 net.cpp:84] Creating Layer csc
I1011 11:26:32.560931 92870 net.cpp:406] csc <- reshape
I1011 11:26:32.560940 92870 net.cpp:380] csc -> csc
I1011 11:26:32.562383 92870 net.cpp:122] Setting up csc
I1011 11:26:32.562417 92870 net.cpp:129] Top shape: 1600 100 7 7 (7840000)
I1011 11:26:32.562422 92870 net.cpp:137] Memory required for data: 31988400
I1011 11:26:32.562453 92870 layer_factory.hpp:77] Creating layer pool
I1011 11:26:32.562477 92870 net.cpp:84] Creating Layer pool
I1011 11:26:32.562485 92870 net.cpp:406] pool <- csc
I1011 11:26:32.562495 92870 net.cpp:380] pool -> pool
I1011 11:26:32.562566 92870 net.cpp:122] Setting up pool
I1011 11:26:32.562577 92870 net.cpp:129] Top shape: 1600 100 1 1 (160000)
I1011 11:26:32.562582 92870 net.cpp:137] Memory required for data: 32628400
I1011 11:26:32.562588 92870 layer_factory.hpp:77] Creating layer reshape_back
I1011 11:26:32.562642 92870 net.cpp:84] Creating Layer reshape_back
I1011 11:26:32.562650 92870 net.cpp:406] reshape_back <- pool
I1011 11:26:32.571374 92870 net.cpp:380] reshape_back -> reshape_back
I1011 11:26:32.572952 92870 net.cpp:122] Setting up reshape_back
I1011 11:26:32.574525 92870 net.cpp:129] Top shape: 100 100 4 4 (160000)
I1011 11:26:32.574627 92870 net.cpp:137] Memory required for data: 33268400
I1011 11:26:32.574666 92870 layer_factory.hpp:77] Creating layer ip1
I1011 11:26:32.574719 92870 net.cpp:84] Creating Layer ip1
I1011 11:26:32.574765 92870 net.cpp:406] ip1 <- reshape_back
I1011 11:26:32.574805 92870 net.cpp:380] ip1 -> ip1
I1011 11:26:32.608330 92870 net.cpp:122] Setting up ip1
I1011 11:26:32.612506 92870 net.cpp:129] Top shape: 100 1024 (102400)
I1011 11:26:32.612648 92870 net.cpp:137] Memory required for data: 33678000
I1011 11:26:32.612692 92870 layer_factory.hpp:77] Creating layer relu1
I1011 11:26:32.612753 92870 net.cpp:84] Creating Layer relu1
I1011 11:26:32.612799 92870 net.cpp:406] relu1 <- ip1
I1011 11:26:32.612828 92870 net.cpp:367] relu1 -> ip1 (in-place)
I1011 11:26:32.936188 92870 net.cpp:122] Setting up relu1
I1011 11:26:32.936233 92870 net.cpp:129] Top shape: 100 1024 (102400)
I1011 11:26:32.936239 92870 net.cpp:137] Memory required for data: 34087600
I1011 11:26:32.936246 92870 layer_factory.hpp:77] Creating layer drop1
I1011 11:26:32.936275 92870 net.cpp:84] Creating Layer drop1
I1011 11:26:32.936281 92870 net.cpp:406] drop1 <- ip1
I1011 11:26:32.936288 92870 net.cpp:367] drop1 -> ip1 (in-place)
I1011 11:26:32.936360 92870 net.cpp:122] Setting up drop1
I1011 11:26:32.936368 92870 net.cpp:129] Top shape: 100 1024 (102400)
I1011 11:26:32.936372 92870 net.cpp:137] Memory required for data: 34497200
I1011 11:26:32.936374 92870 layer_factory.hpp:77] Creating layer ip2
I1011 11:26:32.936388 92870 net.cpp:84] Creating Layer ip2
I1011 11:26:32.936390 92870 net.cpp:406] ip2 <- ip1
I1011 11:26:32.936396 92870 net.cpp:380] ip2 -> ip2
I1011 11:26:32.937373 92870 net.cpp:122] Setting up ip2
I1011 11:26:32.937387 92870 net.cpp:129] Top shape: 100 10 (1000)
I1011 11:26:32.937391 92870 net.cpp:137] Memory required for data: 34501200
I1011 11:26:32.937410 92870 layer_factory.hpp:77] Creating layer ip2_ip2_0_split
I1011 11:26:32.937453 92870 net.cpp:84] Creating Layer ip2_ip2_0_split
I1011 11:26:32.937458 92870 net.cpp:406] ip2_ip2_0_split <- ip2
I1011 11:26:32.937463 92870 net.cpp:380] ip2_ip2_0_split -> ip2_ip2_0_split_0
I1011 11:26:32.937471 92870 net.cpp:380] ip2_ip2_0_split -> ip2_ip2_0_split_1
I1011 11:26:32.937508 92870 net.cpp:122] Setting up ip2_ip2_0_split
I1011 11:26:32.937515 92870 net.cpp:129] Top shape: 100 10 (1000)
I1011 11:26:32.937520 92870 net.cpp:129] Top shape: 100 10 (1000)
I1011 11:26:32.937522 92870 net.cpp:137] Memory required for data: 34509200
I1011 11:26:32.937525 92870 layer_factory.hpp:77] Creating layer accuracy
I1011 11:26:32.937537 92870 net.cpp:84] Creating Layer accuracy
I1011 11:26:32.937542 92870 net.cpp:406] accuracy <- ip2_ip2_0_split_0
I1011 11:26:32.937546 92870 net.cpp:406] accuracy <- label_mnist_1_split_0
I1011 11:26:32.937551 92870 net.cpp:380] accuracy -> accuracy
…
