…
I1005 16:32:58.028903 93794 solver.cpp:87] Creating training net from net file: examples/mnist_csc/small_context_2.prototxt
I1005 16:32:58.029273 93794 net.cpp:294] The NetState phase (0) differed from the phase (1) specified by a rule in layer mnist
I1005 16:32:58.029386 93794 net.cpp:51] Initializing net from parameters: 
name: "mnist_csc_small_context_2"
state {
  phase: TRAIN
  level: 0
  stage: ""
}
layer {
  name: "mnist"
  type: "Data"
  top: "data"
  top: "label"
  include {
    phase: TRAIN
  }
  transform_param {
    scale: 0.00390625
  }
  data_param {
    source: "examples/mnist/mnist_train_lmdb"
    batch_size: 100
    backend: LMDB
  }
}
layer {
  name: "reshape"
  type: "Python"
  bottom: "data"
  top: "reshape"
  python_param {
    module: "patch_layer.layer"
    layer: "CSCPatchLayer"
    param_str: "{\'patch_size\': 7}"
  }
}
layer {
  name: "csc"
  type: "CSC"
  bottom: "reshape"
  top: "csc"
  param {
    lr_mult: 1
  }
  param {
    lr_mult: 0
  }
  csc_param {
    lambda1: 0.1
    lambda2: 1
    boundary: PAD_BOTH
    kernel_h: 5
    kernel_w: 5
    num_output: 100
    admm_max_iter: 1000
    admm_max_rho: 1
    admm_eta: 1.1
    filler {
      type: "xavier"
    }
    verbose: false
  }
}
layer {
  name: "pool"
  type: "Pooling"
  bottom: "csc"
  top: "pool"
  pooling_param {
    pool: MAX
    global_pooling: true
  }
}
layer {
  name: "reshape_back"
  type: "Python"
  bottom: "pool"
  top: "reshape_back"
  python_param {
    module: "patch_layer.layer"
    layer: "CSCGatherLayer"
    param_str: "{\'num_patches_h\': 4, \'num_patches_w\': 4}"
  }
}
layer {
  name: "bn"
  type: "BatchNorm"
  bottom: "reshape_back"
  top: "bn"
}
layer {
  name: "scale"
  type: "Scale"
  bottom: "bn"
  top: "bn"
  scale_param {
    bias_term: true
  }
}
layer {
  name: "relu"
  type: "ReLU"
  bottom: "bn"
  top: "bn"
}
layer {
  name: "ip"
  type: "InnerProduct"
  bottom: "bn"
  top: "ip"
  param {
    lr_mult: 1
    decay_mult: 1
  }
  param {
    lr_mult: 2
    decay_mult: 0
  }
  inner_product_param {
    num_output: 10
    weight_filler {
      type: "xavier"
    }
    bias_filler {
      type: "constant"
    }
  }
}
layer {
  name: "accuracy"
  type: "Accuracy"
  bottom: "ip"
  bottom: "label"
  top: "accuracy"
}
layer {
  name: "loss"
  type: "SoftmaxWithLoss"
  bottom: "ip"
  bottom: "label"
  top: "loss"
}
I1005 16:32:58.029490 93794 layer_factory.hpp:77] Creating layer mnist
I1005 16:32:58.029623 93794 db_lmdb.cpp:35] Opened lmdb examples/mnist/mnist_train_lmdb
I1005 16:32:58.029664 93794 net.cpp:84] Creating Layer mnist
I1005 16:32:58.029675 93794 net.cpp:380] mnist -> data
I1005 16:32:58.029701 93794 net.cpp:380] mnist -> label
I1005 16:32:58.030498 93794 data_layer.cpp:45] output data size: 100,1,28,28
I1005 16:32:58.033586 93794 net.cpp:122] Setting up mnist
I1005 16:32:58.033620 93794 net.cpp:129] Top shape: 100 1 28 28 (78400)
I1005 16:32:58.033627 93794 net.cpp:129] Top shape: 100 (100)
I1005 16:32:58.033628 93794 net.cpp:137] Memory required for data: 314000
I1005 16:32:58.033635 93794 layer_factory.hpp:77] Creating layer label_mnist_1_split
I1005 16:32:58.033675 93794 net.cpp:84] Creating Layer label_mnist_1_split
I1005 16:32:58.033682 93794 net.cpp:406] label_mnist_1_split <- label
I1005 16:32:58.033696 93794 net.cpp:380] label_mnist_1_split -> label_mnist_1_split_0
I1005 16:32:58.033705 93794 net.cpp:380] label_mnist_1_split -> label_mnist_1_split_1
I1005 16:32:58.033879 93794 net.cpp:122] Setting up label_mnist_1_split
I1005 16:32:58.033887 93794 net.cpp:129] Top shape: 100 (100)
I1005 16:32:58.033908 93794 net.cpp:129] Top shape: 100 (100)
I1005 16:32:58.033913 93794 net.cpp:137] Memory required for data: 314800
I1005 16:32:58.033916 93794 layer_factory.hpp:77] Creating layer reshape
I1005 16:32:58.435988 93794 net.cpp:84] Creating Layer reshape
I1005 16:32:58.436015 93794 net.cpp:406] reshape <- data
I1005 16:32:58.436041 93794 net.cpp:380] reshape -> reshape
I1005 16:32:58.436257 93794 net.cpp:122] Setting up reshape
I1005 16:32:58.436272 93794 net.cpp:129] Top shape: 1600 1 7 7 (78400)
I1005 16:32:58.436277 93794 net.cpp:137] Memory required for data: 628400
I1005 16:32:58.436281 93794 layer_factory.hpp:77] Creating layer csc
I1005 16:32:58.436292 93794 net.cpp:84] Creating Layer csc
I1005 16:32:58.436296 93794 net.cpp:406] csc <- reshape
I1005 16:32:58.436301 93794 net.cpp:380] csc -> csc
I1005 16:32:58.437299 93794 net.cpp:122] Setting up csc
I1005 16:32:58.437314 93794 net.cpp:129] Top shape: 1600 100 7 7 (7840000)
I1005 16:32:58.437333 93794 net.cpp:137] Memory required for data: 31988400
I1005 16:32:58.437347 93794 layer_factory.hpp:77] Creating layer pool
I1005 16:32:58.437361 93794 net.cpp:84] Creating Layer pool
I1005 16:32:58.437366 93794 net.cpp:406] pool <- csc
I1005 16:32:58.437387 93794 net.cpp:380] pool -> pool
I1005 16:32:58.437432 93794 net.cpp:122] Setting up pool
I1005 16:32:58.437438 93794 net.cpp:129] Top shape: 1600 100 1 1 (160000)
I1005 16:32:58.437441 93794 net.cpp:137] Memory required for data: 32628400
I1005 16:32:58.437444 93794 layer_factory.hpp:77] Creating layer reshape_back
I1005 16:32:58.437470 93794 net.cpp:84] Creating Layer reshape_back
I1005 16:32:58.437476 93794 net.cpp:406] reshape_back <- pool
I1005 16:32:58.437481 93794 net.cpp:380] reshape_back -> reshape_back
I1005 16:32:58.438443 93794 net.cpp:122] Setting up reshape_back
I1005 16:32:58.438457 93794 net.cpp:129] Top shape: 100 100 4 4 (160000)
I1005 16:32:58.438477 93794 net.cpp:137] Memory required for data: 33268400
I1005 16:32:58.438480 93794 layer_factory.hpp:77] Creating layer bn
I1005 16:32:58.438489 93794 net.cpp:84] Creating Layer bn
I1005 16:32:58.438493 93794 net.cpp:406] bn <- reshape_back
I1005 16:32:58.438498 93794 net.cpp:380] bn -> bn
I1005 16:32:58.438670 93794 net.cpp:122] Setting up bn
I1005 16:32:58.438678 93794 net.cpp:129] Top shape: 100 100 4 4 (160000)
I1005 16:32:58.438683 93794 net.cpp:137] Memory required for data: 33908400
I1005 16:32:58.438693 93794 layer_factory.hpp:77] Creating layer scale
I1005 16:32:58.438702 93794 net.cpp:84] Creating Layer scale
I1005 16:32:58.438707 93794 net.cpp:406] scale <- bn
I1005 16:32:58.438712 93794 net.cpp:367] scale -> bn (in-place)
I1005 16:32:58.438747 93794 layer_factory.hpp:77] Creating layer scale
I1005 16:32:58.438833 93794 net.cpp:122] Setting up scale
I1005 16:32:58.438840 93794 net.cpp:129] Top shape: 100 100 4 4 (160000)
I1005 16:32:58.438844 93794 net.cpp:137] Memory required for data: 34548400
I1005 16:32:58.438850 93794 layer_factory.hpp:77] Creating layer relu
I1005 16:32:58.438858 93794 net.cpp:84] Creating Layer relu
I1005 16:32:58.438861 93794 net.cpp:406] relu <- bn
I1005 16:32:58.438866 93794 net.cpp:367] relu -> bn (in-place)
I1005 16:32:58.693842 93794 net.cpp:122] Setting up relu
I1005 16:32:58.693879 93794 net.cpp:129] Top shape: 100 100 4 4 (160000)
I1005 16:32:58.693884 93794 net.cpp:137] Memory required for data: 35188400
I1005 16:32:58.693891 93794 layer_factory.hpp:77] Creating layer ip
I1005 16:32:58.693904 93794 net.cpp:84] Creating Layer ip
I1005 16:32:58.693928 93794 net.cpp:406] ip <- bn
I1005 16:32:58.693936 93794 net.cpp:380] ip -> ip
I1005 16:32:58.694844 93794 net.cpp:122] Setting up ip
I1005 16:32:58.694857 93794 net.cpp:129] Top shape: 100 10 (1000)
I1005 16:32:58.694860 93794 net.cpp:137] Memory required for data: 35192400
I1005 16:32:58.694871 93794 layer_factory.hpp:77] Creating layer ip_ip_0_split
I1005 16:32:58.694878 93794 net.cpp:84] Creating Layer ip_ip_0_split
I1005 16:32:58.694881 93794 net.cpp:406] ip_ip_0_split <- ip
I1005 16:32:58.694886 93794 net.cpp:380] ip_ip_0_split -> ip_ip_0_split_0
I1005 16:32:58.694916 93794 net.cpp:380] ip_ip_0_split -> ip_ip_0_split_1
I1005 16:32:58.694949 93794 net.cpp:122] Setting up ip_ip_0_split
I1005 16:32:58.694955 93794 net.cpp:129] Top shape: 100 10 (1000)
I1005 16:32:58.694958 93794 net.cpp:129] Top shape: 100 10 (1000)
I1005 16:32:58.694962 93794 net.cpp:137] Memory required for data: 35200400
I1005 16:32:58.694965 93794 layer_factory.hpp:77] Creating layer accuracy
I1005 16:32:58.694972 93794 net.cpp:84] Creating Layer accuracy
I1005 16:32:58.694977 93794 net.cpp:406] accuracy <- ip_ip_0_split_0
I1005 16:32:58.694980 93794 net.cpp:406] accuracy <- label_mnist_1_split_0
I1005 16:32:58.694984 93794 net.cpp:380] accuracy -> accuracy
…
