…
I1011 11:45:14.207980 94904 solver.cpp:87] Creating training net from net file: examples/mnist_csc/small_context_nobn.prototxt
I1011 11:45:14.208544 94904 net.cpp:294] The NetState phase (0) differed from the phase (1) specified by a rule in layer mnist
I1011 11:45:14.208700 94904 net.cpp:51] Initializing net from parameters: 
name: "mnist_csc_small_context_nobn"
state {
  phase: TRAIN
  level: 0
  stage: ""
}
layer {
  name: "mnist"
  type: "Data"
  top: "data"
  top: "label"
  include {
    phase: TRAIN
  }
  transform_param {
    scale: 0.00390625
  }
  data_param {
    source: "examples/mnist/mnist_train_lmdb"
    batch_size: 100
    backend: LMDB
  }
}
layer {
  name: "reshape"
  type: "Python"
  bottom: "data"
  top: "reshape"
  propagate_down: false
  python_param {
    module: "patch_layer.layer"
    layer: "CSCPatchLayer"
    param_str: "{\'patch_size\': 7}"
  }
}
layer {
  name: "csc"
  type: "CSC"
  bottom: "reshape"
  top: "csc"
  param {
    lr_mult: 1
  }
  param {
    lr_mult: 0
  }
  csc_param {
    lambda1: 0.1
    lambda2: 1
    boundary: PAD_BOTH
    kernel_h: 5
    kernel_w: 5
    num_output: 100
    admm_max_iter: 1000
    admm_max_rho: 1
    admm_eta: 1.1
    filler {
      type: "xavier"
    }
    verbose: false
  }
}
layer {
  name: "pool"
  type: "Pooling"
  bottom: "csc"
  top: "pool"
  pooling_param {
    pool: MAX
    global_pooling: true
  }
}
layer {
  name: "reshape_back"
  type: "Python"
  bottom: "pool"
  top: "reshape_back"
  propagate_down: false
  python_param {
    module: "patch_layer.layer"
    layer: "CSCGatherLayer"
    param_str: "{\'num_patches_h\': 4, \'num_patches_w\': 4}"
  }
}
layer {
  name: "ip1"
  type: "InnerProduct"
  bottom: "reshape_back"
  top: "ip1"
  param {
    lr_mult: 1
    decay_mult: 1
  }
  param {
    lr_mult: 2
    decay_mult: 0
  }
  inner_product_param {
    num_output: 1024
    weight_filler {
      type: "xavier"
    }
    bias_filler {
      type: "constant"
    }
  }
}
layer {
  name: "relu1"
  type: "ReLU"
  bottom: "ip1"
  top: "ip1"
}
layer {
  name: "drop1"
  type: "Dropout"
  bottom: "ip1"
  top: "ip1"
  dropout_param {
    dropout_ratio: 0.5
  }
}
layer {
  name: "ip2"
  type: "InnerProduct"
  bottom: "ip1"
  top: "ip2"
  param {
    lr_mult: 1
    decay_mult: 1
  }
  param {
    lr_mult: 2
    decay_mult: 0
  }
  inner_product_param {
    num_output: 10
    weight_filler {
      type: "xavier"
    }
    bias_filler {
      type: "constant"
    }
  }
}
layer {
  name: "accuracy"
  type: "Accuracy"
  bottom: "ip2"
  bottom: "label"
  top: "accuracy"
}
layer {
  name: "loss"
  type: "SoftmaxWithLoss"
  bottom: "ip2"
  bottom: "label"
  top: "loss"
}
I1011 11:45:14.208850 94904 layer_factory.hpp:77] Creating layer mnist
I1011 11:45:14.209157 94904 db_lmdb.cpp:35] Opened lmdb examples/mnist/mnist_train_lmdb
I1011 11:45:14.209203 94904 net.cpp:84] Creating Layer mnist
I1011 11:45:14.209216 94904 net.cpp:380] mnist -> data
I1011 11:45:14.209257 94904 net.cpp:380] mnist -> label
I1011 11:45:14.210306 94904 data_layer.cpp:45] output data size: 100,1,28,28
I1011 11:45:14.214318 94904 net.cpp:122] Setting up mnist
I1011 11:45:14.214363 94904 net.cpp:129] Top shape: 100 1 28 28 (78400)
I1011 11:45:14.214372 94904 net.cpp:129] Top shape: 100 (100)
I1011 11:45:14.214380 94904 net.cpp:137] Memory required for data: 314000
I1011 11:45:14.214388 94904 layer_factory.hpp:77] Creating layer label_mnist_1_split
I1011 11:45:14.214401 94904 net.cpp:84] Creating Layer label_mnist_1_split
I1011 11:45:14.214408 94904 net.cpp:406] label_mnist_1_split <- label
I1011 11:45:14.214457 94904 net.cpp:380] label_mnist_1_split -> label_mnist_1_split_0
I1011 11:45:14.214468 94904 net.cpp:380] label_mnist_1_split -> label_mnist_1_split_1
I1011 11:45:14.214525 94904 net.cpp:122] Setting up label_mnist_1_split
I1011 11:45:14.214534 94904 net.cpp:129] Top shape: 100 (100)
I1011 11:45:14.214540 94904 net.cpp:129] Top shape: 100 (100)
I1011 11:45:14.214543 94904 net.cpp:137] Memory required for data: 314800
I1011 11:45:14.214547 94904 layer_factory.hpp:77] Creating layer reshape
I1011 11:45:14.856776 94904 net.cpp:84] Creating Layer reshape
I1011 11:45:14.856818 94904 net.cpp:406] reshape <- data
I1011 11:45:14.856833 94904 net.cpp:380] reshape -> reshape
I1011 11:45:14.857115 94904 net.cpp:122] Setting up reshape
I1011 11:45:14.857138 94904 net.cpp:129] Top shape: 1600 1 7 7 (78400)
I1011 11:45:14.857147 94904 net.cpp:137] Memory required for data: 628400
I1011 11:45:14.857154 94904 layer_factory.hpp:77] Creating layer csc
I1011 11:45:14.857173 94904 net.cpp:84] Creating Layer csc
I1011 11:45:14.857178 94904 net.cpp:406] csc <- reshape
I1011 11:45:14.857187 94904 net.cpp:380] csc -> csc
I1011 11:45:14.858562 94904 net.cpp:122] Setting up csc
I1011 11:45:14.858580 94904 net.cpp:129] Top shape: 1600 100 7 7 (7840000)
I1011 11:45:14.858585 94904 net.cpp:137] Memory required for data: 31988400
I1011 11:45:14.858610 94904 layer_factory.hpp:77] Creating layer pool
I1011 11:45:14.858629 94904 net.cpp:84] Creating Layer pool
I1011 11:45:14.858639 94904 net.cpp:406] pool <- csc
I1011 11:45:14.858645 94904 net.cpp:380] pool -> pool
I1011 11:45:14.858706 94904 net.cpp:122] Setting up pool
I1011 11:45:14.858714 94904 net.cpp:129] Top shape: 1600 100 1 1 (160000)
I1011 11:45:14.858719 94904 net.cpp:137] Memory required for data: 32628400
I1011 11:45:14.858723 94904 layer_factory.hpp:77] Creating layer reshape_back
I1011 11:45:14.858758 94904 net.cpp:84] Creating Layer reshape_back
I1011 11:45:14.858765 94904 net.cpp:406] reshape_back <- pool
I1011 11:45:14.858772 94904 net.cpp:380] reshape_back -> reshape_back
I1011 11:45:14.859766 94904 net.cpp:122] Setting up reshape_back
I1011 11:45:14.859783 94904 net.cpp:129] Top shape: 100 100 4 4 (160000)
I1011 11:45:14.859791 94904 net.cpp:137] Memory required for data: 33268400
I1011 11:45:14.859797 94904 layer_factory.hpp:77] Creating layer ip1
I1011 11:45:14.859813 94904 net.cpp:84] Creating Layer ip1
I1011 11:45:14.859818 94904 net.cpp:406] ip1 <- reshape_back
I1011 11:45:14.859827 94904 net.cpp:380] ip1 -> ip1
I1011 11:45:14.876994 94904 net.cpp:122] Setting up ip1
I1011 11:45:14.877017 94904 net.cpp:129] Top shape: 100 1024 (102400)
I1011 11:45:14.877022 94904 net.cpp:137] Memory required for data: 33678000
I1011 11:45:14.877037 94904 layer_factory.hpp:77] Creating layer relu1
I1011 11:45:14.877048 94904 net.cpp:84] Creating Layer relu1
I1011 11:45:14.877054 94904 net.cpp:406] relu1 <- ip1
I1011 11:45:14.877061 94904 net.cpp:367] relu1 -> ip1 (in-place)
I1011 11:45:15.225100 94904 net.cpp:122] Setting up relu1
I1011 11:45:15.225159 94904 net.cpp:129] Top shape: 100 1024 (102400)
I1011 11:45:15.225167 94904 net.cpp:137] Memory required for data: 34087600
I1011 11:45:15.225178 94904 layer_factory.hpp:77] Creating layer drop1
I1011 11:45:15.225236 94904 net.cpp:84] Creating Layer drop1
I1011 11:45:15.225246 94904 net.cpp:406] drop1 <- ip1
I1011 11:45:15.225257 94904 net.cpp:367] drop1 -> ip1 (in-place)
I1011 11:45:15.225343 94904 net.cpp:122] Setting up drop1
I1011 11:45:15.225353 94904 net.cpp:129] Top shape: 100 1024 (102400)
I1011 11:45:15.225356 94904 net.cpp:137] Memory required for data: 34497200
I1011 11:45:15.225361 94904 layer_factory.hpp:77] Creating layer ip2
I1011 11:45:15.225385 94904 net.cpp:84] Creating Layer ip2
I1011 11:45:15.225390 94904 net.cpp:406] ip2 <- ip1
I1011 11:45:15.225399 94904 net.cpp:380] ip2 -> ip2
I1011 11:45:15.226603 94904 net.cpp:122] Setting up ip2
I1011 11:45:15.226621 94904 net.cpp:129] Top shape: 100 10 (1000)
I1011 11:45:15.226626 94904 net.cpp:137] Memory required for data: 34501200
I1011 11:45:15.226645 94904 layer_factory.hpp:77] Creating layer ip2_ip2_0_split
I1011 11:45:15.226711 94904 net.cpp:84] Creating Layer ip2_ip2_0_split
I1011 11:45:15.226718 94904 net.cpp:406] ip2_ip2_0_split <- ip2
I1011 11:45:15.226725 94904 net.cpp:380] ip2_ip2_0_split -> ip2_ip2_0_split_0
I1011 11:45:15.226734 94904 net.cpp:380] ip2_ip2_0_split -> ip2_ip2_0_split_1
I1011 11:45:15.226775 94904 net.cpp:122] Setting up ip2_ip2_0_split
I1011 11:45:15.226783 94904 net.cpp:129] Top shape: 100 10 (1000)
I1011 11:45:15.226788 94904 net.cpp:129] Top shape: 100 10 (1000)
I1011 11:45:15.226793 94904 net.cpp:137] Memory required for data: 34509200
I1011 11:45:15.226796 94904 layer_factory.hpp:77] Creating layer accuracy
I1011 11:45:15.226809 94904 net.cpp:84] Creating Layer accuracy
I1011 11:45:15.226814 94904 net.cpp:406] accuracy <- ip2_ip2_0_split_0
I1011 11:45:15.226819 94904 net.cpp:406] accuracy <- label_mnist_1_split_0
I1011 11:45:15.226824 94904 net.cpp:380] accuracy -> accuracy
…
