…
I1007 12:25:49.487133 42391 solver.cpp:87] Creating training net from net file: examples/mnist_csc/small_context_4.prototxt
I1007 12:25:49.487489 42391 net.cpp:294] The NetState phase (0) differed from the phase (1) specified by a rule in layer mnist
I1007 12:25:49.487578 42391 net.cpp:51] Initializing net from parameters: 
name: "mnist_csc_small_context_4"
state {
  phase: TRAIN
  level: 0
  stage: ""
}
layer {
  name: "mnist"
  type: "Data"
  top: "data"
  top: "label"
  include {
    phase: TRAIN
  }
  transform_param {
    scale: 0.00390625
  }
  data_param {
    source: "examples/mnist/mnist_train_lmdb"
    batch_size: 100
    backend: LMDB
  }
}
layer {
  name: "reshape"
  type: "Python"
  bottom: "data"
  top: "reshape"
  python_param {
    module: "patch_layer.layer"
    layer: "CSCPatchLayer"
    param_str: "{\'patch_size\': 7}"
  }
}
layer {
  name: "csc"
  type: "CSC"
  bottom: "reshape"
  top: "csc"
  param {
    lr_mult: 1
  }
  param {
    lr_mult: 0
  }
  csc_param {
    lambda1: 0.1
    lambda2: 1
    boundary: PAD_BOTH
    kernel_h: 5
    kernel_w: 5
    num_output: 400
    admm_max_iter: 10
    admm_max_rho: 1
    admm_eta: 1.1
    filler {
      type: "xavier"
    }
    verbose: false
  }
}
layer {
  name: "pool"
  type: "Pooling"
  bottom: "csc"
  top: "pool"
  pooling_param {
    pool: MAX
    global_pooling: true
  }
}
layer {
  name: "reshape_back"
  type: "Python"
  bottom: "pool"
  top: "reshape_back"
  python_param {
    module: "patch_layer.layer"
    layer: "CSCGatherLayer"
    param_str: "{\'num_patches_h\': 4, \'num_patches_w\': 4}"
  }
}
layer {
  name: "bn"
  type: "BatchNorm"
  bottom: "reshape_back"
  top: "bn"
}
layer {
  name: "scale"
  type: "Scale"
  bottom: "bn"
  top: "bn"
  scale_param {
    bias_term: true
  }
}
layer {
  name: "relu"
  type: "ReLU"
  bottom: "bn"
  top: "bn"
}
layer {
  name: "ip"
  type: "InnerProduct"
  bottom: "bn"
  top: "ip"
  param {
    lr_mult: 1
    decay_mult: 1
  }
  param {
    lr_mult: 2
    decay_mult: 0
  }
  inner_product_param {
    num_output: 10
    weight_filler {
      type: "xavier"
    }
    bias_filler {
      type: "constant"
    }
  }
}
layer {
  name: "accuracy"
  type: "Accuracy"
  bottom: "ip"
  bottom: "label"
  top: "accuracy"
}
layer {
  name: "loss"
  type: "SoftmaxWithLoss"
  bottom: "ip"
  bottom: "label"
  top: "loss"
}
I1007 12:25:49.487668 42391 layer_factory.hpp:77] Creating layer mnist
I1007 12:25:49.487884 42391 db_lmdb.cpp:35] Opened lmdb examples/mnist/mnist_train_lmdb
I1007 12:25:49.487926 42391 net.cpp:84] Creating Layer mnist
I1007 12:25:49.487936 42391 net.cpp:380] mnist -> data
I1007 12:25:49.487978 42391 net.cpp:380] mnist -> label
I1007 12:25:49.488898 42391 data_layer.cpp:45] output data size: 100,1,28,28
I1007 12:25:49.492357 42391 net.cpp:122] Setting up mnist
I1007 12:25:49.492382 42391 net.cpp:129] Top shape: 100 1 28 28 (78400)
I1007 12:25:49.492386 42391 net.cpp:129] Top shape: 100 (100)
I1007 12:25:49.492390 42391 net.cpp:137] Memory required for data: 314000
I1007 12:25:49.492400 42391 layer_factory.hpp:77] Creating layer label_mnist_1_split
I1007 12:25:49.492424 42391 net.cpp:84] Creating Layer label_mnist_1_split
I1007 12:25:49.492444 42391 net.cpp:406] label_mnist_1_split <- label
I1007 12:25:49.492461 42391 net.cpp:380] label_mnist_1_split -> label_mnist_1_split_0
I1007 12:25:49.492472 42391 net.cpp:380] label_mnist_1_split -> label_mnist_1_split_1
I1007 12:25:49.492521 42391 net.cpp:122] Setting up label_mnist_1_split
I1007 12:25:49.492527 42391 net.cpp:129] Top shape: 100 (100)
I1007 12:25:49.492552 42391 net.cpp:129] Top shape: 100 (100)
I1007 12:25:49.492555 42391 net.cpp:137] Memory required for data: 314800
I1007 12:25:49.492559 42391 layer_factory.hpp:77] Creating layer reshape
I1007 12:25:49.921428 42391 net.cpp:84] Creating Layer reshape
I1007 12:25:49.921459 42391 net.cpp:406] reshape <- data
I1007 12:25:49.921469 42391 net.cpp:380] reshape -> reshape
I1007 12:25:49.921694 42391 net.cpp:122] Setting up reshape
I1007 12:25:49.921711 42391 net.cpp:129] Top shape: 1600 1 7 7 (78400)
I1007 12:25:49.921716 42391 net.cpp:137] Memory required for data: 628400
I1007 12:25:49.921727 42391 layer_factory.hpp:77] Creating layer csc
I1007 12:25:49.921741 42391 net.cpp:84] Creating Layer csc
I1007 12:25:49.921744 42391 net.cpp:406] csc <- reshape
I1007 12:25:49.921749 42391 net.cpp:380] csc -> csc
I1007 12:25:49.922823 42391 net.cpp:122] Setting up csc
I1007 12:25:49.922837 42391 net.cpp:129] Top shape: 1600 400 7 7 (31360000)
I1007 12:25:49.922840 42391 net.cpp:137] Memory required for data: 126068400
I1007 12:25:49.922857 42391 layer_factory.hpp:77] Creating layer pool
I1007 12:25:49.922873 42391 net.cpp:84] Creating Layer pool
I1007 12:25:49.922875 42391 net.cpp:406] pool <- csc
I1007 12:25:49.922880 42391 net.cpp:380] pool -> pool
I1007 12:25:49.922925 42391 net.cpp:122] Setting up pool
I1007 12:25:49.922933 42391 net.cpp:129] Top shape: 1600 400 1 1 (640000)
I1007 12:25:49.922936 42391 net.cpp:137] Memory required for data: 128628400
I1007 12:25:49.922940 42391 layer_factory.hpp:77] Creating layer reshape_back
I1007 12:25:49.922966 42391 net.cpp:84] Creating Layer reshape_back
I1007 12:25:49.922971 42391 net.cpp:406] reshape_back <- pool
I1007 12:25:49.922976 42391 net.cpp:380] reshape_back -> reshape_back
I1007 12:25:49.924439 42391 net.cpp:122] Setting up reshape_back
I1007 12:25:49.924453 42391 net.cpp:129] Top shape: 100 400 4 4 (640000)
I1007 12:25:49.924456 42391 net.cpp:137] Memory required for data: 131188400
I1007 12:25:49.924459 42391 layer_factory.hpp:77] Creating layer bn
I1007 12:25:49.924468 42391 net.cpp:84] Creating Layer bn
I1007 12:25:49.924473 42391 net.cpp:406] bn <- reshape_back
I1007 12:25:49.924477 42391 net.cpp:380] bn -> bn
I1007 12:25:49.925318 42391 net.cpp:122] Setting up bn
I1007 12:25:49.925330 42391 net.cpp:129] Top shape: 100 400 4 4 (640000)
I1007 12:25:49.925333 42391 net.cpp:137] Memory required for data: 133748400
I1007 12:25:49.925344 42391 layer_factory.hpp:77] Creating layer scale
I1007 12:25:49.925357 42391 net.cpp:84] Creating Layer scale
I1007 12:25:49.925360 42391 net.cpp:406] scale <- bn
I1007 12:25:49.925365 42391 net.cpp:367] scale -> bn (in-place)
I1007 12:25:49.925407 42391 layer_factory.hpp:77] Creating layer scale
I1007 12:25:49.925508 42391 net.cpp:122] Setting up scale
I1007 12:25:49.925515 42391 net.cpp:129] Top shape: 100 400 4 4 (640000)
I1007 12:25:49.925519 42391 net.cpp:137] Memory required for data: 136308400
I1007 12:25:49.925525 42391 layer_factory.hpp:77] Creating layer relu
I1007 12:25:49.925534 42391 net.cpp:84] Creating Layer relu
I1007 12:25:49.925549 42391 net.cpp:406] relu <- bn
I1007 12:25:49.925552 42391 net.cpp:367] relu -> bn (in-place)
I1007 12:25:50.190539 42391 net.cpp:122] Setting up relu
I1007 12:25:50.190580 42391 net.cpp:129] Top shape: 100 400 4 4 (640000)
I1007 12:25:50.190584 42391 net.cpp:137] Memory required for data: 138868400
I1007 12:25:50.190592 42391 layer_factory.hpp:77] Creating layer ip
I1007 12:25:50.190609 42391 net.cpp:84] Creating Layer ip
I1007 12:25:50.190618 42391 net.cpp:406] ip <- bn
I1007 12:25:50.190629 42391 net.cpp:380] ip -> ip
I1007 12:25:50.191802 42391 net.cpp:122] Setting up ip
I1007 12:25:50.191813 42391 net.cpp:129] Top shape: 100 10 (1000)
I1007 12:25:50.191817 42391 net.cpp:137] Memory required for data: 138872400
I1007 12:25:50.191829 42391 layer_factory.hpp:77] Creating layer ip_ip_0_split
I1007 12:25:50.191838 42391 net.cpp:84] Creating Layer ip_ip_0_split
I1007 12:25:50.191840 42391 net.cpp:406] ip_ip_0_split <- ip
I1007 12:25:50.191845 42391 net.cpp:380] ip_ip_0_split -> ip_ip_0_split_0
I1007 12:25:50.191877 42391 net.cpp:380] ip_ip_0_split -> ip_ip_0_split_1
I1007 12:25:50.191910 42391 net.cpp:122] Setting up ip_ip_0_split
I1007 12:25:50.191915 42391 net.cpp:129] Top shape: 100 10 (1000)
I1007 12:25:50.191918 42391 net.cpp:129] Top shape: 100 10 (1000)
I1007 12:25:50.191922 42391 net.cpp:137] Memory required for data: 138880400
I1007 12:25:50.191926 42391 layer_factory.hpp:77] Creating layer accuracy
I1007 12:25:50.191933 42391 net.cpp:84] Creating Layer accuracy
I1007 12:25:50.191936 42391 net.cpp:406] accuracy <- ip_ip_0_split_0
I1007 12:25:50.191941 42391 net.cpp:406] accuracy <- label_mnist_1_split_0
I1007 12:25:50.191944 42391 net.cpp:380] accuracy -> accuracy
…
