…
I1010 11:10:12.931504 180549 solver.cpp:87] Creating training net from net file: examples/mnist_csc/small_context_nobn.prototxt
I1010 11:10:12.931823 180549 net.cpp:294] The NetState phase (0) differed from the phase (1) specified by a rule in layer mnist
I1010 11:10:12.931913 180549 net.cpp:51] Initializing net from parameters: 
name: "mnist_csc_small_context_nobn"
state {
  phase: TRAIN
  level: 0
  stage: ""
}
layer {
  name: "mnist"
  type: "Data"
  top: "data"
  top: "label"
  include {
    phase: TRAIN
  }
  transform_param {
    scale: 0.00390625
  }
  data_param {
    source: "examples/mnist/mnist_train_lmdb"
    batch_size: 100
    backend: LMDB
  }
}
layer {
  name: "reshape"
  type: "Python"
  bottom: "data"
  top: "reshape"
  propagate_down: false
  python_param {
    module: "patch_layer.layer"
    layer: "CSCPatchLayer"
    param_str: "{\'patch_size\': 7}"
  }
}
layer {
  name: "csc"
  type: "CSC"
  bottom: "reshape"
  top: "csc"
  param {
    lr_mult: 1
  }
  param {
    lr_mult: 0
  }
  csc_param {
    lambda1: 0.1
    lambda2: 1
    boundary: PAD_BOTH
    kernel_h: 5
    kernel_w: 5
    num_output: 100
    admm_max_iter: 1000
    admm_max_rho: 1
    admm_eta: 1.1
    filler {
      type: "xavier"
    }
    verbose: false
  }
}
layer {
  name: "pool"
  type: "Pooling"
  bottom: "csc"
  top: "pool"
  pooling_param {
    pool: MAX
    global_pooling: true
  }
}
layer {
  name: "reshape_back"
  type: "Python"
  bottom: "pool"
  top: "reshape_back"
  propagate_down: false
  python_param {
    module: "patch_layer.layer"
    layer: "CSCGatherLayer"
    param_str: "{\'num_patches_h\': 4, \'num_patches_w\': 4}"
  }
}
layer {
  name: "ip"
  type: "InnerProduct"
  bottom: "reshape_back"
  top: "ip"
  param {
    lr_mult: 1
    decay_mult: 1
  }
  param {
    lr_mult: 2
    decay_mult: 0
  }
  inner_product_param {
    num_output: 10
    weight_filler {
      type: "xavier"
    }
    bias_filler {
      type: "constant"
    }
  }
}
layer {
  name: "accuracy"
  type: "Accuracy"
  bottom: "ip"
  bottom: "label"
  top: "accuracy"
}
layer {
  name: "loss"
  type: "SoftmaxWithLoss"
  bottom: "ip"
  bottom: "label"
  top: "loss"
}
I1010 11:10:12.931998 180549 layer_factory.hpp:77] Creating layer mnist
I1010 11:10:12.932255 180549 db_lmdb.cpp:35] Opened lmdb examples/mnist/mnist_train_lmdb
I1010 11:10:12.932291 180549 net.cpp:84] Creating Layer mnist
I1010 11:10:12.932301 180549 net.cpp:380] mnist -> data
I1010 11:10:12.932329 180549 net.cpp:380] mnist -> label
I1010 11:10:12.933148 180549 data_layer.cpp:45] output data size: 100,1,28,28
I1010 11:10:12.936292 180549 net.cpp:122] Setting up mnist
I1010 11:10:12.936329 180549 net.cpp:129] Top shape: 100 1 28 28 (78400)
I1010 11:10:12.936336 180549 net.cpp:129] Top shape: 100 (100)
I1010 11:10:12.936339 180549 net.cpp:137] Memory required for data: 314000
I1010 11:10:12.936347 180549 layer_factory.hpp:77] Creating layer label_mnist_1_split
I1010 11:10:12.936380 180549 net.cpp:84] Creating Layer label_mnist_1_split
I1010 11:10:12.936388 180549 net.cpp:406] label_mnist_1_split <- label
I1010 11:10:12.936400 180549 net.cpp:380] label_mnist_1_split -> label_mnist_1_split_0
I1010 11:10:12.936409 180549 net.cpp:380] label_mnist_1_split -> label_mnist_1_split_1
I1010 11:10:12.936578 180549 net.cpp:122] Setting up label_mnist_1_split
I1010 11:10:12.936585 180549 net.cpp:129] Top shape: 100 (100)
I1010 11:10:12.936592 180549 net.cpp:129] Top shape: 100 (100)
I1010 11:10:12.936595 180549 net.cpp:137] Memory required for data: 314800
I1010 11:10:12.936599 180549 layer_factory.hpp:77] Creating layer reshape
I1010 11:10:13.390705 180549 net.cpp:84] Creating Layer reshape
I1010 11:10:13.390740 180549 net.cpp:406] reshape <- data
I1010 11:10:13.390753 180549 net.cpp:380] reshape -> reshape
I1010 11:10:13.391589 180549 net.cpp:122] Setting up reshape
I1010 11:10:13.391623 180549 net.cpp:129] Top shape: 1600 1 7 7 (78400)
I1010 11:10:13.391628 180549 net.cpp:137] Memory required for data: 628400
I1010 11:10:13.391633 180549 layer_factory.hpp:77] Creating layer csc
I1010 11:10:13.391650 180549 net.cpp:84] Creating Layer csc
I1010 11:10:13.391655 180549 net.cpp:406] csc <- reshape
I1010 11:10:13.391661 180549 net.cpp:380] csc -> csc
I1010 11:10:13.393666 180549 net.cpp:122] Setting up csc
I1010 11:10:13.393681 180549 net.cpp:129] Top shape: 1600 100 7 7 (7840000)
I1010 11:10:13.393702 180549 net.cpp:137] Memory required for data: 31988400
I1010 11:10:13.393736 180549 layer_factory.hpp:77] Creating layer pool
I1010 11:10:13.393771 180549 net.cpp:84] Creating Layer pool
I1010 11:10:13.393775 180549 net.cpp:406] pool <- csc
I1010 11:10:13.393780 180549 net.cpp:380] pool -> pool
I1010 11:10:13.393824 180549 net.cpp:122] Setting up pool
I1010 11:10:13.393831 180549 net.cpp:129] Top shape: 1600 100 1 1 (160000)
I1010 11:10:13.393851 180549 net.cpp:137] Memory required for data: 32628400
I1010 11:10:13.393854 180549 layer_factory.hpp:77] Creating layer reshape_back
I1010 11:10:13.393887 180549 net.cpp:84] Creating Layer reshape_back
I1010 11:10:13.393893 180549 net.cpp:406] reshape_back <- pool
I1010 11:10:13.393898 180549 net.cpp:380] reshape_back -> reshape_back
I1010 11:10:13.394767 180549 net.cpp:122] Setting up reshape_back
I1010 11:10:13.394779 180549 net.cpp:129] Top shape: 100 100 4 4 (160000)
I1010 11:10:13.394783 180549 net.cpp:137] Memory required for data: 33268400
I1010 11:10:13.394785 180549 layer_factory.hpp:77] Creating layer ip
I1010 11:10:13.394798 180549 net.cpp:84] Creating Layer ip
I1010 11:10:13.394801 180549 net.cpp:406] ip <- reshape_back
I1010 11:10:13.394807 180549 net.cpp:380] ip -> ip
I1010 11:10:13.395745 180549 net.cpp:122] Setting up ip
I1010 11:10:13.395757 180549 net.cpp:129] Top shape: 100 10 (1000)
I1010 11:10:13.395778 180549 net.cpp:137] Memory required for data: 33272400
I1010 11:10:13.395787 180549 layer_factory.hpp:77] Creating layer ip_ip_0_split
I1010 11:10:13.395793 180549 net.cpp:84] Creating Layer ip_ip_0_split
I1010 11:10:13.395797 180549 net.cpp:406] ip_ip_0_split <- ip
I1010 11:10:13.395802 180549 net.cpp:380] ip_ip_0_split -> ip_ip_0_split_0
I1010 11:10:13.395809 180549 net.cpp:380] ip_ip_0_split -> ip_ip_0_split_1
I1010 11:10:13.395894 180549 net.cpp:122] Setting up ip_ip_0_split
I1010 11:10:13.395900 180549 net.cpp:129] Top shape: 100 10 (1000)
I1010 11:10:13.395906 180549 net.cpp:129] Top shape: 100 10 (1000)
I1010 11:10:13.395910 180549 net.cpp:137] Memory required for data: 33280400
I1010 11:10:13.395912 180549 layer_factory.hpp:77] Creating layer accuracy
I1010 11:10:13.395926 180549 net.cpp:84] Creating Layer accuracy
I1010 11:10:13.395931 180549 net.cpp:406] accuracy <- ip_ip_0_split_0
I1010 11:10:13.395936 180549 net.cpp:406] accuracy <- label_mnist_1_split_0
I1010 11:10:13.395939 180549 net.cpp:380] accuracy -> accuracy
…
