…
I1009 13:48:23.575441 125864 solver.cpp:87] Creating training net from net file: examples/mnist_csc/small_context_2.prototxt
I1009 13:48:23.575795 125864 net.cpp:294] The NetState phase (0) differed from the phase (1) specified by a rule in layer mnist
I1009 13:48:23.575889 125864 net.cpp:51] Initializing net from parameters: 
name: "mnist_csc_small_context_2"
state {
  phase: TRAIN
  level: 0
  stage: ""
}
layer {
  name: "mnist"
  type: "Data"
  top: "data"
  top: "label"
  include {
    phase: TRAIN
  }
  transform_param {
    scale: 0.00390625
  }
  data_param {
    source: "examples/mnist/mnist_train_lmdb"
    batch_size: 100
    backend: LMDB
  }
}
layer {
  name: "reshape"
  type: "Python"
  bottom: "data"
  top: "reshape"
  propagate_down: false
  python_param {
    module: "patch_layer.layer"
    layer: "CSCPatchLayer"
    param_str: "{\'patch_size\': 7}"
  }
}
layer {
  name: "csc"
  type: "CSC"
  bottom: "reshape"
  top: "csc"
  param {
    lr_mult: 1
  }
  param {
    lr_mult: 0
  }
  csc_param {
    lambda1: 0.1
    lambda2: 1
    boundary: PAD_BOTH
    kernel_h: 5
    kernel_w: 5
    num_output: 100
    admm_max_iter: 1000
    admm_max_rho: 1
    admm_eta: 1.1
    filler {
      type: "xavier"
    }
    verbose: false
  }
}
layer {
  name: "pool"
  type: "Pooling"
  bottom: "csc"
  top: "pool"
  pooling_param {
    pool: MAX
    global_pooling: true
  }
}
layer {
  name: "reshape_back"
  type: "Python"
  bottom: "pool"
  top: "reshape_back"
  python_param {
    module: "patch_layer.layer"
    layer: "CSCGatherLayer"
    param_str: "{\'num_patches_h\': 4, \'num_patches_w\': 4}"
  }
}
layer {
  name: "bn"
  type: "BatchNorm"
  bottom: "reshape_back"
  top: "bn"
}
layer {
  name: "scale"
  type: "Scale"
  bottom: "bn"
  top: "bn"
  scale_param {
    bias_term: true
  }
}
layer {
  name: "relu"
  type: "ReLU"
  bottom: "bn"
  top: "bn"
}
layer {
  name: "ip"
  type: "InnerProduct"
  bottom: "bn"
  top: "ip"
  param {
    lr_mult: 1
    decay_mult: 1
  }
  param {
    lr_mult: 2
    decay_mult: 0
  }
  inner_product_param {
    num_output: 10
    weight_filler {
      type: "xavier"
    }
    bias_filler {
      type: "constant"
    }
  }
}
layer {
  name: "accuracy"
  type: "Accuracy"
  bottom: "ip"
  bottom: "label"
  top: "accuracy"
}
layer {
  name: "loss"
  type: "SoftmaxWithLoss"
  bottom: "ip"
  bottom: "label"
  top: "loss"
}
I1009 13:48:23.575981 125864 layer_factory.hpp:77] Creating layer mnist
I1009 13:48:23.576226 125864 db_lmdb.cpp:35] Opened lmdb examples/mnist/mnist_train_lmdb
I1009 13:48:23.576259 125864 net.cpp:84] Creating Layer mnist
I1009 13:48:23.576269 125864 net.cpp:380] mnist -> data
I1009 13:48:23.576297 125864 net.cpp:380] mnist -> label
I1009 13:48:23.576954 125864 data_layer.cpp:45] output data size: 100,1,28,28
I1009 13:48:23.580044 125864 net.cpp:122] Setting up mnist
I1009 13:48:23.580062 125864 net.cpp:129] Top shape: 100 1 28 28 (78400)
I1009 13:48:23.580068 125864 net.cpp:129] Top shape: 100 (100)
I1009 13:48:23.580071 125864 net.cpp:137] Memory required for data: 314000
I1009 13:48:23.580077 125864 layer_factory.hpp:77] Creating layer label_mnist_1_split
I1009 13:48:23.580091 125864 net.cpp:84] Creating Layer label_mnist_1_split
I1009 13:48:23.580096 125864 net.cpp:406] label_mnist_1_split <- label
I1009 13:48:23.580112 125864 net.cpp:380] label_mnist_1_split -> label_mnist_1_split_0
I1009 13:48:23.580121 125864 net.cpp:380] label_mnist_1_split -> label_mnist_1_split_1
I1009 13:48:23.580184 125864 net.cpp:122] Setting up label_mnist_1_split
I1009 13:48:23.580193 125864 net.cpp:129] Top shape: 100 (100)
I1009 13:48:23.580215 125864 net.cpp:129] Top shape: 100 (100)
I1009 13:48:23.580219 125864 net.cpp:137] Memory required for data: 314800
I1009 13:48:23.580224 125864 layer_factory.hpp:77] Creating layer reshape
I1009 13:48:23.996923 125864 net.cpp:84] Creating Layer reshape
I1009 13:48:23.996953 125864 net.cpp:406] reshape <- data
I1009 13:48:23.996963 125864 net.cpp:380] reshape -> reshape
I1009 13:48:23.997176 125864 net.cpp:122] Setting up reshape
I1009 13:48:23.997191 125864 net.cpp:129] Top shape: 1600 1 7 7 (78400)
I1009 13:48:23.997196 125864 net.cpp:137] Memory required for data: 628400
I1009 13:48:23.997201 125864 layer_factory.hpp:77] Creating layer csc
I1009 13:48:23.997231 125864 net.cpp:84] Creating Layer csc
I1009 13:48:23.997233 125864 net.cpp:406] csc <- reshape
I1009 13:48:23.997239 125864 net.cpp:380] csc -> csc
I1009 13:48:23.998284 125864 net.cpp:122] Setting up csc
I1009 13:48:23.998297 125864 net.cpp:129] Top shape: 1600 100 7 7 (7840000)
I1009 13:48:23.998301 125864 net.cpp:137] Memory required for data: 31988400
I1009 13:48:23.998317 125864 layer_factory.hpp:77] Creating layer pool
I1009 13:48:23.998328 125864 net.cpp:84] Creating Layer pool
I1009 13:48:23.998332 125864 net.cpp:406] pool <- csc
I1009 13:48:23.998337 125864 net.cpp:380] pool -> pool
I1009 13:48:23.998396 125864 net.cpp:122] Setting up pool
I1009 13:48:23.998404 125864 net.cpp:129] Top shape: 1600 100 1 1 (160000)
I1009 13:48:23.998407 125864 net.cpp:137] Memory required for data: 32628400
I1009 13:48:23.998410 125864 layer_factory.hpp:77] Creating layer reshape_back
I1009 13:48:23.998443 125864 net.cpp:84] Creating Layer reshape_back
I1009 13:48:23.998450 125864 net.cpp:406] reshape_back <- pool
I1009 13:48:23.998455 125864 net.cpp:380] reshape_back -> reshape_back
I1009 13:48:23.999290 125864 net.cpp:122] Setting up reshape_back
I1009 13:48:23.999303 125864 net.cpp:129] Top shape: 100 100 4 4 (160000)
I1009 13:48:23.999306 125864 net.cpp:137] Memory required for data: 33268400
I1009 13:48:23.999310 125864 layer_factory.hpp:77] Creating layer bn
I1009 13:48:23.999320 125864 net.cpp:84] Creating Layer bn
I1009 13:48:23.999322 125864 net.cpp:406] bn <- reshape_back
I1009 13:48:23.999327 125864 net.cpp:380] bn -> bn
I1009 13:48:23.999502 125864 net.cpp:122] Setting up bn
I1009 13:48:23.999511 125864 net.cpp:129] Top shape: 100 100 4 4 (160000)
I1009 13:48:23.999514 125864 net.cpp:137] Memory required for data: 33908400
I1009 13:48:23.999524 125864 layer_factory.hpp:77] Creating layer scale
I1009 13:48:23.999534 125864 net.cpp:84] Creating Layer scale
I1009 13:48:23.999539 125864 net.cpp:406] scale <- bn
I1009 13:48:23.999543 125864 net.cpp:367] scale -> bn (in-place)
I1009 13:48:23.999599 125864 layer_factory.hpp:77] Creating layer scale
I1009 13:48:23.999689 125864 net.cpp:122] Setting up scale
I1009 13:48:23.999696 125864 net.cpp:129] Top shape: 100 100 4 4 (160000)
I1009 13:48:23.999701 125864 net.cpp:137] Memory required for data: 34548400
I1009 13:48:23.999706 125864 layer_factory.hpp:77] Creating layer relu
I1009 13:48:23.999714 125864 net.cpp:84] Creating Layer relu
I1009 13:48:23.999719 125864 net.cpp:406] relu <- bn
I1009 13:48:23.999723 125864 net.cpp:367] relu -> bn (in-place)
I1009 13:48:24.263679 125864 net.cpp:122] Setting up relu
I1009 13:48:24.263732 125864 net.cpp:129] Top shape: 100 100 4 4 (160000)
I1009 13:48:24.263736 125864 net.cpp:137] Memory required for data: 35188400
I1009 13:48:24.263743 125864 layer_factory.hpp:77] Creating layer ip
I1009 13:48:24.263759 125864 net.cpp:84] Creating Layer ip
I1009 13:48:24.263764 125864 net.cpp:406] ip <- bn
I1009 13:48:24.263773 125864 net.cpp:380] ip -> ip
I1009 13:48:24.264717 125864 net.cpp:122] Setting up ip
I1009 13:48:24.264729 125864 net.cpp:129] Top shape: 100 10 (1000)
I1009 13:48:24.264750 125864 net.cpp:137] Memory required for data: 35192400
I1009 13:48:24.264762 125864 layer_factory.hpp:77] Creating layer ip_ip_0_split
I1009 13:48:24.264770 125864 net.cpp:84] Creating Layer ip_ip_0_split
I1009 13:48:24.264772 125864 net.cpp:406] ip_ip_0_split <- ip
I1009 13:48:24.264799 125864 net.cpp:380] ip_ip_0_split -> ip_ip_0_split_0
I1009 13:48:24.264807 125864 net.cpp:380] ip_ip_0_split -> ip_ip_0_split_1
I1009 13:48:24.264839 125864 net.cpp:122] Setting up ip_ip_0_split
I1009 13:48:24.264847 125864 net.cpp:129] Top shape: 100 10 (1000)
I1009 13:48:24.264850 125864 net.cpp:129] Top shape: 100 10 (1000)
I1009 13:48:24.264853 125864 net.cpp:137] Memory required for data: 35200400
I1009 13:48:24.264856 125864 layer_factory.hpp:77] Creating layer accuracy
I1009 13:48:24.264865 125864 net.cpp:84] Creating Layer accuracy
I1009 13:48:24.264870 125864 net.cpp:406] accuracy <- ip_ip_0_split_0
I1009 13:48:24.264874 125864 net.cpp:406] accuracy <- label_mnist_1_split_0
I1009 13:48:24.264878 125864 net.cpp:380] accuracy -> accuracy
…
