…
I1005 13:04:00.565384 76531 solver.cpp:87] Creating training net from net file: examples/mnist_csc/small_context.prototxt
I1005 13:04:00.565707 76531 net.cpp:294] The NetState phase (0) differed from the phase (1) specified by a rule in layer mnist
I1005 13:04:00.565790 76531 net.cpp:51] Initializing net from parameters: 
name: "mnist_csc_small_context"
state {
  phase: TRAIN
  level: 0
  stage: ""
}
layer {
  name: "mnist"
  type: "Data"
  top: "data"
  top: "label"
  include {
    phase: TRAIN
  }
  transform_param {
    scale: 0.00390625
  }
  data_param {
    source: "examples/mnist/mnist_train_lmdb"
    batch_size: 100
    backend: LMDB
  }
}
layer {
  name: "reshape"
  type: "Python"
  bottom: "data"
  top: "reshape"
  python_param {
    module: "patch_layer.layer"
    layer: "CSCPatchLayer"
    param_str: "{\'patch_size\': 14}"
  }
}
layer {
  name: "csc"
  type: "CSC"
  bottom: "reshape"
  top: "csc"
  param {
    lr_mult: 1
  }
  param {
    lr_mult: 0
  }
  csc_param {
    lambda1: 0.1
    lambda2: 1
    boundary: PAD_BOTH
    kernel_h: 5
    kernel_w: 5
    num_output: 100
    admm_max_iter: 1000
    admm_max_rho: 1
    admm_eta: 1.1
    filler {
      type: "xavier"
    }
    verbose: false
  }
}
layer {
  name: "pool"
  type: "Pooling"
  bottom: "csc"
  top: "pool"
  pooling_param {
    pool: MAX
    global_pooling: true
  }
}
layer {
  name: "reshape_back"
  type: "Python"
  bottom: "pool"
  top: "reshape_back"
  python_param {
    module: "patch_layer.layer"
    layer: "CSCGatherLayer"
    param_str: "{\'num_patches_h\': 2, \'num_patches_w\': 2}"
  }
}
layer {
  name: "bn"
  type: "BatchNorm"
  bottom: "reshape_back"
  top: "bn"
}
layer {
  name: "scale"
  type: "Scale"
  bottom: "bn"
  top: "bn"
  scale_param {
    bias_term: true
  }
}
layer {
  name: "relu"
  type: "ReLU"
  bottom: "bn"
  top: "bn"
}
layer {
  name: "ip"
  type: "InnerProduct"
  bottom: "bn"
  top: "ip"
  param {
    lr_mult: 1
    decay_mult: 1
  }
  param {
    lr_mult: 2
    decay_mult: 0
  }
  inner_product_param {
    num_output: 10
    weight_filler {
      type: "xavier"
    }
    bias_filler {
      type: "constant"
    }
  }
}
layer {
  name: "accuracy"
  type: "Accuracy"
  bottom: "ip"
  bottom: "label"
  top: "accuracy"
}
layer {
  name: "loss"
  type: "SoftmaxWithLoss"
  bottom: "ip"
  bottom: "label"
  top: "loss"
}
I1005 13:04:00.565901 76531 layer_factory.hpp:77] Creating layer mnist
I1005 13:04:00.566128 76531 db_lmdb.cpp:35] Opened lmdb examples/mnist/mnist_train_lmdb
I1005 13:04:00.566171 76531 net.cpp:84] Creating Layer mnist
I1005 13:04:00.566200 76531 net.cpp:380] mnist -> data
I1005 13:04:00.566234 76531 net.cpp:380] mnist -> label
I1005 13:04:00.567024 76531 data_layer.cpp:45] output data size: 100,1,28,28
I1005 13:04:00.570062 76531 net.cpp:122] Setting up mnist
I1005 13:04:00.570080 76531 net.cpp:129] Top shape: 100 1 28 28 (78400)
I1005 13:04:00.570086 76531 net.cpp:129] Top shape: 100 (100)
I1005 13:04:00.570087 76531 net.cpp:137] Memory required for data: 314000
I1005 13:04:00.570093 76531 layer_factory.hpp:77] Creating layer label_mnist_1_split
I1005 13:04:00.570107 76531 net.cpp:84] Creating Layer label_mnist_1_split
I1005 13:04:00.570114 76531 net.cpp:406] label_mnist_1_split <- label
I1005 13:04:00.570163 76531 net.cpp:380] label_mnist_1_split -> label_mnist_1_split_0
I1005 13:04:00.570169 76531 net.cpp:380] label_mnist_1_split -> label_mnist_1_split_1
I1005 13:04:00.570237 76531 net.cpp:122] Setting up label_mnist_1_split
I1005 13:04:00.570245 76531 net.cpp:129] Top shape: 100 (100)
I1005 13:04:00.570266 76531 net.cpp:129] Top shape: 100 (100)
I1005 13:04:00.570271 76531 net.cpp:137] Memory required for data: 314800
I1005 13:04:00.570272 76531 layer_factory.hpp:77] Creating layer reshape
I1005 13:04:00.961336 76531 net.cpp:84] Creating Layer reshape
I1005 13:04:00.961364 76531 net.cpp:406] reshape <- data
I1005 13:04:00.961375 76531 net.cpp:380] reshape -> reshape
I1005 13:04:00.961593 76531 net.cpp:122] Setting up reshape
I1005 13:04:00.961609 76531 net.cpp:129] Top shape: 400 1 14 14 (78400)
I1005 13:04:00.961614 76531 net.cpp:137] Memory required for data: 628400
I1005 13:04:00.961623 76531 layer_factory.hpp:77] Creating layer csc
I1005 13:04:00.961637 76531 net.cpp:84] Creating Layer csc
I1005 13:04:00.961640 76531 net.cpp:406] csc <- reshape
I1005 13:04:00.961647 76531 net.cpp:380] csc -> csc
I1005 13:04:00.962590 76531 net.cpp:122] Setting up csc
I1005 13:04:00.962604 76531 net.cpp:129] Top shape: 400 100 14 14 (7840000)
I1005 13:04:00.962623 76531 net.cpp:137] Memory required for data: 31988400
I1005 13:04:00.962641 76531 layer_factory.hpp:77] Creating layer pool
I1005 13:04:00.962653 76531 net.cpp:84] Creating Layer pool
I1005 13:04:00.962657 76531 net.cpp:406] pool <- csc
I1005 13:04:00.962662 76531 net.cpp:380] pool -> pool
I1005 13:04:00.962719 76531 net.cpp:122] Setting up pool
I1005 13:04:00.962725 76531 net.cpp:129] Top shape: 400 100 1 1 (40000)
I1005 13:04:00.962729 76531 net.cpp:137] Memory required for data: 32148400
I1005 13:04:00.962733 76531 layer_factory.hpp:77] Creating layer reshape_back
I1005 13:04:00.962759 76531 net.cpp:84] Creating Layer reshape_back
I1005 13:04:00.962780 76531 net.cpp:406] reshape_back <- pool
I1005 13:04:00.962785 76531 net.cpp:380] reshape_back -> reshape_back
I1005 13:04:00.963548 76531 net.cpp:122] Setting up reshape_back
I1005 13:04:00.963562 76531 net.cpp:129] Top shape: 100 100 2 2 (40000)
I1005 13:04:00.963565 76531 net.cpp:137] Memory required for data: 32308400
I1005 13:04:00.963568 76531 layer_factory.hpp:77] Creating layer bn
I1005 13:04:00.963577 76531 net.cpp:84] Creating Layer bn
I1005 13:04:00.963579 76531 net.cpp:406] bn <- reshape_back
I1005 13:04:00.963584 76531 net.cpp:380] bn -> bn
I1005 13:04:00.963727 76531 net.cpp:122] Setting up bn
I1005 13:04:00.963733 76531 net.cpp:129] Top shape: 100 100 2 2 (40000)
I1005 13:04:00.963737 76531 net.cpp:137] Memory required for data: 32468400
I1005 13:04:00.963745 76531 layer_factory.hpp:77] Creating layer scale
I1005 13:04:00.963754 76531 net.cpp:84] Creating Layer scale
I1005 13:04:00.963758 76531 net.cpp:406] scale <- bn
I1005 13:04:00.963763 76531 net.cpp:367] scale -> bn (in-place)
I1005 13:04:00.963814 76531 layer_factory.hpp:77] Creating layer scale
I1005 13:04:00.963896 76531 net.cpp:122] Setting up scale
I1005 13:04:00.963903 76531 net.cpp:129] Top shape: 100 100 2 2 (40000)
I1005 13:04:00.963906 76531 net.cpp:137] Memory required for data: 32628400
I1005 13:04:00.963912 76531 layer_factory.hpp:77] Creating layer relu
I1005 13:04:00.963920 76531 net.cpp:84] Creating Layer relu
I1005 13:04:00.963924 76531 net.cpp:406] relu <- bn
I1005 13:04:00.963928 76531 net.cpp:367] relu -> bn (in-place)
I1005 13:04:01.207274 76531 net.cpp:122] Setting up relu
I1005 13:04:01.207307 76531 net.cpp:129] Top shape: 100 100 2 2 (40000)
I1005 13:04:01.207312 76531 net.cpp:137] Memory required for data: 32788400
I1005 13:04:01.207319 76531 layer_factory.hpp:77] Creating layer ip
I1005 13:04:01.207334 76531 net.cpp:84] Creating Layer ip
I1005 13:04:01.207339 76531 net.cpp:406] ip <- bn
I1005 13:04:01.207345 76531 net.cpp:380] ip -> ip
I1005 13:04:01.207485 76531 net.cpp:122] Setting up ip
I1005 13:04:01.207492 76531 net.cpp:129] Top shape: 100 10 (1000)
I1005 13:04:01.207495 76531 net.cpp:137] Memory required for data: 32792400
I1005 13:04:01.207506 76531 layer_factory.hpp:77] Creating layer ip_ip_0_split
I1005 13:04:01.207514 76531 net.cpp:84] Creating Layer ip_ip_0_split
I1005 13:04:01.207518 76531 net.cpp:406] ip_ip_0_split <- ip
I1005 13:04:01.207522 76531 net.cpp:380] ip_ip_0_split -> ip_ip_0_split_0
I1005 13:04:01.207543 76531 net.cpp:380] ip_ip_0_split -> ip_ip_0_split_1
I1005 13:04:01.207597 76531 net.cpp:122] Setting up ip_ip_0_split
I1005 13:04:01.207603 76531 net.cpp:129] Top shape: 100 10 (1000)
I1005 13:04:01.207607 76531 net.cpp:129] Top shape: 100 10 (1000)
I1005 13:04:01.207610 76531 net.cpp:137] Memory required for data: 32800400
I1005 13:04:01.207613 76531 layer_factory.hpp:77] Creating layer accuracy
I1005 13:04:01.207620 76531 net.cpp:84] Creating Layer accuracy
I1005 13:04:01.207624 76531 net.cpp:406] accuracy <- ip_ip_0_split_0
I1005 13:04:01.207628 76531 net.cpp:406] accuracy <- label_mnist_1_split_0
I1005 13:04:01.207633 76531 net.cpp:380] accuracy -> accuracy
…
