…
I1009 19:38:31.290966 148967 solver.cpp:87] Creating training net from net file: examples/mnist_csc/small_context_2.prototxt
I1009 19:38:31.291378 148967 net.cpp:294] The NetState phase (0) differed from the phase (1) specified by a rule in layer mnist
I1009 19:38:31.291497 148967 net.cpp:51] Initializing net from parameters: 
name: "mnist_csc_small_context_2"
state {
  phase: TRAIN
  level: 0
  stage: ""
}
layer {
  name: "mnist"
  type: "Data"
  top: "data"
  top: "label"
  include {
    phase: TRAIN
  }
  transform_param {
    scale: 0.00390625
  }
  data_param {
    source: "examples/mnist/mnist_train_lmdb"
    batch_size: 100
    backend: LMDB
  }
}
layer {
  name: "reshape"
  type: "Python"
  bottom: "data"
  top: "reshape"
  propagate_down: false
  python_param {
    module: "patch_layer.layer"
    layer: "CSCPatchLayer"
    param_str: "{\'patch_size\': 7}"
  }
}
layer {
  name: "csc"
  type: "CSC"
  bottom: "reshape"
  top: "csc"
  param {
    lr_mult: 1
  }
  param {
    lr_mult: 0
  }
  csc_param {
    lambda1: 0.1
    lambda2: 1
    boundary: PAD_BOTH
    kernel_h: 5
    kernel_w: 5
    num_output: 100
    admm_max_iter: 1000
    admm_max_rho: 1
    admm_eta: 1.1
    filler {
      type: "xavier"
    }
    verbose: false
  }
}
layer {
  name: "pool"
  type: "Pooling"
  bottom: "csc"
  top: "pool"
  pooling_param {
    pool: MAX
    global_pooling: true
  }
}
layer {
  name: "reshape_back"
  type: "Python"
  bottom: "pool"
  top: "reshape_back"
  python_param {
    module: "patch_layer.layer"
    layer: "CSCGatherLayer"
    param_str: "{\'num_patches_h\': 4, \'num_patches_w\': 4}"
  }
}
layer {
  name: "bn"
  type: "BatchNorm"
  bottom: "reshape_back"
  top: "bn"
}
layer {
  name: "scale"
  type: "Scale"
  bottom: "bn"
  top: "bn"
  scale_param {
    bias_term: true
  }
}
layer {
  name: "relu"
  type: "ReLU"
  bottom: "bn"
  top: "bn"
}
layer {
  name: "ip"
  type: "InnerProduct"
  bottom: "bn"
  top: "ip"
  param {
    lr_mult: 1
    decay_mult: 1
  }
  param {
    lr_mult: 2
    decay_mult: 0
  }
  inner_product_param {
    num_output: 10
    weight_filler {
      type: "xavier"
    }
    bias_filler {
      type: "constant"
    }
  }
}
layer {
  name: "accuracy"
  type: "Accuracy"
  bottom: "ip"
  bottom: "label"
  top: "accuracy"
}
layer {
  name: "loss"
  type: "SoftmaxWithLoss"
  bottom: "ip"
  bottom: "label"
  top: "loss"
}
I1009 19:38:31.291599 148967 layer_factory.hpp:77] Creating layer mnist
I1009 19:38:31.291810 148967 db_lmdb.cpp:35] Opened lmdb examples/mnist/mnist_train_lmdb
I1009 19:38:31.291851 148967 net.cpp:84] Creating Layer mnist
I1009 19:38:31.291863 148967 net.cpp:380] mnist -> data
I1009 19:38:31.291910 148967 net.cpp:380] mnist -> label
I1009 19:38:31.292934 148967 data_layer.cpp:45] output data size: 100,1,28,28
I1009 19:38:31.296900 148967 net.cpp:122] Setting up mnist
I1009 19:38:31.296960 148967 net.cpp:129] Top shape: 100 1 28 28 (78400)
I1009 19:38:31.296967 148967 net.cpp:129] Top shape: 100 (100)
I1009 19:38:31.296969 148967 net.cpp:137] Memory required for data: 314000
I1009 19:38:31.296977 148967 layer_factory.hpp:77] Creating layer label_mnist_1_split
I1009 19:38:31.296988 148967 net.cpp:84] Creating Layer label_mnist_1_split
I1009 19:38:31.296993 148967 net.cpp:406] label_mnist_1_split <- label
I1009 19:38:31.297006 148967 net.cpp:380] label_mnist_1_split -> label_mnist_1_split_0
I1009 19:38:31.297014 148967 net.cpp:380] label_mnist_1_split -> label_mnist_1_split_1
I1009 19:38:31.297055 148967 net.cpp:122] Setting up label_mnist_1_split
I1009 19:38:31.297081 148967 net.cpp:129] Top shape: 100 (100)
I1009 19:38:31.297086 148967 net.cpp:129] Top shape: 100 (100)
I1009 19:38:31.297088 148967 net.cpp:137] Memory required for data: 314800
I1009 19:38:31.297091 148967 layer_factory.hpp:77] Creating layer reshape
I1009 19:38:31.701303 148967 net.cpp:84] Creating Layer reshape
I1009 19:38:31.701333 148967 net.cpp:406] reshape <- data
I1009 19:38:31.701360 148967 net.cpp:380] reshape -> reshape
I1009 19:38:31.701582 148967 net.cpp:122] Setting up reshape
I1009 19:38:31.701598 148967 net.cpp:129] Top shape: 1600 1 7 7 (78400)
I1009 19:38:31.701603 148967 net.cpp:137] Memory required for data: 628400
I1009 19:38:31.701608 148967 layer_factory.hpp:77] Creating layer csc
I1009 19:38:31.701622 148967 net.cpp:84] Creating Layer csc
I1009 19:38:31.701624 148967 net.cpp:406] csc <- reshape
I1009 19:38:31.701630 148967 net.cpp:380] csc -> csc
I1009 19:38:31.702733 148967 net.cpp:122] Setting up csc
I1009 19:38:31.702746 148967 net.cpp:129] Top shape: 1600 100 7 7 (7840000)
I1009 19:38:31.702750 148967 net.cpp:137] Memory required for data: 31988400
I1009 19:38:31.702767 148967 layer_factory.hpp:77] Creating layer pool
I1009 19:38:31.702781 148967 net.cpp:84] Creating Layer pool
I1009 19:38:31.702785 148967 net.cpp:406] pool <- csc
I1009 19:38:31.702790 148967 net.cpp:380] pool -> pool
I1009 19:38:31.702833 148967 net.cpp:122] Setting up pool
I1009 19:38:31.702841 148967 net.cpp:129] Top shape: 1600 100 1 1 (160000)
I1009 19:38:31.702843 148967 net.cpp:137] Memory required for data: 32628400
I1009 19:38:31.702848 148967 layer_factory.hpp:77] Creating layer reshape_back
I1009 19:38:31.702874 148967 net.cpp:84] Creating Layer reshape_back
I1009 19:38:31.702879 148967 net.cpp:406] reshape_back <- pool
I1009 19:38:31.702884 148967 net.cpp:380] reshape_back -> reshape_back
I1009 19:38:31.704147 148967 net.cpp:122] Setting up reshape_back
I1009 19:38:31.704175 148967 net.cpp:129] Top shape: 100 100 4 4 (160000)
I1009 19:38:31.704180 148967 net.cpp:137] Memory required for data: 33268400
I1009 19:38:31.704200 148967 layer_factory.hpp:77] Creating layer bn
I1009 19:38:31.704208 148967 net.cpp:84] Creating Layer bn
I1009 19:38:31.704212 148967 net.cpp:406] bn <- reshape_back
I1009 19:38:31.704217 148967 net.cpp:380] bn -> bn
I1009 19:38:31.704375 148967 net.cpp:122] Setting up bn
I1009 19:38:31.704382 148967 net.cpp:129] Top shape: 100 100 4 4 (160000)
I1009 19:38:31.704385 148967 net.cpp:137] Memory required for data: 33908400
I1009 19:38:31.704397 148967 layer_factory.hpp:77] Creating layer scale
I1009 19:38:31.704406 148967 net.cpp:84] Creating Layer scale
I1009 19:38:31.704408 148967 net.cpp:406] scale <- bn
I1009 19:38:31.704421 148967 net.cpp:367] scale -> bn (in-place)
I1009 19:38:31.704458 148967 layer_factory.hpp:77] Creating layer scale
I1009 19:38:31.704550 148967 net.cpp:122] Setting up scale
I1009 19:38:31.704556 148967 net.cpp:129] Top shape: 100 100 4 4 (160000)
I1009 19:38:31.704560 148967 net.cpp:137] Memory required for data: 34548400
I1009 19:38:31.704566 148967 layer_factory.hpp:77] Creating layer relu
I1009 19:38:31.704576 148967 net.cpp:84] Creating Layer relu
I1009 19:38:31.704579 148967 net.cpp:406] relu <- bn
I1009 19:38:31.704583 148967 net.cpp:367] relu -> bn (in-place)
I1009 19:38:31.962016 148967 net.cpp:122] Setting up relu
I1009 19:38:31.962069 148967 net.cpp:129] Top shape: 100 100 4 4 (160000)
I1009 19:38:31.962075 148967 net.cpp:137] Memory required for data: 35188400
I1009 19:38:31.962083 148967 layer_factory.hpp:77] Creating layer ip
I1009 19:38:31.962100 148967 net.cpp:84] Creating Layer ip
I1009 19:38:31.962105 148967 net.cpp:406] ip <- bn
I1009 19:38:31.962113 148967 net.cpp:380] ip -> ip
I1009 19:38:31.963140 148967 net.cpp:122] Setting up ip
I1009 19:38:31.963152 148967 net.cpp:129] Top shape: 100 10 (1000)
I1009 19:38:31.963172 148967 net.cpp:137] Memory required for data: 35192400
I1009 19:38:31.963186 148967 layer_factory.hpp:77] Creating layer ip_ip_0_split
I1009 19:38:31.963193 148967 net.cpp:84] Creating Layer ip_ip_0_split
I1009 19:38:31.963196 148967 net.cpp:406] ip_ip_0_split <- ip
I1009 19:38:31.963240 148967 net.cpp:380] ip_ip_0_split -> ip_ip_0_split_0
I1009 19:38:31.963249 148967 net.cpp:380] ip_ip_0_split -> ip_ip_0_split_1
I1009 19:38:31.963284 148967 net.cpp:122] Setting up ip_ip_0_split
I1009 19:38:31.963290 148967 net.cpp:129] Top shape: 100 10 (1000)
I1009 19:38:31.963294 148967 net.cpp:129] Top shape: 100 10 (1000)
I1009 19:38:31.963297 148967 net.cpp:137] Memory required for data: 35200400
I1009 19:38:31.963301 148967 layer_factory.hpp:77] Creating layer accuracy
I1009 19:38:31.963310 148967 net.cpp:84] Creating Layer accuracy
I1009 19:38:31.963315 148967 net.cpp:406] accuracy <- ip_ip_0_split_0
I1009 19:38:31.963320 148967 net.cpp:406] accuracy <- label_mnist_1_split_0
I1009 19:38:31.963323 148967 net.cpp:380] accuracy -> accuracy
…
