…
I1020 16:25:15.640314  3685 solver.cpp:87] Creating training net from net file: examples/mnist_csc/small_context.prototxt
I1020 16:25:15.640699  3685 net.cpp:294] The NetState phase (0) differed from the phase (1) specified by a rule in layer mnist
I1020 16:25:15.640813  3685 net.cpp:51] Initializing net from parameters: 
name: "mnist_csc_small_context"
state {
  phase: TRAIN
  level: 0
  stage: ""
}
layer {
  name: "mnist"
  type: "Data"
  top: "data"
  top: "label"
  include {
    phase: TRAIN
  }
  transform_param {
    scale: 0.00390625
  }
  data_param {
    source: "examples/mnist/mnist_train_lmdb"
    batch_size: 100
    backend: LMDB
  }
}
layer {
  name: "reshape"
  type: "Python"
  bottom: "data"
  top: "reshape"
  propagate_down: false
  python_param {
    module: "patch_layer.layer"
    layer: "CSCPatchLayer"
    param_str: "{\'patch_size\': 7}"
  }
}
layer {
  name: "csc"
  type: "CSC"
  bottom: "reshape"
  top: "csc"
  param {
    lr_mult: 1
    decay_mult: 1
  }
  param {
    lr_mult: 0
    decay_mult: 0
  }
  csc_param {
    lambda1: 0.1
    lambda2: 1
    boundary: PAD_BOTH
    kernel_h: 5
    kernel_w: 5
    num_output: 256
    admm_max_iter: 1000
    admm_max_rho: 1
    admm_eta: 1.1
    filler {
      type: "xavier"
    }
    verbose: false
  }
}
layer {
  name: "bn"
  type: "BatchNorm"
  bottom: "csc"
  top: "bn"
}
layer {
  name: "scale"
  type: "Scale"
  bottom: "bn"
  top: "bn"
  scale_param {
    bias_term: true
  }
}
layer {
  name: "relu"
  type: "ReLU"
  bottom: "bn"
  top: "bn"
}
layer {
  name: "pool"
  type: "Pooling"
  bottom: "bn"
  top: "pool"
  pooling_param {
    pool: MAX
    global_pooling: true
  }
}
layer {
  name: "reshape_back"
  type: "Python"
  bottom: "pool"
  top: "reshape_back"
  python_param {
    module: "patch_layer.layer"
    layer: "CSCGatherLayer"
    param_str: "{\'num_patches_h\': 4, \'num_patches_w\': 4}"
  }
}
layer {
  name: "ip"
  type: "InnerProduct"
  bottom: "reshape_back"
  top: "ip"
  param {
    lr_mult: 1
    decay_mult: 1
  }
  param {
    lr_mult: 2
    decay_mult: 0
  }
  inner_product_param {
    num_output: 10
    weight_filler {
      type: "xavier"
    }
    bias_filler {
      type: "constant"
    }
  }
}
layer {
  name: "accuracy"
  type: "Accuracy"
  bottom: "ip"
  bottom: "label"
  top: "accuracy"
}
layer {
  name: "loss"
  type: "SoftmaxWithLoss"
  bottom: "ip"
  bottom: "label"
  top: "loss"
}
I1020 16:25:15.640915  3685 layer_factory.hpp:77] Creating layer mnist
I1020 16:25:15.641135  3685 db_lmdb.cpp:35] Opened lmdb examples/mnist/mnist_train_lmdb
I1020 16:25:15.641180  3685 net.cpp:84] Creating Layer mnist
I1020 16:25:15.641192  3685 net.cpp:380] mnist -> data
I1020 16:25:15.641222  3685 net.cpp:380] mnist -> label
I1020 16:25:15.642032  3685 data_layer.cpp:45] output data size: 100,1,28,28
I1020 16:25:15.645175  3685 net.cpp:122] Setting up mnist
I1020 16:25:15.645193  3685 net.cpp:129] Top shape: 100 1 28 28 (78400)
I1020 16:25:15.645198  3685 net.cpp:129] Top shape: 100 (100)
I1020 16:25:15.645200  3685 net.cpp:137] Memory required for data: 314000
I1020 16:25:15.645227  3685 layer_factory.hpp:77] Creating layer label_mnist_1_split
I1020 16:25:15.645237  3685 net.cpp:84] Creating Layer label_mnist_1_split
I1020 16:25:15.645243  3685 net.cpp:406] label_mnist_1_split <- label
I1020 16:25:15.645256  3685 net.cpp:380] label_mnist_1_split -> label_mnist_1_split_0
I1020 16:25:15.645277  3685 net.cpp:380] label_mnist_1_split -> label_mnist_1_split_1
I1020 16:25:15.645345  3685 net.cpp:122] Setting up label_mnist_1_split
I1020 16:25:15.645354  3685 net.cpp:129] Top shape: 100 (100)
I1020 16:25:15.645375  3685 net.cpp:129] Top shape: 100 (100)
I1020 16:25:15.645380  3685 net.cpp:137] Memory required for data: 314800
I1020 16:25:15.645382  3685 layer_factory.hpp:77] Creating layer reshape
I1020 16:25:16.043167  3685 net.cpp:84] Creating Layer reshape
I1020 16:25:16.043193  3685 net.cpp:406] reshape <- data
I1020 16:25:16.043220  3685 net.cpp:380] reshape -> reshape
I1020 16:25:16.043442  3685 net.cpp:122] Setting up reshape
I1020 16:25:16.043458  3685 net.cpp:129] Top shape: 1600 1 7 7 (78400)
I1020 16:25:16.043463  3685 net.cpp:137] Memory required for data: 628400
I1020 16:25:16.043468  3685 layer_factory.hpp:77] Creating layer csc
I1020 16:25:16.043481  3685 net.cpp:84] Creating Layer csc
I1020 16:25:16.043484  3685 net.cpp:406] csc <- reshape
I1020 16:25:16.043490  3685 net.cpp:380] csc -> csc
I1020 16:25:16.044556  3685 net.cpp:122] Setting up csc
I1020 16:25:16.044569  3685 net.cpp:129] Top shape: 1600 256 7 7 (20070400)
I1020 16:25:16.044571  3685 net.cpp:137] Memory required for data: 80910000
I1020 16:25:16.044606  3685 layer_factory.hpp:77] Creating layer bn
I1020 16:25:16.044615  3685 net.cpp:84] Creating Layer bn
I1020 16:25:16.044620  3685 net.cpp:406] bn <- csc
I1020 16:25:16.044625  3685 net.cpp:380] bn -> bn
I1020 16:25:16.045521  3685 net.cpp:122] Setting up bn
I1020 16:25:16.045532  3685 net.cpp:129] Top shape: 1600 256 7 7 (20070400)
I1020 16:25:16.045536  3685 net.cpp:137] Memory required for data: 161191600
I1020 16:25:16.045572  3685 layer_factory.hpp:77] Creating layer scale
I1020 16:25:16.045585  3685 net.cpp:84] Creating Layer scale
I1020 16:25:16.045589  3685 net.cpp:406] scale <- bn
I1020 16:25:16.045594  3685 net.cpp:367] scale -> bn (in-place)
I1020 16:25:16.045635  3685 layer_factory.hpp:77] Creating layer scale
I1020 16:25:16.045733  3685 net.cpp:122] Setting up scale
I1020 16:25:16.045742  3685 net.cpp:129] Top shape: 1600 256 7 7 (20070400)
I1020 16:25:16.045745  3685 net.cpp:137] Memory required for data: 241473200
I1020 16:25:16.045752  3685 layer_factory.hpp:77] Creating layer relu
I1020 16:25:16.045760  3685 net.cpp:84] Creating Layer relu
I1020 16:25:16.045764  3685 net.cpp:406] relu <- bn
I1020 16:25:16.045768  3685 net.cpp:367] relu -> bn (in-place)
I1020 16:25:16.307054  3685 net.cpp:122] Setting up relu
I1020 16:25:16.307107  3685 net.cpp:129] Top shape: 1600 256 7 7 (20070400)
I1020 16:25:16.307112  3685 net.cpp:137] Memory required for data: 321754800
I1020 16:25:16.307119  3685 layer_factory.hpp:77] Creating layer pool
I1020 16:25:16.307137  3685 net.cpp:84] Creating Layer pool
I1020 16:25:16.307142  3685 net.cpp:406] pool <- bn
I1020 16:25:16.307150  3685 net.cpp:380] pool -> pool
I1020 16:25:16.307242  3685 net.cpp:122] Setting up pool
I1020 16:25:16.307250  3685 net.cpp:129] Top shape: 1600 256 1 1 (409600)
I1020 16:25:16.307253  3685 net.cpp:137] Memory required for data: 323393200
I1020 16:25:16.307257  3685 layer_factory.hpp:77] Creating layer reshape_back
I1020 16:25:16.307322  3685 net.cpp:84] Creating Layer reshape_back
I1020 16:25:16.307327  3685 net.cpp:406] reshape_back <- pool
I1020 16:25:16.307333  3685 net.cpp:380] reshape_back -> reshape_back
I1020 16:25:16.308601  3685 net.cpp:122] Setting up reshape_back
I1020 16:25:16.308615  3685 net.cpp:129] Top shape: 100 256 4 4 (409600)
I1020 16:25:16.308635  3685 net.cpp:137] Memory required for data: 325031600
I1020 16:25:16.308640  3685 layer_factory.hpp:77] Creating layer ip
I1020 16:25:16.308651  3685 net.cpp:84] Creating Layer ip
I1020 16:25:16.308655  3685 net.cpp:406] ip <- reshape_back
I1020 16:25:16.308660  3685 net.cpp:380] ip -> ip
I1020 16:25:16.309684  3685 net.cpp:122] Setting up ip
I1020 16:25:16.309695  3685 net.cpp:129] Top shape: 100 10 (1000)
I1020 16:25:16.309698  3685 net.cpp:137] Memory required for data: 325035600
I1020 16:25:16.309726  3685 layer_factory.hpp:77] Creating layer ip_ip_0_split
I1020 16:25:16.309732  3685 net.cpp:84] Creating Layer ip_ip_0_split
I1020 16:25:16.309736  3685 net.cpp:406] ip_ip_0_split <- ip
I1020 16:25:16.309741  3685 net.cpp:380] ip_ip_0_split -> ip_ip_0_split_0
I1020 16:25:16.309782  3685 net.cpp:380] ip_ip_0_split -> ip_ip_0_split_1
I1020 16:25:16.309816  3685 net.cpp:122] Setting up ip_ip_0_split
I1020 16:25:16.309823  3685 net.cpp:129] Top shape: 100 10 (1000)
I1020 16:25:16.309826  3685 net.cpp:129] Top shape: 100 10 (1000)
I1020 16:25:16.309828  3685 net.cpp:137] Memory required for data: 325043600
I1020 16:25:16.309831  3685 layer_factory.hpp:77] Creating layer accuracy
I1020 16:25:16.309840  3685 net.cpp:84] Creating Layer accuracy
I1020 16:25:16.309844  3685 net.cpp:406] accuracy <- ip_ip_0_split_0
I1020 16:25:16.309849  3685 net.cpp:406] accuracy <- label_mnist_1_split_0
I1020 16:25:16.309852  3685 net.cpp:380] accuracy -> accuracy
…
