…
I1011 15:09:35.987457 117686 solver.cpp:87] Creating training net from net file: examples/mnist_csc/small_context.prototxt
I1011 15:09:35.987809 117686 net.cpp:294] The NetState phase (0) differed from the phase (1) specified by a rule in layer mnist
I1011 15:09:35.987913 117686 net.cpp:51] Initializing net from parameters: 
name: "mnist_csc_small_context"
state {
  phase: TRAIN
  level: 0
  stage: ""
}
layer {
  name: "mnist"
  type: "Data"
  top: "data"
  top: "label"
  include {
    phase: TRAIN
  }
  transform_param {
    scale: 0.00390625
  }
  data_param {
    source: "examples/mnist/mnist_train_lmdb"
    batch_size: 100
    backend: LMDB
  }
}
layer {
  name: "reshape"
  type: "Python"
  bottom: "data"
  top: "reshape"
  propagate_down: false
  python_param {
    module: "patch_layer.layer"
    layer: "CSCPatchLayer"
    param_str: "{\'patch_size\': 7}"
  }
}
layer {
  name: "csc"
  type: "CSC"
  bottom: "reshape"
  top: "csc"
  param {
    lr_mult: 1
  }
  param {
    lr_mult: 0
  }
  csc_param {
    lambda1: 0.1
    lambda2: 1
    boundary: PAD_BOTH
    kernel_h: 5
    kernel_w: 5
    num_output: 100
    admm_max_iter: 1000
    admm_max_rho: 1
    admm_eta: 1.1
    filler {
      type: "xavier"
    }
    verbose: false
  }
}
layer {
  name: "pool"
  type: "Pooling"
  bottom: "csc"
  top: "pool"
  pooling_param {
    pool: MAX
    global_pooling: true
  }
}
layer {
  name: "reshape_back"
  type: "Python"
  bottom: "pool"
  top: "reshape_back"
  propagate_down: false
  python_param {
    module: "patch_layer.layer"
    layer: "CSCGatherLayer"
    param_str: "{\'num_patches_h\': 4, \'num_patches_w\': 4}"
  }
}
layer {
  name: "bn"
  type: "BatchNorm"
  bottom: "reshape_back"
  top: "bn"
}
layer {
  name: "scale"
  type: "Scale"
  bottom: "bn"
  top: "bn"
  scale_param {
    bias_term: true
  }
}
layer {
  name: "relu"
  type: "ReLU"
  bottom: "bn"
  top: "bn"
}
layer {
  name: "ip"
  type: "InnerProduct"
  bottom: "bn"
  top: "ip"
  param {
    lr_mult: 1
    decay_mult: 1
  }
  param {
    lr_mult: 2
    decay_mult: 0
  }
  inner_product_param {
    num_output: 10
    weight_filler {
      type: "xavier"
    }
    bias_filler {
      type: "constant"
    }
  }
}
layer {
  name: "accuracy"
  type: "Accuracy"
  bottom: "ip"
  bottom: "label"
  top: "accuracy"
}
layer {
  name: "loss"
  type: "SoftmaxWithLoss"
  bottom: "ip"
  bottom: "label"
  top: "loss"
}
I1011 15:09:35.988003 117686 layer_factory.hpp:77] Creating layer mnist
I1011 15:09:35.988131 117686 db_lmdb.cpp:35] Opened lmdb examples/mnist/mnist_train_lmdb
I1011 15:09:35.988175 117686 net.cpp:84] Creating Layer mnist
I1011 15:09:35.988185 117686 net.cpp:380] mnist -> data
I1011 15:09:35.988224 117686 net.cpp:380] mnist -> label
I1011 15:09:35.989070 117686 data_layer.cpp:45] output data size: 100,1,28,28
I1011 15:09:35.992789 117686 net.cpp:122] Setting up mnist
I1011 15:09:35.992808 117686 net.cpp:129] Top shape: 100 1 28 28 (78400)
I1011 15:09:35.992835 117686 net.cpp:129] Top shape: 100 (100)
I1011 15:09:35.992838 117686 net.cpp:137] Memory required for data: 314000
I1011 15:09:35.992844 117686 layer_factory.hpp:77] Creating layer label_mnist_1_split
I1011 15:09:35.992853 117686 net.cpp:84] Creating Layer label_mnist_1_split
I1011 15:09:35.992861 117686 net.cpp:406] label_mnist_1_split <- label
I1011 15:09:35.992888 117686 net.cpp:380] label_mnist_1_split -> label_mnist_1_split_0
I1011 15:09:35.992895 117686 net.cpp:380] label_mnist_1_split -> label_mnist_1_split_1
I1011 15:09:35.992985 117686 net.cpp:122] Setting up label_mnist_1_split
I1011 15:09:35.993010 117686 net.cpp:129] Top shape: 100 (100)
I1011 15:09:35.993016 117686 net.cpp:129] Top shape: 100 (100)
I1011 15:09:35.993017 117686 net.cpp:137] Memory required for data: 314800
I1011 15:09:35.993021 117686 layer_factory.hpp:77] Creating layer reshape
I1011 15:09:36.405525 117686 net.cpp:84] Creating Layer reshape
I1011 15:09:36.405560 117686 net.cpp:406] reshape <- data
I1011 15:09:36.405570 117686 net.cpp:380] reshape -> reshape
I1011 15:09:36.405799 117686 net.cpp:122] Setting up reshape
I1011 15:09:36.405817 117686 net.cpp:129] Top shape: 1600 1 7 7 (78400)
I1011 15:09:36.405822 117686 net.cpp:137] Memory required for data: 628400
I1011 15:09:36.405827 117686 layer_factory.hpp:77] Creating layer csc
I1011 15:09:36.405859 117686 net.cpp:84] Creating Layer csc
I1011 15:09:36.405864 117686 net.cpp:406] csc <- reshape
I1011 15:09:36.405869 117686 net.cpp:380] csc -> csc
I1011 15:09:36.407054 117686 net.cpp:122] Setting up csc
I1011 15:09:36.407068 117686 net.cpp:129] Top shape: 1600 100 7 7 (7840000)
I1011 15:09:36.407088 117686 net.cpp:137] Memory required for data: 31988400
I1011 15:09:36.407105 117686 layer_factory.hpp:77] Creating layer pool
I1011 15:09:36.407119 117686 net.cpp:84] Creating Layer pool
I1011 15:09:36.407124 117686 net.cpp:406] pool <- csc
I1011 15:09:36.407129 117686 net.cpp:380] pool -> pool
I1011 15:09:36.407192 117686 net.cpp:122] Setting up pool
I1011 15:09:36.407198 117686 net.cpp:129] Top shape: 1600 100 1 1 (160000)
I1011 15:09:36.407202 117686 net.cpp:137] Memory required for data: 32628400
I1011 15:09:36.407205 117686 layer_factory.hpp:77] Creating layer reshape_back
I1011 15:09:36.407233 117686 net.cpp:84] Creating Layer reshape_back
I1011 15:09:36.407239 117686 net.cpp:406] reshape_back <- pool
I1011 15:09:36.407244 117686 net.cpp:380] reshape_back -> reshape_back
I1011 15:09:36.408175 117686 net.cpp:122] Setting up reshape_back
I1011 15:09:36.408190 117686 net.cpp:129] Top shape: 100 100 4 4 (160000)
I1011 15:09:36.408193 117686 net.cpp:137] Memory required for data: 33268400
I1011 15:09:36.408196 117686 layer_factory.hpp:77] Creating layer bn
I1011 15:09:36.408206 117686 net.cpp:84] Creating Layer bn
I1011 15:09:36.408211 117686 net.cpp:406] bn <- reshape_back
I1011 15:09:36.408216 117686 net.cpp:380] bn -> bn
I1011 15:09:36.408385 117686 net.cpp:122] Setting up bn
I1011 15:09:36.408391 117686 net.cpp:129] Top shape: 100 100 4 4 (160000)
I1011 15:09:36.408396 117686 net.cpp:137] Memory required for data: 33908400
I1011 15:09:36.408406 117686 layer_factory.hpp:77] Creating layer scale
I1011 15:09:36.408421 117686 net.cpp:84] Creating Layer scale
I1011 15:09:36.408424 117686 net.cpp:406] scale <- bn
I1011 15:09:36.408429 117686 net.cpp:367] scale -> bn (in-place)
I1011 15:09:36.408469 117686 layer_factory.hpp:77] Creating layer scale
I1011 15:09:36.408561 117686 net.cpp:122] Setting up scale
I1011 15:09:36.408567 117686 net.cpp:129] Top shape: 100 100 4 4 (160000)
I1011 15:09:36.408571 117686 net.cpp:137] Memory required for data: 34548400
I1011 15:09:36.408577 117686 layer_factory.hpp:77] Creating layer relu
I1011 15:09:36.408586 117686 net.cpp:84] Creating Layer relu
I1011 15:09:36.408591 117686 net.cpp:406] relu <- bn
I1011 15:09:36.408594 117686 net.cpp:367] relu -> bn (in-place)
I1011 15:09:36.683090 117686 net.cpp:122] Setting up relu
I1011 15:09:36.683145 117686 net.cpp:129] Top shape: 100 100 4 4 (160000)
I1011 15:09:36.683149 117686 net.cpp:137] Memory required for data: 35188400
I1011 15:09:36.683157 117686 layer_factory.hpp:77] Creating layer ip
I1011 15:09:36.683176 117686 net.cpp:84] Creating Layer ip
I1011 15:09:36.683182 117686 net.cpp:406] ip <- bn
I1011 15:09:36.683190 117686 net.cpp:380] ip -> ip
I1011 15:09:36.684232 117686 net.cpp:122] Setting up ip
I1011 15:09:36.684245 117686 net.cpp:129] Top shape: 100 10 (1000)
I1011 15:09:36.684248 117686 net.cpp:137] Memory required for data: 35192400
I1011 15:09:36.684260 117686 layer_factory.hpp:77] Creating layer ip_ip_0_split
I1011 15:09:36.684268 117686 net.cpp:84] Creating Layer ip_ip_0_split
I1011 15:09:36.684298 117686 net.cpp:406] ip_ip_0_split <- ip
I1011 15:09:36.684303 117686 net.cpp:380] ip_ip_0_split -> ip_ip_0_split_0
I1011 15:09:36.684310 117686 net.cpp:380] ip_ip_0_split -> ip_ip_0_split_1
I1011 15:09:36.684345 117686 net.cpp:122] Setting up ip_ip_0_split
I1011 15:09:36.684350 117686 net.cpp:129] Top shape: 100 10 (1000)
I1011 15:09:36.684353 117686 net.cpp:129] Top shape: 100 10 (1000)
I1011 15:09:36.684356 117686 net.cpp:137] Memory required for data: 35200400
I1011 15:09:36.684360 117686 layer_factory.hpp:77] Creating layer accuracy
I1011 15:09:36.684367 117686 net.cpp:84] Creating Layer accuracy
I1011 15:09:36.684371 117686 net.cpp:406] accuracy <- ip_ip_0_split_0
I1011 15:09:36.684376 117686 net.cpp:406] accuracy <- label_mnist_1_split_0
I1011 15:09:36.684379 117686 net.cpp:380] accuracy -> accuracy
…
