…
I1012 16:17:25.968544  3443 solver.cpp:87] Creating training net from net file: examples/mnist_csc/small_context.prototxt
I1012 16:17:25.968916  3443 net.cpp:294] The NetState phase (0) differed from the phase (1) specified by a rule in layer mnist
I1012 16:17:25.969017  3443 net.cpp:51] Initializing net from parameters: 
name: "mnist_csc_small_context"
state {
  phase: TRAIN
  level: 0
  stage: ""
}
layer {
  name: "mnist"
  type: "Data"
  top: "data"
  top: "label"
  include {
    phase: TRAIN
  }
  transform_param {
    scale: 0.00390625
  }
  data_param {
    source: "examples/mnist/mnist_train_lmdb"
    batch_size: 100
    backend: LMDB
  }
}
layer {
  name: "reshape"
  type: "Python"
  bottom: "data"
  top: "reshape"
  propagate_down: false
  python_param {
    module: "patch_layer.layer"
    layer: "CSCPatchLayer"
    param_str: "{\'patch_size\': 7}"
  }
}
layer {
  name: "csc"
  type: "CSC"
  bottom: "reshape"
  top: "csc"
  param {
    lr_mult: 1
    decay_mult: 1
  }
  param {
    lr_mult: 0
    decay_mult: 0
  }
  csc_param {
    lambda1: 0.1
    lambda2: 1
    boundary: PAD_BOTH
    kernel_h: 5
    kernel_w: 5
    num_output: 100
    admm_max_iter: 1000
    admm_max_rho: 1
    admm_eta: 1.1
    filler {
      type: "xavier"
    }
    verbose: false
  }
}
layer {
  name: "bn"
  type: "BatchNorm"
  bottom: "csc"
  top: "bn"
}
layer {
  name: "scale"
  type: "Scale"
  bottom: "bn"
  top: "bn"
  scale_param {
    bias_term: true
  }
}
layer {
  name: "relu"
  type: "ReLU"
  bottom: "bn"
  top: "bn"
}
layer {
  name: "pool"
  type: "Pooling"
  bottom: "bn"
  top: "pool"
  pooling_param {
    pool: MAX
    global_pooling: true
  }
}
layer {
  name: "reshape_back"
  type: "Python"
  bottom: "pool"
  top: "reshape_back"
  python_param {
    module: "patch_layer.layer"
    layer: "CSCGatherLayer"
    param_str: "{\'num_patches_h\': 4, \'num_patches_w\': 4}"
  }
}
layer {
  name: "ip"
  type: "InnerProduct"
  bottom: "reshape_back"
  top: "ip"
  param {
    lr_mult: 1
    decay_mult: 1
  }
  param {
    lr_mult: 2
    decay_mult: 0
  }
  inner_product_param {
    num_output: 10
    weight_filler {
      type: "xavier"
    }
    bias_filler {
      type: "constant"
    }
  }
}
layer {
  name: "accuracy"
  type: "Accuracy"
  bottom: "ip"
  bottom: "label"
  top: "accuracy"
}
layer {
  name: "loss"
  type: "SoftmaxWithLoss"
  bottom: "ip"
  bottom: "label"
  top: "loss"
}
I1012 16:17:25.969126  3443 layer_factory.hpp:77] Creating layer mnist
I1012 16:17:25.969390  3443 db_lmdb.cpp:35] Opened lmdb examples/mnist/mnist_train_lmdb
I1012 16:17:25.969478  3443 net.cpp:84] Creating Layer mnist
I1012 16:17:25.969491  3443 net.cpp:380] mnist -> data
I1012 16:17:25.969516  3443 net.cpp:380] mnist -> label
I1012 16:17:25.970353  3443 data_layer.cpp:45] output data size: 100,1,28,28
I1012 16:17:25.973654  3443 net.cpp:122] Setting up mnist
I1012 16:17:25.973687  3443 net.cpp:129] Top shape: 100 1 28 28 (78400)
I1012 16:17:25.973692  3443 net.cpp:129] Top shape: 100 (100)
I1012 16:17:25.973695  3443 net.cpp:137] Memory required for data: 314000
I1012 16:17:25.973702  3443 layer_factory.hpp:77] Creating layer label_mnist_1_split
I1012 16:17:25.973711  3443 net.cpp:84] Creating Layer label_mnist_1_split
I1012 16:17:25.973734  3443 net.cpp:406] label_mnist_1_split <- label
I1012 16:17:25.973744  3443 net.cpp:380] label_mnist_1_split -> label_mnist_1_split_0
I1012 16:17:25.973753  3443 net.cpp:380] label_mnist_1_split -> label_mnist_1_split_1
I1012 16:17:25.973824  3443 net.cpp:122] Setting up label_mnist_1_split
I1012 16:17:25.973831  3443 net.cpp:129] Top shape: 100 (100)
I1012 16:17:25.973852  3443 net.cpp:129] Top shape: 100 (100)
I1012 16:17:25.973855  3443 net.cpp:137] Memory required for data: 314800
I1012 16:17:25.973860  3443 layer_factory.hpp:77] Creating layer reshape
I1012 16:17:26.369765  3443 net.cpp:84] Creating Layer reshape
I1012 16:17:26.369796  3443 net.cpp:406] reshape <- data
I1012 16:17:26.369805  3443 net.cpp:380] reshape -> reshape
I1012 16:17:26.370031  3443 net.cpp:122] Setting up reshape
I1012 16:17:26.370046  3443 net.cpp:129] Top shape: 1600 1 7 7 (78400)
I1012 16:17:26.370051  3443 net.cpp:137] Memory required for data: 628400
I1012 16:17:26.370056  3443 layer_factory.hpp:77] Creating layer csc
I1012 16:17:26.370087  3443 net.cpp:84] Creating Layer csc
I1012 16:17:26.370091  3443 net.cpp:406] csc <- reshape
I1012 16:17:26.370097  3443 net.cpp:380] csc -> csc
I1012 16:17:26.371069  3443 net.cpp:122] Setting up csc
I1012 16:17:26.371083  3443 net.cpp:129] Top shape: 1600 100 7 7 (7840000)
I1012 16:17:26.371086  3443 net.cpp:137] Memory required for data: 31988400
I1012 16:17:26.371103  3443 layer_factory.hpp:77] Creating layer bn
I1012 16:17:26.371111  3443 net.cpp:84] Creating Layer bn
I1012 16:17:26.371114  3443 net.cpp:406] bn <- csc
I1012 16:17:26.371119  3443 net.cpp:380] bn -> bn
I1012 16:17:26.371285  3443 net.cpp:122] Setting up bn
I1012 16:17:26.371294  3443 net.cpp:129] Top shape: 1600 100 7 7 (7840000)
I1012 16:17:26.371296  3443 net.cpp:137] Memory required for data: 63348400
I1012 16:17:26.371307  3443 layer_factory.hpp:77] Creating layer scale
I1012 16:17:26.371336  3443 net.cpp:84] Creating Layer scale
I1012 16:17:26.371340  3443 net.cpp:406] scale <- bn
I1012 16:17:26.371343  3443 net.cpp:367] scale -> bn (in-place)
I1012 16:17:26.371381  3443 layer_factory.hpp:77] Creating layer scale
I1012 16:17:26.371485  3443 net.cpp:122] Setting up scale
I1012 16:17:26.371493  3443 net.cpp:129] Top shape: 1600 100 7 7 (7840000)
I1012 16:17:26.371495  3443 net.cpp:137] Memory required for data: 94708400
I1012 16:17:26.371501  3443 layer_factory.hpp:77] Creating layer relu
I1012 16:17:26.371511  3443 net.cpp:84] Creating Layer relu
I1012 16:17:26.371515  3443 net.cpp:406] relu <- bn
I1012 16:17:26.371520  3443 net.cpp:367] relu -> bn (in-place)
I1012 16:17:26.627691  3443 net.cpp:122] Setting up relu
I1012 16:17:26.627729  3443 net.cpp:129] Top shape: 1600 100 7 7 (7840000)
I1012 16:17:26.627734  3443 net.cpp:137] Memory required for data: 126068400
I1012 16:17:26.627743  3443 layer_factory.hpp:77] Creating layer pool
I1012 16:17:26.627763  3443 net.cpp:84] Creating Layer pool
I1012 16:17:26.627768  3443 net.cpp:406] pool <- bn
I1012 16:17:26.627775  3443 net.cpp:380] pool -> pool
I1012 16:17:26.627849  3443 net.cpp:122] Setting up pool
I1012 16:17:26.627857  3443 net.cpp:129] Top shape: 1600 100 1 1 (160000)
I1012 16:17:26.627861  3443 net.cpp:137] Memory required for data: 126708400
I1012 16:17:26.627866  3443 layer_factory.hpp:77] Creating layer reshape_back
I1012 16:17:26.627960  3443 net.cpp:84] Creating Layer reshape_back
I1012 16:17:26.627966  3443 net.cpp:406] reshape_back <- pool
I1012 16:17:26.627971  3443 net.cpp:380] reshape_back -> reshape_back
I1012 16:17:26.628923  3443 net.cpp:122] Setting up reshape_back
I1012 16:17:26.628937  3443 net.cpp:129] Top shape: 100 100 4 4 (160000)
I1012 16:17:26.628940  3443 net.cpp:137] Memory required for data: 127348400
I1012 16:17:26.628943  3443 layer_factory.hpp:77] Creating layer ip
I1012 16:17:26.628957  3443 net.cpp:84] Creating Layer ip
I1012 16:17:26.628960  3443 net.cpp:406] ip <- reshape_back
I1012 16:17:26.628965  3443 net.cpp:380] ip -> ip
I1012 16:17:26.629830  3443 net.cpp:122] Setting up ip
I1012 16:17:26.629842  3443 net.cpp:129] Top shape: 100 10 (1000)
I1012 16:17:26.629845  3443 net.cpp:137] Memory required for data: 127352400
I1012 16:17:26.629858  3443 layer_factory.hpp:77] Creating layer ip_ip_0_split
I1012 16:17:26.629864  3443 net.cpp:84] Creating Layer ip_ip_0_split
I1012 16:17:26.629868  3443 net.cpp:406] ip_ip_0_split <- ip
I1012 16:17:26.629873  3443 net.cpp:380] ip_ip_0_split -> ip_ip_0_split_0
I1012 16:17:26.629899  3443 net.cpp:380] ip_ip_0_split -> ip_ip_0_split_1
I1012 16:17:26.629953  3443 net.cpp:122] Setting up ip_ip_0_split
I1012 16:17:26.629961  3443 net.cpp:129] Top shape: 100 10 (1000)
I1012 16:17:26.629963  3443 net.cpp:129] Top shape: 100 10 (1000)
I1012 16:17:26.629967  3443 net.cpp:137] Memory required for data: 127360400
I1012 16:17:26.629971  3443 layer_factory.hpp:77] Creating layer accuracy
I1012 16:17:26.629978  3443 net.cpp:84] Creating Layer accuracy
I1012 16:17:26.629981  3443 net.cpp:406] accuracy <- ip_ip_0_split_0
I1012 16:17:26.629987  3443 net.cpp:406] accuracy <- label_mnist_1_split_0
I1012 16:17:26.629990  3443 net.cpp:380] accuracy -> accuracy
…
