…
I1003 11:33:32.492797 133060 solver.cpp:87] Creating training net from net file: examples/mnist_csc/mnist_csc_simple.prototxt
I1003 11:33:32.493111 133060 net.cpp:294] The NetState phase (0) differed from the phase (1) specified by a rule in layer mnist
I1003 11:33:32.493221 133060 net.cpp:51] Initializing net from parameters: 
name: "mnist_csc"
state {
  phase: TRAIN
  level: 0
  stage: ""
}
layer {
  name: "mnist"
  type: "Data"
  top: "data"
  top: "label"
  include {
    phase: TRAIN
  }
  transform_param {
    scale: 0.00390625
  }
  data_param {
    source: "examples/mnist/mnist_train_lmdb"
    batch_size: 100
    backend: LMDB
  }
}
layer {
  name: "csc"
  type: "CSC"
  bottom: "data"
  top: "csc"
  param {
    lr_mult: 1
  }
  param {
    lr_mult: 0
  }
  csc_param {
    lambda1: 0.1
    lambda2: 1
    boundary: PAD_BOTH
    kernel_h: 5
    kernel_w: 5
    num_output: 100
    admm_max_iter: 1000
    admm_max_rho: 1
    admm_eta: 1.1
    filler {
      type: "xavier"
    }
    verbose: false
  }
}
layer {
  name: "pool"
  type: "Pooling"
  bottom: "csc"
  top: "pool"
  pooling_param {
    pool: AVE
    kernel_size: 14
    stride: 14
  }
}
layer {
  name: "ip"
  type: "InnerProduct"
  bottom: "pool"
  top: "ip"
  param {
    lr_mult: 1
    decay_mult: 1
  }
  param {
    lr_mult: 2
    decay_mult: 0
  }
  inner_product_param {
    num_output: 10
    weight_filler {
      type: "xavier"
    }
    bias_filler {
      type: "constant"
    }
  }
}
layer {
  name: "accuracy"
  type: "Accuracy"
  bottom: "ip"
  bottom: "label"
  top: "accuracy"
}
layer {
  name: "loss"
  type: "SoftmaxWithLoss"
  bottom: "ip"
  bottom: "label"
  top: "loss"
}
I1003 11:33:32.493314 133060 layer_factory.hpp:77] Creating layer mnist
I1003 11:33:32.493582 133060 db_lmdb.cpp:35] Opened lmdb examples/mnist/mnist_train_lmdb
I1003 11:33:32.493630 133060 net.cpp:84] Creating Layer mnist
I1003 11:33:32.493643 133060 net.cpp:380] mnist -> data
I1003 11:33:32.493675 133060 net.cpp:380] mnist -> label
I1003 11:33:32.494607 133060 data_layer.cpp:45] output data size: 100,1,28,28
I1003 11:33:32.498133 133060 net.cpp:122] Setting up mnist
I1003 11:33:32.498173 133060 net.cpp:129] Top shape: 100 1 28 28 (78400)
I1003 11:33:32.498179 133060 net.cpp:129] Top shape: 100 (100)
I1003 11:33:32.498183 133060 net.cpp:137] Memory required for data: 314000
I1003 11:33:32.498193 133060 layer_factory.hpp:77] Creating layer label_mnist_1_split
I1003 11:33:32.498224 133060 net.cpp:84] Creating Layer label_mnist_1_split
I1003 11:33:32.498229 133060 net.cpp:406] label_mnist_1_split <- label
I1003 11:33:32.498245 133060 net.cpp:380] label_mnist_1_split -> label_mnist_1_split_0
I1003 11:33:32.498255 133060 net.cpp:380] label_mnist_1_split -> label_mnist_1_split_1
I1003 11:33:32.498301 133060 net.cpp:122] Setting up label_mnist_1_split
I1003 11:33:32.498308 133060 net.cpp:129] Top shape: 100 (100)
I1003 11:33:32.498312 133060 net.cpp:129] Top shape: 100 (100)
I1003 11:33:32.498317 133060 net.cpp:137] Memory required for data: 314800
I1003 11:33:32.498320 133060 layer_factory.hpp:77] Creating layer csc
I1003 11:33:32.498329 133060 net.cpp:84] Creating Layer csc
I1003 11:33:32.498334 133060 net.cpp:406] csc <- data
I1003 11:33:32.498340 133060 net.cpp:380] csc -> csc
I1003 11:33:32.499580 133060 net.cpp:122] Setting up csc
I1003 11:33:32.499593 133060 net.cpp:129] Top shape: 100 100 28 28 (7840000)
I1003 11:33:32.499596 133060 net.cpp:137] Memory required for data: 31674800
I1003 11:33:32.499632 133060 layer_factory.hpp:77] Creating layer pool
I1003 11:33:32.499644 133060 net.cpp:84] Creating Layer pool
I1003 11:33:32.499666 133060 net.cpp:406] pool <- csc
I1003 11:33:32.499675 133060 net.cpp:380] pool -> pool
I1003 11:33:32.771101 133060 net.cpp:122] Setting up pool
I1003 11:33:32.771152 133060 net.cpp:129] Top shape: 100 100 2 2 (40000)
I1003 11:33:32.771157 133060 net.cpp:137] Memory required for data: 31834800
I1003 11:33:32.771164 133060 layer_factory.hpp:77] Creating layer ip
I1003 11:33:32.771185 133060 net.cpp:84] Creating Layer ip
I1003 11:33:32.771190 133060 net.cpp:406] ip <- pool
I1003 11:33:32.771200 133060 net.cpp:380] ip -> ip
I1003 11:33:32.771361 133060 net.cpp:122] Setting up ip
I1003 11:33:32.771370 133060 net.cpp:129] Top shape: 100 10 (1000)
I1003 11:33:32.771374 133060 net.cpp:137] Memory required for data: 31838800
I1003 11:33:32.771384 133060 layer_factory.hpp:77] Creating layer ip_ip_0_split
I1003 11:33:32.771394 133060 net.cpp:84] Creating Layer ip_ip_0_split
I1003 11:33:32.771399 133060 net.cpp:406] ip_ip_0_split <- ip
I1003 11:33:32.771404 133060 net.cpp:380] ip_ip_0_split -> ip_ip_0_split_0
I1003 11:33:32.771416 133060 net.cpp:380] ip_ip_0_split -> ip_ip_0_split_1
I1003 11:33:32.771462 133060 net.cpp:122] Setting up ip_ip_0_split
I1003 11:33:32.771469 133060 net.cpp:129] Top shape: 100 10 (1000)
I1003 11:33:32.771476 133060 net.cpp:129] Top shape: 100 10 (1000)
I1003 11:33:32.771478 133060 net.cpp:137] Memory required for data: 31846800
I1003 11:33:32.771482 133060 layer_factory.hpp:77] Creating layer accuracy
I1003 11:33:32.771492 133060 net.cpp:84] Creating Layer accuracy
I1003 11:33:32.771497 133060 net.cpp:406] accuracy <- ip_ip_0_split_0
I1003 11:33:32.771502 133060 net.cpp:406] accuracy <- label_mnist_1_split_0
I1003 11:33:32.771508 133060 net.cpp:380] accuracy -> accuracy
…
